Comparisons/GCNII-master/pretrained/02e19df27e644b8fb4e8b65f986b2b4a.pt (torch_old, 85412 bytes, 68 tensors)

convs.0.weight f4 [16, 16]
0	0xbb800653	-0.003907004
1	0xbb652a45	-0.0034967822
2	0xb9b21497	-0.00033966146
3	0xbaf45239	-0.0018640227
4	0xb9b2faa3	-0.00034137545
5	0x39931671	0.00028054745
6	0xb9ab216a	-0.00032640557
7	0xb7f96e21	-2.9734396e-05
8	0xbb2cca5b	-0.002636573
9	0x3b67d24e	0.0035373154
10	0xbb3bd8f1	-0.0028663243
11	0x3902f456	0.00012488788
12	0xbb6e4ecd	-0.0036362887
13	0x3a483dac	0.00076385844
14	0x39a6f2ac	0.00031842792
15	0xb9ee5238	-0.00045456155
16	0xbb8093ef	-0.003923885
17	0x3953071d	0.00020125178
18	0xb9940911	-0.00028235515
19	0x3997bf68	0.00028943573
20	0xb97fc530	-0.00024392153
21	0xbb008acf	-0.0019613986
22	0x39e80e5d	0.0004426119
23	0xba7f8cb9	-0.00097484473
24	0x3b7f1815	0.0038924266
25	0xb97a8eea	-0.00023895098
26	0xb742228a	-1.1571343e-05
27	0x3826e639	3.9791896e-05
28	0x3b18d0f6	0.002331791
29	0x39818dec	0.00024710537
30	0xbb1034d8	-0.0022004154
31	0x3b52300c	0.0032072095
32	0xbb809476	-0.003923948
33	0xb889dbf5	-6.573639e-05
34	0x3a1b2270	0.00059179123
35	0xb82c7924	-4.1120817e-05
36	0x3751b457	1.2499359e-05
37	0xbb755d1e	-0.0037439535
38	0x3b19d211	0.0023471157
39	0x38c613df	9.445077e-05
40	0x39768cf9	0.00023512905
41	0xb9582d29	-0.00020616189
42	0xb964be39	-0.00021814638
43	0xbb1e39f5	-0.0024143432
44	0x36ea541d	6.9835355e-06
45	0xb6a22930	-4.832771e-06
46	0x3650b72b	3.1101033e-06
47	0xb8846b2d	-6.3142135e-05
48	0x39a77990	0.00031943293
49	0x38112487	3.4604713e-05
50	0x3926e745	0.00015917148
51	0x3a814ad5	0.0009864221
52	0x3b77ebe6	0.0037829815
53	0xbb6c47ed	-0.0036053613
54	0xb8779bcd	-5.903449e-05
55	0xb821f47f	-3.8613096e-05
56	0xb9092fb7	-0.00013083113
57	0x39b28a46	0.00034053827
58	0xbb80bfdd	-0.003929122
59	0x3b3942e4	0.002826863
60	0x3a5aee58	0.0008351556
61	0x3ae5adba	0.0017523088
62	0x387a2d11	5.9646616e-05
63	0x3aea1b34	0.001786089
64	0x38052d7b	3.1752028e-05
65	0xb9a50ef7	-0.00031482402
66	0xbb6a46c6	-0.003574775
67	0x398c80a4	0.00026798726
68	0x38a281b7	7.748923e-05
69	0x3837d4f3	4.3828924e-05
70	0xbb144e88	-0.0022629816
71	0xbae01482	-0.0017095956
72	0xba70610b	-0.0009169734
73	0x3b6ae214	0.003584032
74	0x39153bb3	0.00014231987
75	0x3b7f5af1	0.0038964117
76	0x3ac3fc69	0.0014952543
77	0xba038b05	-0.0005017969
78	0xbb06d7d7	-0.0020575428
79	0xbb5d1a6d	-0.0033737675
80	0xb99e478b	-0.00030189412
81	0x3ae46504	0.0017425125
82	0x3988ee59	0.00026117524
83	0x39f6b3ae	0.00047054648
84	0xb81d4d64	-3.7503793e-05
85	0xb9ae5070	-0.00033247797
86	0x38075764	3.2267897e-05
87	0x3b80c40b	0.00392962
88	0xb9a89b02	-0.00032158947
89	0x37f53577	2.9231172e-05
90	0x39a99b90	0.00032350095
91	0xb99d7592	-0.0003003297
92	0xb826c101	-3.9757233e-05
93	0xbad9b717	-0.0016610351
94	0x3b5b13e8	0.0033428613
95	0xb9829029	-0.0002490294
96	0xbafd5b7c	-0.0019329633
97	0x3aae4c47	0.0013297879
98	0x3b037047	0.0020055936
99	0x3a45183e	0.0007518566
100	0xb7f59822	-2.9277118e-05
101	0x39a1a2de	0.00030829658
102	0xba85f382	-0.0010219666
103	0x3b5af6b7	0.0033411214
104	0xb8fc6738	-0.000120355224
105	0x3aed6d29	0.0018114197
106	0x3b53333c	0.0032226583
107	0xb929b7d4	-0.00016185577
108	0x3b34757f	0.0027535853
109	0x3963de61	0.0002173125
110	0x383c9ff2	4.4971654e-05
111	0x386283d3	5.400537e-05
112	0x37a08985	1.9137524e-05
113	0x3ac8b376	0.0015312273
114	0x3a342c31	0.000687304
115	0x3a95c768	0.0011427226
116	0xb9b58881	-0.00034624714
117	0x3b306062	0.0026912917
118	0x38b580a5	8.6547145e-05
119	0xb7e6de95	-2.7521784e-05
120	0xb9c3b1d7	-0.000373258
121	0x3ade475a	0.001695852
122	0xba5471a3	-0.00081040914
123	0x3ac01c19	0.0014656811
124	0x3b0aeb64	0.0021197433
125	0x37154b58	8.898634e-06
126	0x3ac159c9	0.001475149
127	0x3b854514	0.0040670726
128	0xbb5c8733	-0.003364992
129	0xb985f6c9	-0.00025551606
130	0xbb462948	-0.0030237008
131	0xb599c85d	-1.1457702e-06
132	0x3b551112	0.0032511395
133	0xbb0f5c44	-0.0021875063
134	0xb91574c1	-0.00014253242
135	0x3a8688a1	0.0010264107
136	0x3b651530	0.0034955256
137	0x38b921b8	8.827768e-05
138	0xb82db46d	-4.141445e-05
139	0xb9ae09cb	-0.00033195163
140	0xba546649	-0.00081024
141	0x3b6cd2d5	0.0036136408
142	0xbb721d21	-0.0036943632
143	0x3b68c2c9	0.0035516492
144	0x3850c8ed	4.977819e-05
145	0x39a4a4a1	0.00031403176
146	0x39871d53	0.00025771055
147	0xbb54dbfd	-0.0032479756
148	0xbb102f5c	-0.0022000885
149	0x3b7e77ca	0.0038828724
150	0x399e451a	0.00030187593
151	0x3861f8cf	5.38759e-05
152	0xbb1e2451	-0.0024130533
153	0x3b73c579	0.003719656
154	0xbb04f943	-0.0020290173
155	0x3b698752	0.0035633636
156	0x39c05f5e	0.00036692148
157	0xbb066d7b	-0.0020512033
158	0xba1de565	-0.0006023257
159	0xb9cc0995	-0.0003891705
160	0xbb0824e8	-0.002077395
161	0x39b227db	0.000339805
162	0x3a9d83d8	0.0012017442
163	0x3b2d0100	0.00263983
164	0xb97c7069	-0.00024074469
165	0xb911f5b3	-0.00013919808
166	0xb96b5d67	-0.00022446142
167	0xbb477f81	-0.0030440988
168	0x39b39e36	0.00034259417
169	0xb91c8dd1	-0.0001493015
170	0xb9a7b22a	-0.00031985465
171	0xb9878d25	-0.00025854367
172	0x38f4c5d4	0.00011671675
173	0xb99d3092	-0.0002998156
174	0xb82b3587	-4.081943e-05
175	0x3ad651fb	0.0016351336
176	0x3b7709a0	0.0037694946
177	0xbb04e730	-0.00202794
178	0xbb80eba7	-0.003934342
179	0x3ab422a0	0.0013743229
180	0x39b25b0a	0.00034018635
181	0x399b1239	0.0002957748
182	0x3846757b	4.731629e-05
183	0x3b03b51a	0.0020096959
184	0x3997bb05	0.00028940305
185	0x3990f725	0.00027649957
186	0xbabf7444	-0.0014606793
187	0x37650e85	1.3652844e-05
188	0xb98a6cc7	-0.00026402457
189	0x3b1f557d	0.002431243
190	0x374a5b8b	1.2061452e-05
191	0x37bca4e7	2.2488135e-05
192	0xb9891e31	-0.0002615317
193	0xbb473289	-0.0030395112
194	0xbb21ea56	-0.0024706325
195	0xb9b4448d	-0.0003438335
196	0xb95184fb	-0.00019981332
197	0xba09dc48	-0.000525896
198	0x39abd749	0.00032776062
199	0x385983ce	5.1859584e-05
200	0x3b092ab8	0.0020930003
201	0x3ae1dfd2	0.0017232841
202	0xbb598136	-0.0033188588
203	0xba5279d0	-0.0008029016
204	0xb9a1229a	-0.00030734093
205	0x382a577b	4.061263e-05
206	0x3822b534	3.879257e-05
207	0x3b19acdd	0.0023448982
208	0x3a049e5e	0.0005058999
209	0xbab5d1e4	-0.0013871756
210	0xb96b486b	-0.00022438324
211	0x3981b1bc	0.0002473722
212	0x3b2862a1	0.0025693553
213	0x38259c9a	3.9484912e-05
214	0x3752b728	1.255962e-05
215	0xba430c3a	-0.00074404816
216	0x39a5e070	0.0003163847
217	0xb99b2006	-0.00029587763
218	0xb9abcb38	-0.0003276707
219	0x3a909b2c	0.0011032573
220	0x39eb145d	0.00044837865
221	0xbb64f993	-0.0034938797
222	0xb95362b5	-0.000201593
223	0xb990c445	-0.00027612053
224	0x38a0d558	7.669133e-05
225	0xba9ef5ac	-0.0012127659
226	0xbb7dfb8f	-0.0038754677
227	0xbaf542db	-0.0018711941
228	0x3b1da20a	0.0024052882
229	0x398f2435	0.00027302062
230	0x3b734edb	0.003712586
231	0xbb75ac27	-0.0037486644
232	0x39a67d1c	0.000317552
233	0xbb5a092d	-0.003326963
234	0x3994286d	0.0002825888
235	0x39a16134	0.00030780735
236	0x398184b0	0.00024703657
237	0x3b7edeed	0.0038890198
238	0x3b4a28a2	0.0030846973
239	0x3ac3c537	0.0014936094
240	0xb9aeb21c	-0.00033320568
241	0xb9ae80af	-0.00033283743
242	0xb9b7665a	-0.00034980738
243	0x39862b43	0.00025590704
244	0xb9e48a35	-0.0004359052
245	0x3b32d996	0.0027290336
246	0x3a1dc4d9	0.00060184073
247	0xbb169639	-0.0022977723
248	0x3897915e	7.227318e-05
249	0xb86a06f8	-5.5796438e-05
250	0x398cc21b	0.000268475
251	0x3b68f7c6	0.0035548075
252	0x396af320	0.0002240655
253	0xb9a7b815	-0.00031989874
254	0xb96ba304	-0.00022472074
255	0x3aa62834	0.0012676776

convs.1.weight f4 [16, 16]
0	0x38e678c4	0.00010989749
1	0x3b19b597	0.0023454183
2	0x39a9a2a8	0.0003235538
3	0x3949289b	0.0001918398
4	0xbb46a967	-0.0030313374
5	0x3b8066c9	0.003918503
6	0xbb505c5d	-0.0031793334
7	0xb99c964d	-0.00029866621
8	0xbad1ef43	-0.001601674
9	0xbab89b99	-0.0014084458
10	0xb9f8c52f	-0.0004744916
11	0x39853f7b	0.00025415033
12	0xb9b38287	-0.0003423879
13	0x3b6081ab	0.0034256976
14	0x39a547b9	0.0003152469
15	0x39028e71	0.0001245083
16	0xb8733044	-5.7980666e-05
17	0xbb78740e	-0.003791097
18	0xbaa542da	-0.0012608424
19	0xb9b3ab58	-0.00034269202
20	0x3b6c037b	0.0036012817
21	0x39b47d67	0.00034425707
22	0x39215b4c	0.00015388167
23	0x3878dbc6	5.9332488e-05
24	0xb9b4d329	-0.00034489602
25	0x382b3763	4.082116e-05
26	0xbaff817d	-0.0019493547
27	0xb9abf313	-0.00032796766
28	0x39d33468	0.00040284102
29	0x391b5fc4	0.00014817627
30	0x3a95f261	0.0011440032
31	0xbb6cc42b	-0.0036127667
32	0xbb5d34f3	-0.0033753484
33	0x36a6771f	4.961053e-06
34	0xbb0c9553	-0.002145131
35	0x39e2babe	0.00043245213
36	0x3b0fba3a	0.0021931068
37	0x3a1ea3d2	0.0006051633
38	0xbace5b1a	-0.0015743703
39	0xb9335cfb	-0.00017105408
40	0x39b22784	0.00033980247
41	0xbaabbe7c	-0.0013103033
42	0x3a8625ee	0.0010234693
43	0x39dc1835	0.00041979706
44	0xb68b6e8b	-4.1553917e-06
45	0xb9aa44f7	-0.0003247631
46	0x3ae36bfc	0.0017350907
47	0xb9abab42	-0.0003274326
48	0x3b738aab	0.003716151
49	0xbb5d61f2	-0.0033780304
50	0x3a04ee11	0.0005070875
51	0x39ab5416	0.0003267831
52	0x3af1b5ea	0.0018441055
53	0x3ac4fb50	0.001502851
54	0xbaccf533	-0.001563704
55	0x39b555a9	0.00034586832
56	0x3b3fd8fd	0.0029273622
57	0xba058615	-0.0005093527
58	0xba99a839	-0.0011723108
59	0x39add864	0.00033158355
60	0xba9d72f7	-0.0012012412
61	0xb99ed35c	-0.00030293583
62	0x393ded3c	0.00018112821
63	0x3920d404	0.00015337771
64	0x3b18cf21	0.0023316818
65	0xb99cdab6	-0.0002991759
66	0xbb72e4bb	-0.0037062604
67	0x39e60f6a	0.00043880503
68	0x393edcc1	0.00018202049
69	0x3b7a5efc	0.0038203588
70	0x3aed07ad	0.0018083953
71	0x3a0e55a4	0.00054296316
72	0x3b808b3a	0.003922847
73	0xb9a74a21	-0.00031907953
74	0xbabe0e64	-0.0014500138
75	0xb9149e9a	-0.00014173464
76	0x3b80db63	0.003932403
77	0x3b782b07	0.0037867443
78	0x39c156a4	0.0003687638
79	0x3b7b7bd6	0.0038373373
80	0xbace7d9c	-0.0015753987
81	0x39a5e73e	0.0003164354
82	0xb9863789	-0.0002559985
83	0xbb1b8a52	-0.0023733568
84	0xbafcc28d	-0.0019284055
85	0xb9af69b8	-0.00033457368
86	0xb9a7263b	-0.00031881206
87	0x3b1fbb1b	0.0024372998
88	0x3b75dbf3	0.0037515133
89	0xb97dc034	-0.00024199561
90	0xba4b3109	-0.0007751142
91	0xb9a8fd3f	-0.0003223214
92	0x3aab1926	0.001305376
93	0x39a9d44f	0.00032392374
94	0x390d08fc	0.00013450155
95	0x393c9d30	0.00017987634
96	0xbb7eb29c	-0.0038863784
97	0x3902bb3e	0.00012467519
98	0x39103227	0.00013751593
99	0x3b08b158	0.0020857658
100	0xb81ed797	-3.787092e-05
101	0xbb13cd32	-0.0022552726
102	0x380bc576	3.3324082e-05
103	0xba8f8667	-0.0010950089
104	0x3abf7221	0.0014606157
105	0xb8483b40	-4.7738897e-05
106	0x3b127307	0.0022346394
107	0x395bca95	0.00020960935
108	0x38af0ee9	8.3474275e-05
109	0x39b2d55a	0.00034109765
110	0x39824fb4	0.00024854916
111	0x3b80d1b3	0.003931248
112	0x3ac9c2c2	0.0015393125
113	0xb93a6a35	-0.00017777907
114	0xbb06fb57	-0.0020596588
115	0x392a37de	0.00016233276
116	0x388a0bf3	6.5825785e-05
117	0xba8f90af	-0.0010953153
118	0x3b6bb8c2	0.0035968279
119	0xb9d0495c	-0.0003972751
120	0x38be7d49	9.083242e-05
121	0x39817b96	0.00024696876
122	0xbb6636a2	-0.0035127779
123	0x3aee3dcc	0.0018176376
124	0xba950796	-0.0011370059
125	0x3b30caa0	0.0026976243
126	0xba91b7ca	-0.0011117395
127	0xbb5196af	-0.0031980684
128	0xb9583f3b	-0.0002062292
129	0xbb06f531	-0.0020592923
130	0x3b4f4f75	0.0031633053
131	0x3a8ea716	0.0010883536
132	0xb792dbca	-1.7506904e-05
133	0xb9b00cba	-0.00033578818
134	0xb99ba4ef	-0.0002968679
135	0x3993acca	0.00028166763
136	0xbb07b274	-0.0020705732
137	0x39ac7b85	0.00032898426
138	0xb98e5819	-0.00027149988
139	0xb8bfa4ba	-9.1382724e-05
140	0x3b7398a0	0.003716983
141	0x3b1ddd28	0.0024088118
142	0xb806d6e8	-3.2148237e-05
143	0xb981e05d	-0.0002477196
144	0xb88ef455	-6.816598e-05
145	0xbabcce17	-0.0014404681
146	0x3abad376	0.0014253694
147	0x39ab3f83	0.00032662982
148	0xb9c625a9	-0.00037793562
149	0x3b0d5acc	0.0021569012
150	0x3ab5b732	0.00138638
151	0xb9d17875	-0.00039953334
152	0xb9ea6c53	-0.00044712666
153	0xb8062355	-3.1980995e-05
154	0x387308a7	5.7943773e-05
155	0x3a5a0973	0.0008317448
156	0xba8a6dfc	-0.0010561342
157	0xbafcfcf9	-0.0019301466
158	0xbb420e6d	-0.002961065
159	0xb9dd160d	-0.00042168834
160	0x39d5fab6	0.0004081332
161	0xbae4dd42	-0.001746096
162	0x3a8eff3b	0.0010909805
163	0x3a22e657	0.0006214133
164	0xb990c036	-0.0002760903
165	0x3aef463f	0.0018255188
166	0x3b78aceb	0.0037944864
167	0xb82227c4	-3.8660844e-05
168	0xbb7859d9	-0.003789535
169	0xb864f38d	-5.458626e-05
170	0x38056b97	3.1809872e-05
171	0x3adec28d	0.0016995237
172	0x3af65356	0.0018793147
173	0x399de8ad	0.0003011873
174	0x399b6a15	0.0002964294
175	0xbab0a5b0	-0.0013477113
176	0x3a29c884	0.00064767175
177	0x39013312	0.00012321424
178	0x3b7b8e04	0.0038384208
179	0xb91f4483	-0.00015188944
180	0x3a5ff323	0.0008543005
181	0xb954b7c6	-0.00020286356
182	0xb981d227	-0.00024761373
183	0x3adfc64e	0.0017072649
184	0xb769694e	-1.39124e-05
185	0xbb5e274f	-0.0033897941
186	0x38be9f5e	9.0895905e-05
187	0xbb807286	-0.0039199023
188	0xba66f7f7	-0.00088107534
189	0xb9aa7278	-0.00032510213
190	0x3b61da5b	0.0034462425
191	0xbb78f206	-0.0037986054
192	0xbb80490b	-0.0039149574
193	0x3b7fcde8	0.0039032642
194	0xbaa83c60	-0.0012835376
195	0x39969bdc	0.00028726354
196	0x3b6e7031	0.003638279
197	0x3953017a	0.00020123078
198	0x3985d533	0.00025526583
199	0x39a98c65	0.00032338794
200	0xb946de13	-0.0001896548
201	0xbaea9e33	-0.001789993
202	0x39c9c0ef	0.00038481454
203	0x38117554	3.4679964e-05
204	0xb9ec4eb4	-0.00045072066
205	0x39abe6cd	0.00032787622
206	0xbaf85623	-0.0018946569
207	0x3b363ae6	0.0027806102
208	0xbab6137e	-0.0013891307
209	0xb99dff01	-0.00030135366
210	0x3b649443	0.003487841
211	0xb949a107	-0.00019228841
212	0xba571606	-0.0008204881
213	0xbb4c0176	-0.00311288
214	0xbb1a9221	-0.0023585635
215	0xb7fcbdf5	-3.0129197e-05
216	0xbb7c50f7	-0.0038500407
217	0xba5903bb	-0.0008278449
218	0xb92f2239	-0.0001670205
219	0x39ada121	0.00033117182
220	0xb99a7642	-0.00029461278
221	0x3abbcc4a	0.0014327851
222	0x396ab13b	0.00022382002
223	0x39a88b3e	0.000321472
224	0x399fed46	0.00030503626
225	0x3a5d200d	0.0008435257
226	0x3806f5d3	3.217703e-05
227	0x3a510de5	0.0007974788
228	0x38050c82	3.172132e-05
229	0x3a1054af	0.0005505783
230	0x39982cad	0.00029024985
231	0x388c8e51	6.702229e-05
232	0xbb017644	-0.001975433
233	0xba1ed921	-0.00060595764
234	0xb74891f5	-1.1954912e-05
235	0xbae1c79b	-0.0017225625
236	0x39b5c50b	0.0003466982
237	0xb94d7b01	-0.00019596146
238	0xba86cba4	-0.0010284078
239	0xb95d0a17	-0.00021079961
240	0xbab6e353	-0.0013953246
241	0xbad24ea8	-0.001604517
242	0xb984a9d1	-0.00025303525
243	0x39c16e3b	0.00036893957
244	0xba1530ec	-0.0005691189
245	0xb9a72fbc	-0.00031888287
246	0xb86d8874	-5.6632285e-05
247	0xbb7403ed	-0.0037233785
248	0xbb8190ca	-0.003954028
249	0x39780b7d	0.00023655403
250	0x3b6b131f	0.0035869551
251	0xb99a8bf2	-0.00029477436
252	0xb9c865b5	-0.0003822275
253	0xb8ad4962	-8.2629515e-05
254	0x3af6ef6a	0.0018839661
255	0x3b005390	0.0019581057

convs.2.weight f4 [16, 16]
0	0xb5ac029d	-1.2815759e-06
1	0x3b7f5c26	0.0038964837
2	0x39264e73	0.00015860218
3	0x3b64049f	0.0034792793
4	0xbb398f04	-0.0028314004
5	0x3aa0b08b	0.0012259645
6	0xbb7bdfa3	-0.0038432858
7	0xb794eb86	-1.7752649e-05
8	0xbb04aa5d	-0.0020243146
9	0xb8b2841b	-8.512308e-05
10	0xbb12dff3	-0.0022411316
11	0xb8cc32f2	-9.736967e-05
12	0xbb574724	-0.00328488
13	0x3b3d0291	0.002884064
14	0xba7f3ce0	-0.0009736549
15	0x39194c22	0.00014619579
16	0x39ad7cdc	0.0003309016
17	0x398bcb83	0.00026663774
18	0x3932e82d	0.00017061895
19	0xb9a61d0d	-0.00031683632
20	0xbaa29ab1	-0.0012405721
21	0xba96aa07	-0.0011494764
22	0xbaad05e3	-0.0013200607
23	0xb8afbc5d	-8.379736e-05
24	0x3ab41f19	0.0013742178
25	0x3949a4f5	0.00019230305
26	0x3adfca26	0.0017073795
27	0xbb727b0c	-0.0036999611
28	0x3820ba33	3.8320384e-05
29	0xba817b2f	-0.000987863
30	0xb9b2bc84	-0.0003409126
31	0xb6a25815	-4.8382303e-06
32	0xbab26df6	-0.0013613093
33	0x3b1a2a49	0.002352374
34	0xb6ca1d6e	-6.023495e-06
35	0xbb813754	-0.003943363
36	0xbb76de96	-0.0037669293
37	0x3aea1140	0.0017857924
38	0xb9b58dd9	-0.00034628695
39	0x39a79c54	0.00031969196
40	0xb93bb167	-0.00017899797
41	0x3995211c	0.00028444163
42	0xb9b0e36b	-0.00033738776
43	0x3ad076f7	0.0015904595
44	0xb9dfed3e	-0.00042710634
45	0x38709a38	5.7364086e-05
46	0x38ec161a	0.00011257474
47	0xb8e9b900	-0.00011144765
48	0xbae60b8b	-0.0017551047
49	0xba9e4e9f	-0.0012077874
50	0x39b7c1bb	0.0003504882
51	0x3b53bf83	0.0032310195
52	0x3b25c355	0.002529343
53	0x3859695c	5.1834955e-05
54	0x3b2cf680	0.0026392043
55	0xb985a2fd	-0.00025489173
56	0x3af0b9dc	0.0018365937
57	0x3ae6d483	0.0017610941
58	0x3839c13a	4.4287393e-05
59	0x398baabe	0.0002663936
60	0x38afcf15	8.383222e-05
61	0xba8fe39b	-0.0010977866
62	0xbb65bf2b	-0.0035056572
63	0xb7dd474d	-2.6378455e-05
64	0x388998e2	6.561146e-05
65	0x397f4ae1	0.0002434659
66	0xb9b335ce	-0.00034181628
67	0xb951d138	-0.00020009733
68	0xb7d1a936	-2.4993536e-05
69	0x3b3a3a5e	0.0028416137
70	0x3ad385cb	0.0016137896
71	0xbb1d0aee	-0.0023962813
72	0xb847ab8f	-4.7605074e-05
73	0x396ac13c	0.00022387964
74	0x379e36bb	1.8860554e-05
75	0x397265e4	0.00023116876
76	0x39e7db82	0.000442233
77	0x39a0d6f4	0.0003067773
78	0xba4a0579	-0.0007706504
79	0xbb37fd44	-0.0028074542
80	0x3b7fd3cd	0.0039036155
81	0xb8201bc6	-3.817284e-05
82	0xb9abb06e	-0.00032747112
83	0x3b7e54b7	0.0038807818
84	0xbabf6561	-0.0014602357
85	0x3b2e7016	0.0026617101
86	0xbb1f3e87	-0.0024298744
87	0x3b0738c6	0.0020633205
88	0xb96d809a	-0.00022649989
89	0x39965390	0.00028672488
90	0x3aa25de4	0.0012387601
91	0x3a6ad502	0.0008958132
92	0xb966d0b7	-0.00022012262
93	0x3b51d3c0	0.0032017082
94	0x3955a23a	0.00020373697
95	0x388032e0	6.112992e-05
96	0xbb7e0f23	-0.0038766346
97	0xba4f4f0e	-0.00079082034
98	0xb961cdbf	-0.00021534319
99	0x382eaaa8	4.164377e-05
100	0x3a2a4bae	0.00064962625
101	0xbb3777e1	-0.0027995037
102	0xbb047b8d	-0.0020215244
103	0xb8e2d032	-0.00010815299
104	0x3a49e797	0.0007702051
105	0x3b78ff6a	0.0037994036
106	0x3a8e7545	0.0010868689
107	0xba5f4144	-0.00085165
108	0xb9a65f42	-0.0003173296
109	0xb9a18bb6	-0.00030812406
110	0x3b64e720	0.00349278
111	0xb8e209a5	-0.00010778316
112	0x392480c8	0.00015688234
113	0x386dc2af	5.6686516e-05
114	0xbac3c6c9	-0.0014936562
115	0xb999ca42	-0.00029333128
116	0x3a01c91c	0.0004950927
117	0xb72337b9	-9.728531e-06
118	0x3a68959d	0.0008872392
119	0xb9c3baf0	-0.00037332578
120	0xba90f82f	-0.0011060293
121	0xbb7e4822	-0.0038800319
122	0xb932eca3	-0.00017063557
123	0x39c5ba44	0.00037713547
124	0x3b120629	0.0022281504
125	0xb9998719	-0.0002928309
126	0x3b289963	0.0025726191
127	0xb9e507ac	-0.00043684
128	0x399a5d9d	0.00029442916
129	0x3abf576b	0.0014598196
130	0xbb3740e8	-0.002796227
131	0xb8d100a0	-9.966013e-05
132	0x39efc3ea	0.000457316
133	0xb9a3b78f	-0.00031226545
134	0xba174e8e	-0.00057718984
135	0xb99dd073	-0.0003010068
136	0xbb1c22a1	-0.0023824351
137	0xb933029f	-0.00017071747
138	0xbb78eb7f	-0.0037982163
139	0xb8e644e6	-0.00010980088
140	0xbb65c936	-0.0035062558
141	0x3a2f0869	0.00066769734
142	0x3992298d	0.00027878248
143	0xbb8086e3	-0.0039223297
144	0x38918d53	6.9404625e-05
145	0xb85a758a	-5.2084717e-05
146	0xb8bac088	-8.905033e-05
147	0xbb6c0860	-0.0036015734
148	0x3b6c0261	0.003601216
149	0x39c7d5a1	0.00038115404
150	0x39c1051c	0.00036815635
151	0x39837979	0.0002507677
152	0xbae701b6	-0.0017624411
153	0x395ef534	0.00021262915
154	0xb8a3006c	-7.772524e-05
155	0xb93458a9	-0.00017199166
156	0x3946c7cc	0.00018957182
157	0x3b7dfa3c	0.0038753888
158	0xb940ae64	-0.00018375512
159	0x37685817	1.3848788e-05
160	0xb84a836c	-4.828295e-05
161	0x39a551be	0.00031532155
162	0x3b5e7280	0.003394276
163	0xbb80df1b	-0.0039328462
164	0xb9b40aea	-0.00034340407
165	0xb9ab4222	-0.00032664934
166	0x3b0844bc	0.0020792922
167	0x37235315	9.734901e-06
168	0xbb36c37c	-0.0027887514
169	0x3a106d5d	0.00055094605
170	0x3782de5e	1.5600755e-05
171	0x37f2a759	2.8926575e-05
172	0x399322b2	0.00028063875
173	0xbb028f97	-0.0019922012
174	0x3b3d5473	0.0028889447
175	0x38cf7d31	9.893848e-05
176	0x3a4d4cf8	0.00078315986
177	0x3a326084	0.0006804543
178	0xb89a67fa	-7.3626594e-05
179	0xba5d34c1	-0.0008438342
180	0xb887dd3d	-6.4785105e-05
181	0xb9dcdc85	-0.0004212597
182	0x397061f5	0.00022924675
183	0x36eef182	7.121068e-06
184	0xbb79b1a5	-0.003810027
185	0xbb5f90ee	-0.0034113484
186	0xb8e2fffd	-0.00010824201
187	0xbaf2a489	-0.001851217
188	0xb81bee06	-3.7176556e-05
189	0xb9917723	-0.0002774532
190	0xb9a6b708	-0.00031798356
191	0x3b5d2560	0.00337442
192	0x39a1f2a3	0.0003088909
193	0x3b746a85	0.0037294936
194	0xb953280d	-0.00020137448
195	0xb8cd266b	-9.782318e-05
196	0x3b3c40aa	0.0028725066
197	0x394302ec	0.00018597738
198	0xbaca2b1d	-0.0015424226
199	0x395e9375	0.00021226502
200	0x37c909ae	2.3965575e-05
201	0x38af6f0f	8.3653365e-05
202	0xbaf95434	-0.0019022287
203	0xbb5d072c	-0.0033726199
204	0xba1be7e0	-0.0005947333
205	0x3b012d20	0.0019710734
206	0x3b0820a0	0.00207714
207	0x387ff137	6.1021387e-05
208	0xb998efc3	-0.00029170336
209	0x38b3b3ee	8.5689e-05
210	0xbafb5568	-0.0019175233
211	0xbb7eb032	-0.0038862345
212	0x3abb0f93	0.0014271609
213	0xbaa5018d	-0.0012588963
214	0xbb05222b	-0.0020314555
215	0x3b623e48	0.0034521986
216	0x3a3131b2	0.00067594193
217	0xb99bd1df	-0.0002972027
218	0xbaf4fc7b	-0.0018690968
219	0x3ab28f88	0.0013623098
220	0x3b3a89c8	0.0028463472
221	0x38d9c037	0.00010383169
222	0x39689010	0.00022178912
223	0xbb6bca25	-0.0035978642
224	0x3b7c4736	0.0038494593
225	0x3b6581f5	0.0035020087
226	0x39a21691	0.0003091586
227	0xbb3b0d9f	-0.0028542054
228	0xb8307580	-4.20711e-05
229	0x36531024	3.1450845e-06
230	0xba50a24a	-0.0007958753
231	0xba9974be	-0.0011707766
232	0x39ce0ac9	0.00039299417
233	0xb94b1f00	-0.00019371137
234	0xbb23551d	-0.0024922558
235	0x3af307bf	0.0018541737
236	0xb923c891	-0.00015619608
237	0xbb62bfad	-0.003459911
238	0xb88f8343	-6.843221e-05
239	0xb9d3570a	-0.00040309905
240	0x39545ad5	0.00020251733
241	0x3957fd69	0.000205984
242	0xbb03211d	-0.002000875
243	0x390030d3	0.0001222522
244	0xb95c27f3	-0.00020995717
245	0x399fd5a0	0.00030486006
246	0x3b08cf50	0.002087552
247	0xb9d378b1	-0.00040334978
248	0xb9d3628e	-0.00040318485
249	0xb9b0a614	-0.00033693074
250	0xb959b6d3	-0.0002076284
251	0x3a1facc9	0.00060911156
252	0x39da0ec5	0.00041591204
253	0x38bba9bb	8.9484696e-05
254	0x39bec25c	0.00036384433
255	0x3ac72db0	0.0015196111

convs.3.weight f4 [16, 16]
0	0x39ba6f6c	0.000355597
1	0xb96e4b35	-0.00022725466
2	0xba8d1f56	-0.0010766785
3	0xba0a2313	-0.00052695087
4	0x3828115c	4.007049e-05
5	0xb7dd066d	-2.6348245e-05
6	0xb8f0d8a0	-0.00011484441
7	0xb889d355	-6.572033e-05
8	0x3af8c739	0.0018980271
9	0x3ad3b635	0.0016152324
10	0x3b2287d8	0.0024800207
11	0xbaaf1f17	-0.0013360706
12	0x3a1b34ad	0.000592063
13	0x3a234bce	0.00062292523
14	0x39955364	0.00028481625
15	0xbaab32aa	-0.0013061364
16	0xb98fa946	-0.00027401204
17	0x391e5d51	0.00015102817
18	0x39948d27	0.00028333926
19	0x39aaa0d2	0.00032544747
20	0xb9a601f2	-0.00031663437
21	0xba58a7cf	-0.00082647515
22	0xb93a805a	-0.00017786157
23	0xbac2df11	-0.0014867504
24	0x39a6a86a	0.00031787466
25	0x3b5d5725	0.0033773866
26	0xb9cb263e	-0.0003874767
27	0x3af2c15f	0.0018520764
28	0xb916cb62	-0.00014380881
29	0x388ae1e6	6.62243e-05
30	0x3ab8b9f4	0.0014093504
31	0xba05a6b3	-0.00050983875
32	0xb98e23a6	-0.0002711091
33	0xba1ebd20	-0.00060554035
34	0x3b1d0f23	0.002396532
35	0x37718c3f	1.4397373e-05
36	0xb6c358e7	-5.8218025e-06
37	0x3b7f4a7f	0.0038954315
38	0x3985652f	0.00025443124
39	0x39a9cc6c	0.00032386498
40	0xbb404a93	-0.0029341325
41	0x381c7f72	3.731199e-05
42	0xb9abc69d	-0.0003276364
43	0x39492cb6	0.0001918551
44	0x3956492f	0.00020435893
45	0xba823a50	-0.0009935591
46	0x393277d8	0.00017020048
47	0xb9af13cf	-0.0003339336
48	0x390a1855	0.0001316977
49	0xbb6cec7b	-0.0036151696
50	0xb99b46e5	-0.00029616724
51	0xbb3b9058	-0.002861997
52	0x39b2034f	0.0003395327
53	0xbb2b5757	-0.0026144588
54	0xb8615639	-5.372448e-05
55	0xb9882468	-0.00025967066
56	0x389e1ecc	7.5397635e-05
57	0x39ccdf4f	0.0003907629
58	0xb819fff1	-3.6716407e-05
59	0xb813937b	-3.5184883e-05
60	0x39bf84d1	0.00036529315
61	0x3b03222c	0.0020009382
62	0xb8aec8f5	-8.334398e-05
63	0xb9802a8c	-0.00024445762
64	0x3b342ccd	0.0027492524
65	0xb9339b37	-0.00017128592
66	0x3b552e08	0.0032528657
67	0x39d8726b	0.00041283978
68	0x3aa66389	0.0012694459
69	0xbae235f1	-0.0017258507
70	0x39ab9014	0.00032723008
71	0xb8e796f0	-0.00011043053
72	0xb85b2ce8	-5.225549e-05
73	0x3a0a08b4	0.0005265579
74	0x3b4904e3	0.0030673079
75	0x3b0b1b06	0.0021225824
76	0x37dcc549	2.6317912e-05
77	0x3ae8ce3b	0.0017761657
78	0x3a112e87	0.0005538244
79	0xb92e5e64	-0.00016629096
80	0x3997b126	0.0002893295
81	0xbafa7afc	-0.0019110139
82	0xbb03fbd2	-0.002013911
83	0x3a32389a	0.00067985954
84	0x3ac07b86	0.001468525
85	0xbafebc8e	-0.0019434856
86	0xb9ac52de	-0.00032868137
87	0x39a4e8f8	0.00031454093
88	0xba9a6f43	-0.0011782426
89	0xba752575	-0.000935159
90	0xbabae1bf	-0.0014257951
91	0xba97c7b4	-0.0011579902
92	0x39a92db0	0.00032268232
93	0x3b60acc4	0.0034282664
94	0xbb1d5881	-0.0024009051
95	0xb99fef20	-0.00030505005
96	0xb99b5e58	-0.00029634195
97	0xbb5fab11	-0.0034129063
98	0xbb81b576	-0.0039583994
99	0x377fda4b	1.525001e-05
100	0x3a1f39ca	0.000607398
101	0x3b5aceee	0.00333875
102	0xbb23b6f4	-0.0024980875
103	0xba78b5d2	-0.00094875426
104	0x399e78cc	0.0003022611
105	0x3af14fa0	0.0018410571
106	0xb9a25e69	-0.0003096939
107	0x3afb079c	0.0019152048
108	0xb825e101	-3.9548617e-05
109	0x3a17ecd2	0.0005795482
110	0xba0cf680	-0.00053773075
111	0xb818a1bf	-3.639026e-05
112	0x377c592b	1.50411315e-05
113	0xb9b21ad6	-0.000339708
114	0xb8b281bc	-8.511866e-05
115	0xb782cfeb	-1.5594027e-05
116	0xb84c2878	-4.867508e-05
117	0xbadae941	-0.0016701595
118	0xbb80cc65	-0.0039306157
119	0xba4aaf73	-0.00077318324
120	0x3b54d835	0.0032477502
121	0x386ec716	5.6929035e-05
122	0x398cbb70	0.00026842533
123	0xb9524431	-0.00020052564
124	0x38dd8f8c	0.00010564839
125	0x39894a2c	0.0002618594
126	0xbb6a45cd	-0.003574717
127	0xb7daf57d	-2.610194e-05
128	0x3b051632	0.002030742
129	0x39bf5a94	0.00036497845
130	0xb9a5693d	-0.0003154966
131	0x3a6df94a	0.00090779795
132	0xbb15acff	-0.002283871
133	0x398ab1cb	0.00026453877
134	0xbb1080b5	-0.0022049372
135	0xb9999d28	-0.00029299525
136	0x3992953c	0.00027958478
137	0xbaf17ff1	-0.001842497
138	0x3aa1e1ae	0.0012350583
139	0x3b07c8a3	0.0020718954
140	0xba459ff8	-0.0007538791
141	0xb8d62702	-0.00010211581
142	0x3b80b902	0.0039283046
143	0xbb27f795	-0.0025629748
144	0xbb70dc4f	-0.0036752408
145	0x3987fbbe	0.0002593677
146	0xba915a18	-0.0011089472
147	0x3a0d06bf	0.00053797284
148	0xb627c0f6	-2.4997257e-06
149	0xbaaf0a78	-0.001335456
150	0x38913675	6.924282e-05
151	0xb92b5f13	-0.00016343249
152	0x3b68e8aa	0.003553907
153	0x3979f386	0.0002383721
154	0x38787f9a	5.9246646e-05
155	0x38eabe63	0.00011193452
156	0xba0cfba6	-0.0005378075
157	0xb8529c8e	-5.0213705e-05
158	0x38d3af85	0.00010093957
159	0xb8d0ef91	-9.9628356e-05
160	0x3ae5cef8	0.0017532995
161	0xbaf1d78b	-0.0018451078
162	0xbac8b730	-0.0015313383
163	0x39ca1902	0.00038547075
164	0x3b48c1c9	0.0030633083
165	0xb8e49260	-0.00010899152
166	0xb8da897c	-0.000104206585
167	0xb99f8d45	-0.00030432097
168	0xb99b4b0e	-0.00029619824
169	0xb9fabe91	-0.000478257
170	0xb8736d3b	-5.8037444e-05
171	0x3984dc23	0.00025341017
172	0x3b80c281	0.0039294367
173	0x38945109	7.072284e-05
174	0x395714cb	0.00020511744
175	0x3a0ba2b4	0.0005326674
176	0x3b11c2a2	0.0022241254
177	0x39ad753f	0.00033084486
178	0x3b68af01	0.00355047
179	0x3b80a446	0.003925833
180	0x3b6f7c2e	0.0036542523
181	0xb99273b7	-0.00027933504
182	0x3824813f	3.9221017e-05
183	0x39b4ff47	0.00034522472
184	0xbb804081	-0.0039139395
185	0x398850a2	0.00026000018
186	0x37d0bade	2.4882549e-05
187	0x3a98f02f	0.001166826
188	0x3b4c2a2e	0.003115307
189	0x3aa80389	0.0012818436
190	0xbb68d357	-0.003552636
191	0x3b240556	0.0025027595
192	0x3b776a5f	0.003775261
193	0xb98ac072	-0.00026464794
194	0x3b80a969	0.0039264453
195	0xb9b0e6bb	-0.00033741244
196	0xb9197853	-0.00014636041
197	0xbb4007b4	-0.0029301466
198	0x379369aa	1.757297e-05
199	0x38048dc6	3.160329e-05
200	0xb8792f8c	-5.9410508e-05
201	0x387354af	5.8014582e-05
202	0xba394288	-0.0007067104
203	0xba283728	-0.00064169103
204	0x39793965	0.00023767872
205	0x3a515d35	0.0007986606
206	0xbb501307	-0.0031749622
207	0xb9aabd0e	-0.00032565783
208	0x3a58eb4b	0.00082748075
209	0xb8b37274	-8.556704e-05
210	0xbb70f71e	-0.0036768387
211	0xb8874ed8	-6.4519874e-05
212	0xb82057f8	-3.82289e-05
213	0x3acbc3eb	0.0015546059
214	0x39a61f89	0.00031685483
215	0xbb494a4a	-0.0030714446
216	0x39d89f82	0.00041317573
217	0xbac26090	-0.0014829803
218	0x3ae5affa	0.0017523759
219	0x38eeb4af	0.00011382379
220	0xb9aefac0	-0.0003337469
221	0xb9a1a77f	-0.00030833107
222	0xbadefdaf	-0.001701286
223	0x391f7beb	0.00015209585
224	0x38882ddd	6.493528e-05
225	0x3b5bf7c2	0.0033564423
226	0xbb7a9ebf	-0.0038241593
227	0xb9a5e65a	-0.00031642878
228	0xbb19c59d	-0.0023463734
229	0x3b180565	0.0023196575
230	0xba0c1553	-0.0005343754
231	0x3ab4a69a	0.0013782561
232	0x39706a61	0.00022927813
233	0xb94b8c26	-0.00019411798
234	0xb99b9c55	-0.0002968038
235	0x39aeaa14	0.00033314584
236	0xb996005a	-0.0002861049
237	0xb98373ce	-0.00025072548
238	0x3aab4e92	0.001306968
239	0x3ab494d8	0.0013777269
240	0x3997ebf7	0.00028976772
241	0xb9649b55	-0.0002180164
242	0x39a98fe5	0.00032341402
243	0x3b775af2	0.0037743417
244	0x38ca94e7	9.659846e-05
245	0xb95c70d2	-0.00021022864
246	0x3a10f068	0.00055289874
247	0x38b047bf	8.405698e-05
248	0x3b2b2a56	0.0026117763
249	0xb96883f7	-0.00022174405
250	0x3893d75d	7.049621e-05
251	0x39008af8	0.00012258801
252	0x3ad1ea14	0.0016015195
253	0x3a818ad9	0.0009883299
254	0x3b43d2af	0.0029880216
255	0x394c109a	0.0001946114

convs.4.weight f4 [16, 16]
0	0x3903e4e3	0.000125784
1	0xb929be9c	-0.00016188103
2	0xb92efbdc	-0.00016687758
3	0x37f6b516	2.940981e-05
4	0x38bed75d	9.1000205e-05
5	0x381f601c	3.7998063e-05
6	0x39ab080c	0.00032621657
7	0xb74e6945	-1.2303067e-05
8	0xb9a222eb	-0.00030925064
9	0x3b3dbbc0	0.002895102
10	0xb9986e43	-0.0002907385
11	0xba989ba9	-0.001164307
12	0x39aaaba1	0.000325528
13	0xb982b41e	-0.0002492973
14	0xb961280d	-0.00021472592
15	0xbb1a5f0a	-0.0023555183
16	0x3b780314	0.0037843632
17	0xbb80626b	-0.0039179823
18	0xb94c1955	-0.00019464393
19	0x39a579e5	0.0003156207
20	0x39fb3afd	0.000479184
21	0xb992e8c9	-0.00028020728
22	0xb888a98f	-6.516568e-05
23	0xbada0164	-0.0016632495
24	0x39b4877f	0.00034433228
25	0xb9a7971b	-0.00031965305
26	0xba2b3e5f	-0.00065324263
27	0xb96d906d	-0.00022655884
28	0x382539be	3.9392842e-05
29	0xb9922aa4	-0.0002787906
30	0xb9abb2db	-0.0003274892
31	0x3925b08a	0.00015801392
32	0xba4519a7	-0.0007518776
33	0x39995723	0.00029247356
34	0xb995da67	-0.00028582217
35	0x3b598aaa	0.0033194222
36	0x3b7cd113	0.0038576766
37	0xb7d81e7c	-2.5763402e-05
38	0xbb4ba538	-0.003107382
39	0xba89a804	-0.0010502343
40	0x3b55a0a6	0.0032596975
41	0x3964c241	0.0002181614
42	0x38553007	5.0827886e-05
43	0xb82b0bef	-4.078069e-05
44	0xbb54ae04	-0.0032452354
45	0xbb80d985	-0.0039321803
46	0xbb5235db	-0.0032075557
47	0xb8b0c274	-8.428554e-05
48	0xb924b12b	-0.00015706259
49	0x396dac5e	0.00022666293
50	0x3b033c03	0.0020024783
51	0x38ab0724	8.1552455e-05
52	0x39a797d7	0.00031965852
53	0x3926e699	0.00015916898
54	0x3b3a3614	0.002841358
55	0xb9dd78e1	-0.00042242467
56	0xb98e426a	-0.00027133833
57	0x3aae6b74	0.001330717
58	0x39832361	0.00025012626
59	0x3b1380de	0.002250723
60	0x3a3a3450	0.0007103132
61	0xb9ff3042	-0.00048673345
62	0xbb09e0e3	-0.0021038584
63	0x378da2fa	1.6884402e-05
64	0xb99bf52b	-0.00029746568
65	0x3956c1af	0.00020480783
66	0xbaa5a5d5	-0.0012637923
67	0x3940ef6e	0.00018399741
68	0x3b45ebd4	0.003020038
69	0xbb0740a4	-0.0020637894
70	0xbb5644e9	-0.0032694882
71	0x3a312fee	0.0006759156
72	0x3843168c	4.651262e-05
73	0xbb6d179f	-0.003617741
74	0xb90917d5	-0.00013074216
75	0xba6dd4a7	-0.000907252
76	0x3acad139	0.001547373
77	0x365e7eea	3.3154452e-06
78	0x3ae01517	0.0017096129
79	0xb91c5dd5	-0.00014912274
80	0x393df52a	0.00018115775
81	0xb823ea19	-3.908025e-05
82	0x398c89af	0.00026805463
83	0x398a45fe	0.0002637356
84	0xb877f646	-5.911875e-05
85	0xb9c3be9d	-0.00037335316
86	0x39949626	0.0002834063
87	0x3aadeb9e	0.0013269072
88	0x3a827278	0.0009952327
89	0xbb804f5f	-0.003915712
90	0xb98e724c	-0.00027169508
91	0xb871a7d4	-5.761518e-05
92	0x3ad9a65e	0.0016605367
93	0xbb790b48	-0.003800111
94	0xb82a34eb	-4.0580442e-05
95	0xbb03e120	-0.0020123199
96	0xb9a3722a	-0.00031174842
97	0x3b6f0fd8	0.003647795
98	0x3899c8d8	7.3330186e-05
99	0x37f0a901	2.8688928e-05
100	0xbb6c2342	-0.0036031757
101	0x3a6b314c	0.00089718844
102	0x3903b035	0.00012558776
103	0xb7ffc3fe	-3.0489635e-05
104	0x39ab1aa1	0.00032635502
105	0xbacc037c	-0.0015565003
106	0x3a62e0ac	0.00086546945
107	0xba640998	-0.00086989393
108	0x38605c49	5.349171e-05
109	0x3ac6bccb	0.0015162466
110	0xb987c130	-0.00025893142
111	0x39dfa8d3	0.00042659658
112	0xba6ae511	-0.0008960525
113	0xbafd8abb	-0.0019343713
114	0x3b0fc969	0.0021940118
115	0x3b3a592e	0.0028434503
116	0xb9009fa7	-0.00012266506
117	0xba5f2d90	-0.0008513564
118	0x39b2466a	0.00034003268
119	0x3b6593b3	0.0035030663
120	0xb88c43e6	-6.688367e-05
121	0xb87d5d23	-6.040664e-05
122	0xb9a26f79	-0.000309821
123	0x3afa46d2	0.0019094592
124	0x39998c38	0.00029286905
125	0x394c6dbd	0.00019495837
126	0x3b4da040	0.0031376034
127	0xbb7bf156	-0.0038443408
128	0x373e2d5f	1.1335446e-05
129	0x38d7f06f	0.00010296783
130	0x37f0cbd5	2.8705146e-05
131	0x38f8a1b4	0.00011855681
132	0xba5a74d2	-0.00083334476
133	0xbafc028f	-0.0019226837
134	0x3b80a81d	0.0039262907
135	0xbb02d8f6	-0.0019965745
136	0x3aa964e7	0.0012923748
137	0x39a799a1	0.00031967185
138	0xbb80c234	-0.003929401
139	0xbb4e8963	-0.0031514994
140	0x3b80a1a4	0.003925519
141	0xbb340f53	-0.0027474954
142	0x3ad5d4f0	0.0016314071
143	0x3a94bbe6	0.0011347502
144	0x3b241411	0.0025036375
145	0xb9b13d99	-0.00033805965
146	0xb98a9ec1	-0.00026439692
147	0xbaf0f253	-0.0018382765
148	0xb680be99	-3.8368858e-06
149	0x3aa7dc3d	0.0012806725
150	0xb990dd2d	-0.0002763061
151	0xb83ffbb6	-4.5772373e-05
152	0x38e9b82c	0.000111446105
153	0xba000eb9	-0.00048850063
154	0xbb8094d9	-0.003923994
155	0xb967f694	-0.00022121734
156	0x3abf74bb	0.0014606932
157	0x399898f8	0.0002910567
158	0x3b38bfcd	0.0028190494
159	0x3b7614f9	0.0037549122
160	0x3ad30c44	0.0016101678
161	0x3a46d071	0.0007584161
162	0x3934ef5c	0.00017255306
163	0xb9b451ae	-0.00034393132
164	0x378a53c5	1.648989e-05
165	0xba0d2a26	-0.0005385004
166	0x3a756ce4	0.0009362234
167	0xbb7a212b	-0.0038166742
168	0xbb7f05c3	-0.0038913346
169	0x3b80702e	0.003919623
170	0x3b80bb27	0.0039285603
171	0x3b75657a	0.0037444518
172	0xb93c8258	-0.00017977634
173	0x3a54e304	0.0008120986
174	0xba97a0a4	-0.001156826
175	0xb9a8a16b	-0.00032163723
176	0xb9a80352	-0.0003204593
177	0x39295b2c	0.0001615106
178	0x3afe0975	0.001938148
179	0xb9d2553e	-0.00040117832
180	0x3ad3eb67	0.0016168178
181	0x3b4a3615	0.003085499
182	0xb99d3d45	-0.00029991023
183	0xb9f84f26	-0.00047361216
184	0xbb802df1	-0.0039117266
185	0xb8a80a54	-8.012788e-05
186	0xbaf4ab13	-0.0018666707
187	0x3b6672db	0.0035163674
188	0xb9b0df40	-0.0003373567
189	0xbb5cb3f2	-0.0033676592
190	0xb9b0acb8	-0.0003369802
191	0xbaf35e4b	-0.001856753
192	0xbb787c96	-0.0037916056
193	0xb972d1fd	-0.00023157145
194	0x39a73dea	0.00031898852
195	0x3afe9075	0.0019421714
196	0x3b383337	0.0028106698
197	0x39a036e8	0.00030558486
198	0xb7add2a6	-2.0721298e-05
199	0x3a23fca1	0.0006255601
200	0x39aa7112	0.0003250917
201	0x3b4cb415	0.0031235267
202	0xbb45d42d	-0.003018628
203	0xba3ad732	-0.00071274035
204	0x394ad967	0.0001934521
205	0x38d341f8	0.00010073552
206	0x39bc8340	0.00035955943
207	0xb876477d	-5.871755e-05
208	0x39497162	0.00019211092
209	0xba4d4367	-0.0007830173
210	0xbb7e653f	-0.0038817672
211	0x38c00a83	9.1572314e-05
212	0xb9b4bf1c	-0.00034474663
213	0x39410f68	0.00018411654
214	0x3b1c01a2	0.0023804684
215	0xbb777c08	-0.0037763137
216	0xb9920973	-0.0002785433
217	0xb89da9dc	-7.517982e-05
218	0x3904372a	0.00012609051
219	0xb9855d36	-0.00025437184
220	0xbae38dbf	-0.0017360969
221	0x3b1b18e7	0.0023665966
222	0x3ae4bed6	0.0017451893
223	0xbb1c6aa0	-0.0023867264
224	0xb9458ff3	-0.0001884101
225	0x3b1f45ed	0.0024303154
226	0xbb04ab8f	-0.0020243858
227	0x3916c772	0.00014379414
228	0xb88231e4	-6.208176e-05
229	0xbb1cdbe7	-0.0023934783
230	0x3849628e	4.801392e-05
231	0xbaf35881	-0.0018565805
232	0xb9b0b030	-0.00033700606
233	0xb9abda79	-0.00032778436
234	0x39a523a8	0.00031497818
235	0x3b57c408	0.003292324
236	0x39b18dbe	0.00033865677
237	0xbb664be8	-0.0035140458
238	0x3a24bbab	0.0006284068
239	0x39dcd2ec	0.0004211882
240	0xb9e5981a	-0.00043791608
241	0xbb77baa4	-0.0037800455
242	0xb945c6e7	-0.00018861481
243	0x37ac6806	2.0552437e-05
244	0xbaa95b7e	-0.0012920944
245	0x399e0ac2	0.00030144124
246	0x3a98e87f	0.0011665969
247	0xba139b00	-0.0005630702
248	0x386a7023	5.5894383e-05
249	0xbaf6c1ea	-0.0018826101
250	0x3b4c5b0e	0.0031182203
251	0xbb02005e	-0.0019836645
252	0xbb4e5f8c	-0.0031490056
253	0x394503f4	0.00018788857
254	0x38849d74	6.3235784e-05
255	0xba48b655	-0.0007656564

convs.5.weight f4 [16, 16]
0	0x3b5868cf	0.0033021455
1	0xb9a1f039	-0.00030887293
2	0xbb1bc3ef	-0.0023767909
3	0xb9063e95	-0.0001280255
4	0x3b6e3490	0.0036347248
5	0xbab11473	-0.0013510123
6	0xbad30368	-0.0016099038
7	0x3b096c4c	0.002096909
8	0xb93a7e00	-0.00017785281
9	0xb9e258ed	-0.00043172334
10	0xba974ef3	-0.0011543914
11	0x34b641c5	3.3947995e-07
12	0xbaf2f0b7	-0.0018534873
13	0x3a2b0ca4	0.0006525016
14	0xbb25d393	-0.002530311
15	0xbb726709	-0.0036987683
16	0x3aa8e3e1	0.0012885296
17	0x3b7906ec	0.003799851
18	0x3993d323	0.00028195334
19	0x3948aad6	0.00019137128
20	0xb9ac5e6a	-0.0003287674
21	0x3b1943f4	0.002338645
22	0x39984f60	0.00029050838
23	0x399d4be7	0.00030001925
24	0xb9759ec1	-0.00023424161
25	0x38aa6f71	8.126989e-05
26	0xba88c09e	-0.0010433381
27	0x3b148961	0.0022664892
28	0xb979632d	-0.00023783436
29	0xb99b3756	-0.00029605132
30	0xb99e2fa1	-0.00030171595
31	0xbacf2b65	-0.0015805779
32	0xb87101ba	-5.7460486e-05
33	0xb9b43638	-0.00034372672
34	0xbb182225	-0.002321371
35	0x3a9769a5	0.001155187
36	0x38836f33	6.267279e-05
37	0x3a520c20	0.0008012671
38	0x3b7efff2	0.003890988
39	0x3b1d0cff	0.0023964045
40	0x3ad269b6	0.0016053233
41	0x3b240b69	0.0025031215
42	0x3b1cf747	0.00239511
43	0x3a1c902d	0.00059724116
44	0x3b588a0d	0.003304127
45	0x3a978285	0.0011559284
46	0x397418da	0.00023278911
47	0xbb493db0	-0.0030706935
48	0x3b26b8ee	0.0025439817
49	0xbad366d4	-0.0016128668
50	0x3b6a589a	0.0035758377
51	0x3a3341ef	0.0006838133
52	0xbadc818b	-0.0016823275
53	0xbb7d18ba	-0.0038619475
54	0x3b638e3d	0.0034722232
55	0xb63ecb6b	-2.843061e-06
56	0x399a88cc	0.0002947509
57	0x39a650a4	0.0003172207
58	0xba384207	-0.0007028882
59	0x3a280732	0.00064097636
60	0xb9a20c54	-0.00030908233
61	0xb9a0817e	-0.00030614057
62	0x39f80cf7	0.00047311906
63	0x38c9817c	9.608545e-05
64	0x3abeef0b	0.001456709
65	0xb8c82cab	-9.545063e-05
66	0xb949108f	-0.00019175022
67	0xbac2033f	-0.0014801993
68	0x3b304f3d	0.0026902698
69	0xb6400611	-2.861376e-06
70	0x3910360c	0.00013753044
71	0x3a156576	0.0005699018
72	0xbafe923b	-0.0019422242
73	0x3a3bfd3b	0.0007171218
74	0xbb2a1445	-0.0025952023
75	0xbb075e7b	-0.002065568
76	0x39449a42	0.00018749482
77	0xbb3565ec	-0.0027679158
78	0x3a3b7b67	0.0007151872
79	0xb79ca927	-1.8675417e-05
80	0x3a562014	0.0008168232
81	0x39b194cd	0.00033870936
82	0x3a8b6dc1	0.0010637568
83	0x398f571e	0.00027339993
84	0x39ac18fa	0.00032825005
85	0x3b3231ba	0.0027190284
86	0x3a2e0e33	0.0006639689
87	0x3b4fb31b	0.0031692449
88	0xbb5b4219	-0.0033456145
89	0xbb51677e	-0.0031952555
90	0x3a1f03a8	0.00060659135
91	0xbab96694	-0.001414495
92	0x3a9288a3	0.0011179637
93	0x3a2bcf73	0.00065540447
94	0xbafd4f87	-0.0019326069
95	0xbb04b6d6	-0.002025058
96	0xb9dd207d	-0.0004217661
97	0xbafd3a99	-0.0019319832
98	0xbb80e94e	-0.003934062
99	0xb81f3351	-3.7956346e-05
100	0xbb58e210	-0.0033093728
101	0x390ec060	0.0001361384
102	0xbb6ad999	-0.0035835265
103	0x3b4de876	0.0031419075
104	0xbb192e59	-0.0023373573
105	0xb91a19c5	-0.00014696184
106	0x3b26c79c	0.0025448566
107	0x38b8d3d5	8.8132605e-05
108	0xb9985c36	-0.00029060402
109	0x3b1703a1	0.0023042934
110	0x3afd19db	0.0019310074
111	0x3b23fc2c	0.0025022132
112	0xbb7ffe2c	-0.003906141
113	0xb818b68f	-3.6409645e-05
114	0xb8abba0c	-8.188569e-05
115	0x3aba46a3	0.0014211725
116	0x38568638	5.1146577e-05
117	0x3957f34f	0.00020594637
118	0x3a39caeb	0.0007087427
119	0x3b6c8ba3	0.0036093972
120	0x38d1f671	0.000100118
121	0x3aced0c9	0.0015778776
122	0xb983f9fb	-0.00025172517
123	0x39631d9f	0.00021659442
124	0x3a5da230	0.0008454649
125	0x399ce4cb	0.00029925103
126	0x393b2468	0.00017847272
127	0xbb01f014	-0.0019826936
128	0xb9237836	-0.00015589673
129	0x398ce7d3	0.00026875603
130	0xba033da8	-0.0005006441
131	0xb822870f	-3.8749593e-05
132	0x396285c5	0.00021602873
133	0xb9ab34e8	-0.0003265508
134	0x3ae309e0	0.0017321669
135	0x396c6703	0.00022545089
136	0x389d2ba0	7.494469e-05
137	0x3ab02049	0.0013437356
138	0xba6ee6a3	-0.0009113347
139	0xba5fb58d	-0.0008533828
140	0x39afb3df	0.00033512615
141	0xbb77b774	-0.0037798556
142	0xb71aa1d1	-9.216791e-06
143	0x3b6eb0bd	0.0036421262
144	0x39105a5f	0.00013766576
145	0x3ac5c53b	0.0015088686
146	0xba2fb244	-0.0006702284
147	0x39da2d4a	0.00041613943
148	0x3a953b26	0.0011385425
149	0x3acce2a6	0.0015631511
150	0xbaf44307	-0.0018635698
151	0x36812c53	3.8496596e-06
152	0x391ddaa1	0.00015054132
153	0xbabb98ad	-0.0014312469
154	0x3b0c43da	0.0021402747
155	0xb888566b	-6.501082e-05
156	0xb97b8f3a	-0.00023990581
157	0xba83455f	-0.0010015181
158	0x3b7d0dc6	0.0038612946
159	0xbb049c00	-0.0020234585
160	0xb8402e4b	-4.581948e-05
161	0xb8de2640	-0.000105929095
162	0xb9a46064	-0.00031352334
163	0x3b605e00	0.0034235716
164	0x3a8af762	0.001060229
165	0x3a4ae1c9	0.0007739333
166	0x3947fc5c	0.0001907213
167	0x3965c505	0.00021912537
168	0x3b3b36e7	0.002856666
169	0x3ab585bb	0.0013849059
170	0xb94711e7	-0.00018984788
171	0x3b41472f	0.0029491892
172	0x38b150b4	8.45505e-05
173	0xbb0cbb4a	-0.0021473938
174	0xb6a2c157	-4.850484e-06
175	0x3b72f978	0.0037074964
176	0x39b2bec4	0.00034092937
177	0xbafbeb86	-0.0019219972
178	0xbb7f06ce	-0.0038913968
179	0xb9849e63	-0.0002529501
180	0x3b19c882	0.002346546
181	0x38164ba1	3.583322e-05
182	0x3a1c52a4	0.0005963242
183	0x3a12a6e6	0.0005594328
184	0x39838b23	0.00025089932
185	0xb99eeb56	-0.00030311447
186	0xbb751f54	-0.0037402706
187	0x383205d9	4.2443953e-05
188	0xbb541699	-0.0032362102
189	0xbb1e94c0	-0.0024197549
190	0x3aae851e	0.0013314818
191	0x39ab9c5d	0.0003273216
192	0xba51d232	-0.0008004039
193	0xbb00c2f7	-0.0019647458
194	0x3b12f4ab	0.0022423666
195	0xba1be090	-0.0005946243
196	0x3873db0e	5.8139725e-05
197	0x395f16db	0.00021275452
198	0x399262fa	0.00027921033
199	0x3ad63f10	0.0016345698
200	0xbb1e4cea	-0.002415473
201	0x396c2b87	0.00022522929
202	0x3b163919	0.0022922216
203	0x391e44bc	0.0001509366
204	0xb9b327b3	-0.0003417112
205	0x3afca1b7	0.0019274269
206	0xba2d7699	-0.00066170987
207	0xbab3ba54	-0.0013712146
208	0xbb200a9f	-0.0024420393
209	0xba9c9d5c	-0.0011948752
210	0x39895732	0.00026195642
211	0xb8d0acd4	-9.950405e-05
212	0xb90e7453	-0.0001358551
213	0x3b0753b8	0.0020649265
214	0x3b26b36d	0.0025436536
215	0x3b2013b3	0.0024425804
216	0x3b26bab1	0.0025440867
217	0x39913443	0.00027695493
218	0xb81b166e	-3.697577e-05
219	0xbab77dd7	-0.0013999295
220	0xbb4f6acb	-0.0031649347
221	0xb9f4af5e	-0.00046669965
222	0x395db014	0.00021141797
223	0x3824b52d	3.926938e-05
224	0xba6ce26e	-0.0009036426
225	0x3a776980	0.0009438023
226	0x399988d4	0.0002928438
227	0x38997df8	7.319072e-05
228	0x37f5f646	2.9320956e-05
229	0xbaee5c1e	-0.0018185412
230	0xb972757b	-0.00023122683
231	0xbb480c16	-0.0030524782
232	0x39a37f75	0.00031184746
233	0xba419e0d	-0.0007385917
234	0x3a7e7a0a	0.00097075163
235	0xb8dd0c4b	-0.00010540391
236	0xbab2f440	-0.0013653114
237	0x3940de8d	0.00018393454
238	0xbb80015c	-0.003906412
239	0xb850ed66	-4.981216e-05
240	0xba389050	-0.0007040547
241	0x39b811d4	0.00035108498
242	0xb8f37762	-0.0001160938
243	0xba0f1050	-0.0005457448
244	0x394dfd6d	0.00019644732
245	0x3acca117	0.0015611973
246	0xbb223776	-0.0024752296
247	0xb79f1eaf	-1.8968565e-05
248	0xb6a26a02	-4.840317e-06
249	0xb943311d	-0.00018614945
250	0xbb804f2f	-0.0039156894
251	0xb88137a2	-6.161562e-05
252	0x388813bd	6.488662e-05
253	0xbaf85563	-0.0018946346
254	0xbb1537c9	-0.0022768846
255	0x38e6d217	0.00011006387
