Comparisons/GCNII-master/pretrained/34840d76ed16472581d6a6355eb0caa7.pt (torch_old, 85412 bytes, 68 tensors)

convs.0.weight f4 [16, 16]
000000 4a 0b bf ba ce 44 19 bb 6b 98 2d b9 8c 6a 1d bb
       -0.0014575508 -0.0023386958 -0.00016555346 -0.0024019806
000010 a0 4c 13 b8 70 1f 51 b8 30 aa 0a ba fb ef 65 3a
       -3.5118894e-05 -4.985876e-05 -0.0005289642 0.00087714166
000020 6a 0b 29 bb 08 c3 83 3a 2a ff 26 bb 48 82 e3 b8
       -0.0025794157 0.0010052631 -0.002548168 -0.0001084847
000030 8b 4d 8c ba 69 5c 51 39 0d 17 8d 39 3a 40 ec b8
       -0.0010704262 0.00019966219 0.0002691079 -0.0001126532
000040 82 91 d0 ba e6 da 98 38 67 3e 3c b9 d4 80 1b 39
       -0.0015912505 7.288698e-05 -0.00017952324 0.00014829944
000050 35 15 ea b8 4a 3e 73 38 6d 83 a6 39 0d 50 2d 39
       -0.000111619396 5.7993726e-05 0.00031759907 0.00016528387
000060 8d a1 f3 3a 68 bd ee b8 61 90 00 b9 34 a3 54 ba
       0.0018587575 -0.00011384004 -0.00012260817 -0.00081114774
000070 34 44 42 38 3c 24 a3 3a 41 c1 22 bb 80 14 21 3b
       4.6316723e-05 0.0012446712 -0.0024834427 0.002457887
000080 64 50 d2 ba 20 75 a5 b8 d0 37 d1 38 29 51 32 3a
       -0.0016045687 -7.889629e-05 9.9762925e-05 0.0006802255
000090 20 87 db 36 b1 7c 09 bb ea b6 de b8 8d 4c 4d 38
       6.542439e-06 -0.0020978863 -0.00010619855 4.8947102e-05
0000a0 e1 f4 17 39 da 5d 15 b9 0e 85 83 b9 b1 b4 25 bb
       0.00014491707 -0.0001424471 -0.000250854 -0.0025284702
0000b0 e7 78 6a 3a 00 49 fd 38 91 95 65 3a 21 96 e9 b8
       0.00089444075 0.000120775774 0.0008757944 -0.000111382695
0000c0 cd b5 25 3a c2 5a 49 ba c0 2a 99 3a 65 0e bb 39
       0.0006321341 -0.00076810655 0.0011685714 0.00035678144
0000d0 5c 56 c9 3a f6 4a 12 bb d6 9c 55 b8 b2 d4 88 b9
       0.001536082 -0.0022322512 -5.0929222e-05 -0.00026098412
0000e0 bf bf 5e b8 49 09 43 39 5f 4e e9 ba c3 6d 14 3a
       -5.3107502e-05 0.00018600108 -0.0017799846 0.0005662108
0000f0 19 a0 79 37 6b 12 b3 38 4f 01 69 b8 a9 45 7a 39
       1.4878832e-05 8.538816e-05 -5.5552748e-05 0.00023867808
000100 08 2e 2c 37 39 8b 8a 37 cd ca 17 bb a9 37 5f ba
       1.0262716e-05 1.6515713e-05 -0.002316165 -0.0008515069
000110 84 d3 5a ba ad c7 5a ba 15 a8 23 bb e1 9a 30 b9
       -0.00083475583 -0.0008345794 -0.002497201 -0.00016842365
000120 51 4a eb ba 9c 60 15 3b df 72 95 3a 15 2f e7 3a
       -0.0017951225 0.002279318 0.0011402032 0.0017637933
000130 c8 9d f7 b7 63 03 af b9 da 24 a4 b9 f3 a5 18 bb
       -2.9518167e-05 -0.00033381124 -0.00031307974 -0.0023292273
000140 19 fa 30 ba 4d f8 e5 38 86 df 4b 3a 7c ca b0 39
       -0.00067511346 0.000109658205 0.0007777143 0.000337202
000150 35 f4 4a 3a 92 00 e8 b8 f4 01 6c 3a dd d8 dc 3a
       0.0007742078 -0.00011062728 0.00090029766 0.0016849298
000160 1b 23 16 ba d7 38 a3 37 8d ae 6d b5 f9 ed 1b b9
       -0.0005727277 1.9457582e-05 -8.8543385e-07 -0.00014870604
000170 af 3d 5b 3a 82 69 a7 b8 cc 40 5b 3a a4 31 51 ba
       0.00083633786 -7.982833e-05 0.00083638425 -0.00079801143
000180 52 fc 1c bb 60 fc 42 39 d7 55 96 39 8d 78 dd 3a
       -0.0023954106 0.00018595299 0.00028674185 0.0016896889
000190 8e d4 6b ba 41 87 14 39 8a bc 3f b9 c4 de 5d 3a
       -0.00089962117 0.00014164766 -0.00018285416 0.00084636756
0001a0 17 0e d9 b7 f5 9d 0b 39 40 80 20 3b 41 63 66 ba
       -2.5874977e-05 0.00013314917 0.0024490505 -0.00087885937
0001b0 17 5a 26 3b 4d 4d 07 ba 39 33 77 ba 94 6f d6 b8
       0.0025383288 -0.000516136 -0.0009429935 -0.00010225098
0001c0 c9 d8 16 38 17 9b 11 3b 26 41 a5 b9 b8 02 1b 39
       3.5964684e-05 0.0022217685 -0.00031519792 0.00014782965
0001d0 3b 76 bf 36 21 99 26 3b 2b 6f 3d b6 08 a1 56 ba
       5.7060074e-06 0.0025420862 -2.8227903e-06 -0.00081874477
0001e0 e5 df 92 b8 f4 d9 db 39 4b 92 ac 37 36 e1 84 37
       -7.003526e-05 0.00041933323 2.057212e-05 1.5840498e-05
0001f0 53 65 41 39 94 ca 73 ba 1d eb 0a 39 fc 8e f4 3a
       0.0001844366 -0.0009299901 0.00013248292 0.0018658335
000200 03 31 1c bb b1 1e 74 38 c2 ab 24 bb 68 34 cc b7
       -0.0023832924 5.8202717e-05 -0.002512679 -2.4343099e-05
000210 56 21 20 3b 48 9d 90 b9 ba 79 3f b9 4d e2 c9 39
       0.0024433932 -0.00027583004 -0.00018260526 0.00038506315
000220 19 8b 17 3b a8 ca 8d 3a 3e 59 e3 38 dc a3 1e b8
       0.002312368 0.0010817843 0.00010840826 -3.782274e-05
000230 84 4f c3 b9 cb f3 11 3b 99 77 95 ba 4c d7 81 3a
       -0.00037252542 0.0022270556 -0.0011403441 0.0009906082
000240 83 27 9f 38 a5 2b ed b7 28 74 22 3a d8 9e 0a bb
       7.5890704e-05 -2.8272925e-05 0.0006197118 -0.0021151807
000250 93 4c 1f bb 55 ba fa 3a bb cd 76 b8 4b 29 6a 39
       -0.0024307116 0.0019129018 -5.8842572e-05 0.00022331362
000260 33 89 69 38 cb f4 a3 3a f8 b3 20 bb dc ec 7a 3a
       5.5679306e-05 0.0012508867 -0.0024521332 0.0009572038
000270 85 0e 52 3a ee a0 99 b9 74 68 41 b9 59 52 5a ba
       0.0008013028 -0.00029302336 -0.00018444826 -0.0008328311
000280 74 3d 20 bb 77 80 1f 38 d0 9e 87 38 45 60 26 3b
       -0.0024450691 3.8028196e-05 6.466883e-05 0.002538697
000290 ab fa 85 b9 bd b5 6c b8 40 7d f6 b8 9d 61 24 bb
       -0.000255545 -5.643604e-05 -0.00011753524 -0.0025082596
0002a0 37 03 4a 38 a6 d7 65 ba 3c 0d 1a ba 5e 52 3c 37
       4.8163547e-05 -0.0008767791 -0.0005876606 1.1224851e-05
0002b0 8d f1 69 3a 80 cb 1e b9 ec e3 6e ba c9 74 6e 39
       0.00089242385 -0.00015143864 -0.00091129425 0.00022740955
0002c0 6c da 9e 3a 19 5f aa b9 f4 cf d7 ba b0 a6 0b 3b
       0.0012119538 -0.0003249578 -0.0016465173 0.002130907
0002d0 14 60 c3 38 6f 9c 31 3a ea 57 0b b9 73 d2 a6 39
       9.3162205e-05 0.00067753246 -0.00013288824 0.00031818784
0002e0 6d 73 3a 3a 0c f6 44 3a 0c fd bf b9 4e bc e6 38
       0.00071125367 0.00075134705 -0.00036618894 0.00011002329
0002f0 7b 88 1f b9 1c 84 c1 b8 0a d7 d2 38 fe 9b 76 b8
       -0.00015214265 -9.2275644e-05 0.000100536345 -5.879625e-05
000300 86 14 fb 39 0b 0e 24 bb 06 35 fa 36 6b 51 78 b8
       0.00047889742 -0.0025032784 7.4567533e-06 -5.9203634e-05
000310 35 a6 54 b7 91 c5 e6 b7 05 af fb 38 3a 91 06 39
       -1.2674883e-05 -2.7510136e-05 0.000120012126 0.00012833337
000320 63 b2 20 3b ff 30 b9 39 c0 2f 1e bb d6 2f c3 b9
       0.002452039 0.00035322455 -0.0024137348 -0.0003722894
000330 ac 2b ea 37 7a 97 51 ba 84 f4 41 ba 63 92 24 3b
       2.791531e-05 -0.0007995289 -0.00073988014 0.0025111667
000340 bb a2 2c 39 84 4c 6d b9 16 81 e7 39 f9 82 b3 38
       0.0001646382 -0.00022630586 0.0004415593 8.559781e-05
000350 21 ab 26 3b bf 1a 53 ba 50 b6 e7 b9 f1 73 e4 ba
       0.002543159 -0.0008052997 -0.00044195587 -0.0017429573
000360 a6 29 05 38 36 6a b4 b8 d7 f6 9e b9 7a ed b6 39
       3.174846e-05 -8.602852e-05 -0.00030320018 0.0003489068
000370 89 76 c8 b9 62 0c 83 ba a5 6c 03 b9 5f 31 54 38
       -0.00038235288 -0.0009998197 -0.00012533607 5.059072e-05
000380 ba 99 8b 3a 0c 73 a3 38 8a d3 b5 ba 3e b4 b2 b9
       0.0010650672 7.793875e-05 -0.0013872248 -0.00034085097
000390 57 47 be 39 b7 b9 a5 3a 47 0c 0c 3b 2e be 9b ba
       0.00036292776 0.0012643848 0.0021369623 -0.001188224
0003a0 83 71 a7 39 22 d7 1d bb 76 e9 3f 3a 23 87 17 39
       0.00031937295 -0.0024084528 0.000732086 0.00014450825
0003b0 d4 d1 90 b7 4b f8 ba 3a e4 1c 23 3b e8 93 10 3b
       -1.7263847e-05 0.0014264671 0.0024889046 0.0022060815
0003c0 9d c0 8a b9 4c 68 f1 b9 0f 59 6e b7 a5 71 72 ba
       -0.0002646492 -0.0004604481 -1.4206641e-05 -0.0009248502
0003d0 a3 f6 f7 38 0a 2f f9 39 3c 4c d4 b9 4c aa de b8
       0.000118238175 0.00047528028 -0.0004049259 -0.00010617505
0003e0 f2 4b 8d b8 52 43 3e 3a 06 e1 a7 38 ae 01 79 3a
       -6.73755e-05 0.00072579563 8.0050944e-05 0.00094988465
0003f0 fe 54 ec 38 36 5c d6 b9 c8 7a e4 b8 8c 81 01 3b
       0.00011269188 -0.00040885963 -0.00010894757 0.0019761054

convs.1.weight f4 [16, 16]
000000 e4 57 70 3a b8 05 ad 39 1d 0a 08 3a 74 6c e2 37
       0.000916837 0.00033001392 0.0005189495 2.6991802e-05
000010 ea a0 2a ba 86 32 c9 3a 0b 2e 54 ba b0 ec 6c b9
       -0.00065089634 0.001535014 -0.0008094019 -0.00022594887
000020 e4 44 c4 b9 e6 07 0d bb 9e 73 db b8 fc d5 84 38
       -0.0003743536 -0.00215196 -0.00010464269 6.334108e-05
000030 a6 75 b3 b8 81 14 19 3b 95 06 91 39 4c ce 92 3a
       -8.557299e-05 0.0023358169 0.0002766146 0.0011200397
000040 8b f9 2e 3a 92 45 a1 ba 8c 96 07 bb ce 27 df b8
       0.0006674758 -0.0012304059 -0.0020689098 -0.00010640883
000050 48 1e 13 3b 4e b7 84 38 db 06 65 3a 55 7a 89 3a
       0.002244847 6.328394e-05 0.0008736678 0.0010488728
000060 c0 5f 9a b8 0d 9e 56 ba 3b 66 8d b8 4e 42 ec b9
       -7.361127e-05 -0.00081870036 -6.742446e-05 -0.0004506283
000070 53 a3 a6 39 48 cc 7c 38 81 ea 02 3b c7 5f 12 bb
       0.00031783673 6.0271734e-05 0.00199762 -0.002233492
000080 4d 51 1c bb 61 09 de 35 a8 5d ae 38 74 08 a5 39
       -0.002385217 1.6543019e-06 8.3144114e-05 0.0003147755
000090 1a 97 22 3b b9 04 cf 3a 54 19 c2 b9 83 f6 62 ba
       0.0024809302 0.0015794254 -0.00037021434 -0.0008657949
0000a0 2b 5e e6 b9 8a 1b 9f 37 7f 75 2d 39 9c 6c d5 38
       -0.0004393918 1.8967101e-05 0.00016542336 0.000101768615
0000b0 00 35 da 37 d1 11 4c b6 22 ad 6d 39 fd 9c a1 b9
       2.6012305e-05 -3.040874e-06 0.00022666578 -0.00030825278
0000c0 ec 90 0e 3b c1 06 1d bb 1f bd ab 39 73 59 19 39
       0.002175386 -0.0023960324 0.00032756568 0.0001462454
0000d0 9b 83 86 39 c8 27 5b 37 f3 55 15 bb ce 1b 00 39
       0.00025656525 1.30626795e-05 -0.0022786825 0.0001221739
0000e0 0d 83 24 3b b7 d5 b5 b9 35 82 04 bb e0 1f 16 39
       0.0025102526 -0.0003468224 -0.002021921 0.00014316989
0000f0 8c 13 85 38 39 84 ab ba 78 4c 62 b8 d4 ba b7 b7
       6.345575e-05 -0.001308567 -5.3953816e-05 -2.1902299e-05
000100 92 9e aa 39 b3 fb ea 37 d0 41 90 ba d9 e1 28 3a
       0.0003254307 2.801218e-05 -0.0011005942 0.00064423453
000110 cc 1e 10 ba e4 bd 04 3b 1d 70 0e 39 59 e7 a5 3a
       -0.0005497753 0.0020254785 0.00013583941 0.0012657448
000120 c9 4d d2 3a a8 80 0f b9 76 6c 7a b6 c9 b0 a8 b8
       0.001604491 -0.00013685471 -3.7316036e-06 -8.043793e-05
000130 a9 a3 bb 3a 7a 02 05 3b a0 e3 03 3a b2 74 97 3a
       0.0014315742 0.0020295666 0.0005031172 0.0011555164
000140 35 22 da b6 30 4f a6 39 75 d5 0c b9 73 b3 c7 38
       -6.5008885e-06 0.00031720987 -0.0001343096 9.5224845e-05
000150 ad 28 89 b8 06 2a e3 b8 84 17 1c ba 73 6a 25 3b
       -6.5402455e-05 -0.00010832031 -0.0005954432 0.002524045
000160 f8 c9 09 3b 71 89 53 ba 80 64 e2 ba c8 23 b9 b9
       0.0021024924 -0.00080694916 -0.0017272383 -0.0003531261
000170 66 12 45 b8 00 8e 03 39 45 81 11 39 77 80 62 3a
       -4.6985595e-05 0.00012546033 0.00013876434 0.00086403586
000180 52 3c ba ba fd f4 67 3a 14 48 96 3a d3 84 93 38
       -0.0014208651 0.0008848457 0.0011465573 7.034247e-05
000190 25 0c 4d 3a 02 55 81 b8 84 b5 66 ba 99 e3 ff ba
       0.0007821939 -6.167033e-05 -0.00088008516 -0.0019522785
0001a0 c9 8e be 39 ab 10 6c ba ee ec 22 3b b8 70 46 b7
       0.00036346007 -0.0009005169 0.002486046 -1.1827964e-05
0001b0 83 91 8c b8 ff 5a 4d 38 b7 72 9e b8 17 00 b7 3a
       -6.702824e-05 4.8960555e-05 -7.5553944e-05 0.0013961819
0001c0 1a 8c 12 3b bc c7 63 b8 98 e4 20 bb 69 6a 67 3a
       0.002236134 -5.4307035e-05 -0.0024550315 0.0008827807
0001d0 41 d2 67 ba f0 f5 a0 b8 cd 1d 7a 3a 23 a7 ac b9
       -0.0008843281 -7.675204e-05 0.0009541184 -0.00032930923
0001e0 8e d6 32 b9 cd ed 63 3a b4 ed 17 bb 93 e8 1a 3b
       -0.0001705533 0.0008694798 -0.0023182454 0.002363716
0001f0 27 48 bd 38 d0 a7 f9 39 ef 2e da b9 8d bf 1f bb
       9.025662e-05 0.0004761801 -0.00041615168 -0.0024375648
000200 17 c0 62 b8 56 40 20 bb 0d bb 21 3b 88 5e c3 39
       -5.4061496e-05 -0.002445241 0.0024678141 0.0003726373
000210 4e a9 67 3a 28 dd 02 b8 1b 59 8f 36 e1 2d 92 39
       0.0008837179 -3.1200383e-05 4.2721053e-06 0.00027881472
000220 70 f7 76 b9 14 ab e3 39 b8 9b ab b8 09 ed 6b ba
       -0.00023552566 0.00043424277 -8.18292e-05 -0.00089998596
000230 b7 54 0c 3b c1 58 af b8 aa 68 80 38 b5 d7 ff b8
       0.0021412799 -8.361182e-05 6.123011e-05 -0.00012199526
000240 59 1a f5 b8 76 0c cd b7 78 09 32 b8 cd 9f 80 b7
       -0.00011687418 -2.4443707e-05 -4.2447326e-05 -1.5333202e-05
000250 8d d0 0b b9 a3 cb 21 3b 36 4d 09 3b 18 6a 95 b9
       -0.00013333764 0.0024688027 0.0020950562 -0.0002849854
000260 32 a0 22 ba 1f 17 eb 35 2d 3a c5 b8 18 cb bb 39
       -0.00062036805 1.7515594e-06 -9.404528e-05 0.00035818736
000270 46 6b ff ba 78 19 8d b9 4f d5 2b ba d5 50 bf b9
       -0.0019486926 -0.0002691259 -0.0006554918 -0.00036490583
000280 97 51 a8 39 69 da b7 b9 69 da 05 b9 8c cc 9c b9
       0.00032104246 -0.00035067208 -0.00012765233 -0.00029907038
000290 8f f2 11 38 f3 f7 b3 39 05 45 a2 3a 6a c4 5e 3a
       3.4796594e-05 0.00034326277 0.0012380189 0.0008497896
0002a0 6b c7 06 bb 7c dc 21 b8 47 1a e1 38 f6 ff 16 3b
       -0.002056564 -3.8590733e-05 0.000107337306 0.0023040748
0002b0 b0 2a b1 39 f5 7b 1a 39 12 ac 69 39 af d0 3a b8
       0.00033791875 0.00014732762 0.00022284713 -4.4540207e-05
0002c0 8a c7 bf 39 5a 8a 67 3a eb f2 ff 3a 36 5f 12 3a
       0.00036579027 0.00088325667 0.0019527351 0.00055836455
0002d0 ef f3 c3 39 5e cb 81 36 bb 02 2c 38 3e 4d f7 b7
       0.00037375043 3.8681746e-06 4.101054e-05 -2.9480663e-05
0002e0 c0 14 24 b8 b1 36 63 ba 2a 00 a2 37 65 35 e4 ba
       -3.9119972e-05 -0.00086675124 1.9311981e-05 -0.0017410932
0002f0 ee 21 ed ba 07 03 d0 b9 36 54 6d 3a 37 1d 05 bb
       -0.0018091777 -0.00039675107 0.0009053381 -0.0020311603
000300 59 87 e9 ba 09 c9 c1 3a 30 1c ec 37 63 50 a8 3a
       -0.0017816826 0.0014784645 2.8146518e-05 0.001284134
000310 6d 1e 11 3b fc 06 b8 b8 3b d5 1e 39 67 57 0b 36
       0.002214338 -8.775105e-05 0.00015147489 2.076349e-06
000320 0e 58 18 b9 5c 87 19 bb fa 39 d5 38 c2 f7 61 ba
       -0.00014528653 -0.0023426628 0.000101674304 -0.00086199876
000330 b8 87 da b7 e0 24 fa 38 8a 84 8f b9 82 47 0a 3a
       -2.6050824e-05 0.000119277975 -0.00027373835 0.0005274938
000340 d2 2a b2 b9 72 19 29 ba df cf 16 3b 02 d7 64 ba
       -0.0003398271 -0.000645063 0.0023012084 -0.00087295484
000350 0f a6 e5 ba 67 ba 22 bb 29 e7 28 bb 14 a9 65 3a
       -0.0017520803 -0.0024830343 -0.0025772548 0.00087608513
000360 e1 63 b4 ba 32 18 67 b8 a2 d8 67 ba d1 46 04 3a
       -0.0013762676 -5.5097225e-05 -0.00088442315 0.0005045953
000370 07 d7 34 ba 2e b7 16 b8 59 ae b3 37 f9 0a 37 b7
       -0.00068984966 -3.5933386e-05 2.141965e-05 -1.0910205e-05
000380 d0 f2 2d 3a d4 cd c2 39 4e 05 64 ba 0e 0e da 38
       0.0006635608 0.00037155917 -0.00086983 0.00010397668
000390 bc 8d 62 ba 9a 0c af b9 50 f2 38 3a 72 49 b1 38
       -0.0008642336 -0.0003338799 0.00070551503 8.453698e-05
0003a0 25 67 1e bb 33 f8 cf ba 23 30 57 38 22 ba 7b b9
       -0.0024170366 -0.0015866816 5.1304825e-05 -0.00024006565
0003b0 a5 e1 b3 38 6c 97 9e 37 c9 f6 41 38 2d ed 19 b7
       8.577415e-05 1.8905579e-05 4.6244622e-05 -9.174732e-06
0003c0 36 1e b3 b9 88 96 15 bb f3 7d 48 b9 db 57 6c 39
       -0.0003416405 -0.002282532 -0.00019120406 0.00022539443
0003d0 7c a4 01 b9 8f 12 b9 b9 6c 7d 9e b9 e2 2f 9e ba
       -0.00012363674 -0.00035299777 -0.00030229555 -0.0012068714
0003e0 71 5b e9 ba ba 85 ee 38 bf 8c 84 3a 11 77 59 ba
       -0.0017803741 0.00011373633 0.0010112746 -0.00082956353
0003f0 ba ef 27 b8 5b 4a fa 38 9d c9 95 37 83 4c 1c 3b
       -4.0039165e-05 0.00011934779 1.7856068e-05 0.0023849315

convs.2.weight f4 [16, 16]
000000 67 4c c8 b6 f3 59 be 3a 81 a0 15 ba b6 82 18 3b
       -5.969359e-06 0.0014522657 -0.0005707816 0.002327127
000010 b7 f7 25 bb 7b 69 06 3b b7 de b5 ba 17 a9 be b8
       -0.0025324652 0.0020509649 -0.0013875578 -9.0914014e-05
000020 af 71 12 37 7f 3f 26 3a 58 51 82 b8 92 dd 1b 3a
       8.728747e-06 0.0006341859 -6.2140345e-05 0.00059457973
000030 d2 c3 51 ba 44 9a 24 3b ca 2d d8 b9 91 cc dc b8
       -0.0008001897 0.0025116364 -0.00041232846 -0.00010528521
000040 b1 a0 93 37 d0 40 b3 38 36 16 15 39 4b 5b ae b9
       1.7598593e-05 8.5474574e-05 0.00014218022 -0.00033255885
000050 3f 4a 7b b8 01 2d 03 bb a4 c5 25 38 fa d2 80 36
       -5.991221e-05 -0.0020015838 3.9523133e-05 3.839258e-06
000060 21 28 0c 3b a2 72 fa 36 99 46 cd 38 0c 6e 0d bb
       0.0021386223 7.4639256e-06 9.7883116e-05 -0.0021580486
000070 5d ab 4a ba 7d 9d 34 38 47 2e 5a b8 6c 52 f0 b8
       -0.00077312236 4.3062017e-05 -5.201835e-05 -0.00011459444
000080 d0 c5 0b bb da 4b 59 38 17 e1 68 3a a9 cf db ba
       -0.0021327622 5.1807474e-05 0.00088836387 -0.0016770262
000090 af ff 08 bb e8 fd 80 39 bc c6 97 b8 fd ca b3 39
       -0.0020904352 0.00024603237 -7.237258e-05 0.0003429278
0000a0 ee b9 19 b9 09 e6 4b 39 9d 01 14 b8 c3 cb 5a 38
       -0.00014660481 0.00019445283 -3.5287452e-05 5.2165018e-05
0000b0 ef ac aa b9 33 30 02 38 b2 0f 52 b8 3b 12 90 ba
       -0.00032553772 3.1039304e-05 -5.008252e-05 -0.0010991761
0000c0 7a 65 f2 b8 75 d6 05 bb 3f 02 8c 36 7b d7 23 3b
       -0.00011558361 -0.0020422016 4.1725866e-06 0.0025000263
0000d0 d4 ea e3 39 b8 b7 2d ba 2a 20 24 3b aa aa 0b ba
       0.00043471775 -0.00066268025 0.0025043585 -0.000532786
0000e0 38 d5 19 3b 2c b6 19 3b 46 9a 5a ba b9 22 a8 3a
       0.0023473036 0.002345453 -0.00083390286 0.0012827731
0000f0 14 f5 3d ba 4d cf c5 b9 01 54 1b bb 26 1f 7e b8
       -0.00072462973 -0.0003772922 -0.0023701193 -6.058733e-05
000100 72 e4 be b8 e3 4d 51 3a ac 15 f2 b9 24 77 7e b9
       -9.102457e-05 0.00079843233 -0.00046173984 -0.00024267711
000110 41 21 39 3a 17 12 26 3b 7a 9f 3e b6 c8 52 26 bb
       0.0007062145 0.0025340372 -2.8405034e-06 -0.0025378931
000120 18 1b d1 b8 67 b6 18 39 65 2e 68 ba 85 52 99 36
       -9.970943e-05 0.000145638 -0.0008857011 4.569362e-06
000130 48 d9 9d 37 fd 54 0b 39 e2 ad c3 b9 48 ce 25 bb
       1.8817038e-05 0.00013287734 -0.0003732285 -0.0025299955
000140 36 50 c1 3a 81 c8 18 38 5b 8c 09 ba bc 1b f7 3a
       0.0014748636 3.6426358e-05 -0.000524705 0.001885287
000150 50 91 8b 35 b5 6d 26 3b 45 bf c3 b9 4c f4 94 b8
       1.0398599e-06 0.002539498 -0.00037335805 -7.102694e-05
000160 7b 6a 58 ba 83 ab 3d 3a 98 d7 06 3b 67 35 c4 39
       -0.0008255613 0.0007235335 0.0020575281 0.0003742382
000170 3d 1c aa 38 3d 2d 21 3b 28 75 07 ba 15 3f 61 38
       8.1114915e-05 0.0024593615 -0.0005167299 5.370293e-05
000180 78 77 b7 ba d8 20 e3 ba 4e 2d 05 3a ed 40 5a ba
       -0.0013997396 -0.0017328514 0.0005080298 -0.0008325715
000190 92 3c 99 b9 8f 2e 26 bb 5a d1 a1 b9 2e 2e c6 b7
       -0.00029227562 -0.002535734 -0.00030864292 -2.3624943e-05
0001a0 92 30 d6 38 c4 39 06 3b 63 40 34 39 d8 b8 ea ba
       0.00010213362 0.0020481208 0.00017190124 -0.0017907871
0001b0 c9 15 0e b9 17 10 56 37 f2 00 18 3b 12 61 6a ba
       -0.00013550291 1.275914e-05 0.0023193923 -0.0008940856
0001c0 e8 7c c7 b8 10 a2 32 ba 3b ab 50 b8 b2 61 ae b9
       -9.512325e-05 -0.00068143103 -4.9750535e-05 -0.00033260655
0001d0 c4 d4 c0 3a d6 ba 83 38 9e ef 90 b9 0b 63 ce b9
       0.0014711847 6.281368e-05 -0.0002764435 -0.00039365175
0001e0 f9 bd cf b9 ad 15 fd ba dc d8 1c b9 40 a6 9b 39
       -0.00039623657 -0.0019308828 -0.00014958106 0.0002968777
0001f0 c3 2e 22 3b d9 c0 32 ba aa d4 24 3b fc 27 aa b8
       0.002474711 -0.00068188977 0.0025151172 -8.113679e-05
000200 0f 28 20 b8 bd 37 0f 3b 5f 66 26 bb ef 4b 1e 3a
       -3.818428e-05 0.002185329 -0.0025390608 0.00060385367
000210 68 65 be 3a 59 8e 9a b9 be f3 10 b9 07 74 0c 38
       0.0014526071 -0.00029479226 -0.00013823711 3.348666e-05
000220 00 bb b9 38 e2 c7 67 b7 d4 de 05 bb ce b2 6a ba
       8.856319e-05 -1.3815212e-05 -0.0020427005 -0.00089530356
000230 07 ba 17 bb 68 91 1b 36 99 2c 70 b8 bb e9 e2 ba
       -0.0023151652 2.3181437e-06 -5.7261994e-05 -0.0017312089
000240 bb fb 7d 38 0a 00 71 ba 65 a8 6c 37 0e 26 0c bb
       6.0554343e-05 -0.0009193426 1.4105904e-05 -0.0021384987
000250 c3 95 93 3a 7d 05 98 38 c5 c2 ad 3a 37 e7 42 3a
       0.0011259842 7.248947e-05 0.0013256898 0.00074349664
000260 0f 6e c1 b9 f3 df 65 38 f0 22 4b b9 5c 81 9f 38
       -0.0003689383 5.4806424e-05 -0.00019372604 7.605806e-05
000270 ca fb 66 3a 05 c2 f5 3a 03 10 07 b9 9f b2 83 b8
       0.0008811323 0.0018749839 -0.00012880568 -6.2798375e-05
000280 16 c8 87 ba cd 0d 21 3a 5f ce 63 3a b6 3c cd ba
       -0.0010359313 0.0006143719 0.00086901145 -0.0015658352
000290 39 6d 66 b8 1d 6d 23 b7 ba d9 1f 3b f3 be f8 36
       -5.4937995e-05 -9.740962e-06 0.002439125 7.4132054e-06
0002a0 3d 16 0c ba cd 0b f4 38 02 4a 68 ba a8 c8 c5 b5
       -0.000534389 0.00011637025 -0.00088611257 -1.4736042e-06
0002b0 d3 39 ac 38 02 ac 1e bb 6b 78 25 3b 25 80 51 38
       8.21237e-05 -0.0024211411 0.0025248777 4.9948827e-05
0002c0 1b 2f e3 3a 55 2d bd 39 bf f7 4b b8 33 77 ea ba
       0.0017332764 0.00036082664 -4.8629703e-05 -0.0017888307
0002d0 d7 62 af b8 19 23 ba ba cc 99 cb b8 08 b1 6a 3a
       -8.3630606e-05 -0.0014201134 -9.708441e-05 0.00089527713
0002e0 15 da 04 bb 69 29 1b bb c3 c5 6a ba 8f 8a 1b bb
       -0.0020271589 -0.0023675805 -0.00089558604 -0.002373371
0002f0 62 f0 4c 3a 6b d0 42 b9 cf bc 9b b9 e2 a5 1c 3b
       0.0007817802 -0.00018578923 -0.00029704577 0.0023902585
000300 23 c4 16 39 c9 72 0b 3b 46 55 7a b9 bf 4a 4f b8
       0.00014378181 0.0021278134 -0.00023873625 -4.942226e-05
000310 7e ca 25 3b c6 d4 17 39 b6 5b 5f b7 35 9a 93 38
       0.0025297697 0.00014479746 -1.3313189e-05 7.0382295e-05
000320 8f e2 6b 3a 5a af 8d 3a 89 9f 1c bb 53 9b 1c bb
       0.00089982984 0.0010809705 -0.0023898801 -0.0023896291
000330 25 50 bb b9 e6 30 1e 3b cb 16 a2 39 3b 50 c8 b8
       -0.00035727132 0.0024138032 0.0003091603 -9.551687e-05
000340 77 e0 13 b9 c6 f8 66 3a 5f f1 bf b9 6a 26 fa ba
       -0.00014102632 0.0008810874 -0.00036610194 -0.0019084935
000350 d4 6e c0 39 9e 51 47 b9 a7 03 e6 b9 57 d8 18 3b
       0.00036703667 -0.00019008524 -0.0004387174 0.0023322308
000360 18 36 d4 3a 31 00 33 ba 08 16 2d b9 de 3b 0a 3b
       0.0016190438 -0.00068283366 -0.00016506773 0.0021092813
000370 13 fb 25 3b e5 ae 63 3a 48 78 4f 3a 91 73 13 bb
       0.0025326654 0.0008685424 0.00079143466 -0.0022499303
000380 15 ae af 3a d5 73 79 3a de 34 29 3a 02 f2 25 bb
       0.0013403321 0.00095158565 0.0006454716 -0.002532125
000390 a4 4a 58 3a 3a 5f 1b b5 35 38 1f b9 f2 3a 04 bb
       0.00082508684 -5.788057e-07 -0.0001518436 -0.0020176736
0003a0 af 5e d6 b9 c8 91 29 b8 db 97 d1 b9 6d e4 1b 39
       -0.00040887806 -4.042851e-05 -0.00039976728 0.00014867047
0003b0 3d 8a 65 ba 23 67 71 ba 67 e6 51 b8 fc b8 ce b8
       -0.0008756256 -0.0009208789 -5.0044062e-05 -9.8573015e-05
0003c0 3f ca 80 39 68 f6 87 38 66 b7 1e bb 39 9a 57 ba
       0.00024564748 6.4831984e-05 -0.00242182 -0.000822458
0003d0 68 7b d7 37 da 74 8f 39 00 77 46 39 11 2e d5 ba
       2.5687463e-05 0.00027362147 0.00018927082 -0.0016264339
0003e0 67 ad 0d ba a3 89 c9 b8 6a fd 1f b9 45 ef b1 b9
       -0.0005404562 -9.610064e-05 -0.00015257826 -0.0003393834
0003f0 3b 70 b7 3a 26 4b 68 3a de ce e7 38 5c b2 0f 3b
       0.0013995239 0.00088612956 0.000110534704 0.0021926379

convs.3.weight f4 [16, 16]
000000 a0 c9 d8 b9 31 76 a2 ba 20 d5 d0 b9 2b 11 b8 b9
       -0.00041348953 -0.0012394843 -0.00039831642 -0.00035108006
000010 07 09 58 ba 2f 88 e9 38 5d 00 9e b9 e5 79 04 39
       -0.0008241091 0.00011135672 -0.0003013638 0.0001263391
000020 2c 03 18 39 ca bf 85 38 4a 59 6a b7 b2 85 58 b8
       0.00014497031 6.377658e-05 -1.3968276e-05 -5.1622927e-05
000030 d4 04 eb 38 50 ae ba 39 4a 38 ea 38 15 85 c1 b9
       0.000112065725 0.00035606558 0.00011168474 -0.00036910982
000040 91 3a 45 ba 75 5d 96 3a 8c 13 3f 3a 02 49 ef 38
       -0.00075236807 0.0011471944 0.00072889845 0.00011410007
000050 d9 8d 1f ba 9a b7 e7 ba b3 7b de b7 38 e4 91 b7
       -0.00060865056 -0.0017678619 -2.6522064e-05 -1.739162e-05
000060 d3 6d 1c 3a e4 7f 1c 3b 64 4b d7 39 a5 46 1b 3b
       0.0005967293 0.002387994 0.00041064166 0.002369323
000070 2f 71 67 ba 45 8d a2 38 d8 b0 2e b7 af 5c c4 ba
       -0.00088288164 7.7510755e-05 -1.0412383e-05 -0.0014981235
000080 03 82 66 38 db 14 be b9 da f9 24 3b 24 ba 6a 3a
       5.4957356e-05 -0.00036255163 0.0025173337 0.0008954129
000090 dc d6 8c 37 e1 cd bb 3a 68 f7 8b 38 d4 f6 c1 39
       1.6789352e-05 0.0014328324 6.6741195e-05 0.0003699573
0000a0 c6 86 25 bb 00 a1 43 ba ec a8 eb b9 c2 fb bc b8
       -0.0025257333 -0.00074626505 -0.0004494855 -9.011432e-05
0000b0 bd b5 19 39 8b fe c4 b9 47 b3 61 3a 82 b7 94 b8
       0.0001465892 -0.00037573682 0.0008609783 -7.091371e-05
0000c0 de f8 6a 3a 71 fc 89 ba 2d 4a 2f b9 4b 36 1f ba
       0.00089634757 -0.0010527504 -0.00016716933 -0.0006073459
0000d0 29 5f d8 39 4e 57 26 bb a2 c4 79 ba 26 03 f1 b9
       0.0004126963 -0.0025381627 -0.0009527897 -0.00045969448
0000e0 fd a6 ed b8 37 ab 41 37 f4 4e 54 3a 7b 6f 6e ba
       -0.00011332145 1.15435605e-05 0.0008098923 -0.00090955914
0000f0 49 1a 0c 3a 3e a3 a3 39 c2 2d 4b 3a f4 4a 0d 38
       0.0005344493 0.00031211408 0.0007750654 3.3686825e-05
000100 69 63 26 3b e3 97 64 ba fa 11 55 3a 12 df ff 39
       0.0025388843 -0.00087201427 0.0008127984 0.0004880359
000110 c8 41 81 b8 8d a5 13 b8 94 e1 ae 37 a1 f6 62 ba
       -6.163452e-05 -3.5201712e-05 2.084746e-05 -0.00086579664
000120 61 a2 d3 38 15 bc c5 3a 39 f8 2f 3a 64 82 21 3b
       0.000100915095 0.001508596 0.0006712708 0.002464437
000130 92 70 0b b8 2e 46 b1 39 9c 28 d3 38 d2 57 e9 38
       -3.324502e-05 0.0003381236 0.00010068828 0.000111266636
000140 22 69 5f 39 de c8 1c bb 6e de a5 b9 fa e5 bf 39
       0.00021306102 -0.0023923437 -0.00031636975 0.00036601705
000150 7f c2 0f 3b 2a 31 ad b9 19 6f fd b9 a2 40 20 3a
       0.0021935997 -0.0003303376 -0.00048338695 0.00061131467
000160 e4 13 c1 38 73 72 c4 b9 9f 2c 0e bb 34 85 03 bb
       9.206662e-05 -0.00037469305 -0.0021694077 -0.002006841
000170 dd 71 59 35 1f 09 6b 3a 96 12 25 bb 34 bb 88 b9
       8.100449e-07 0.0008965898 -0.002518808 -0.0002607942
000180 b3 5f 76 b9 6d e1 1b bb 82 15 d9 ba a0 dc 0e 38
       -0.00023496039 -0.0023785487 -0.0016562196 3.406091e-05
000190 56 53 8a 37 c5 c5 1d 3b 4b be 9a 37 3b d6 f2 ba
       1.6489688e-05 0.0024074179 1.8446843e-05 -0.001852698
0001a0 27 59 18 39 0b bd 85 38 16 97 a2 37 29 7d 8a 39
       0.00014529061 6.377146e-05 1.938226e-05 0.00026414663
0001b0 75 4c 5b 3a 59 7f 84 37 3d e1 af 39 f6 4b ed 38
       0.000836558 1.5794927e-05 0.00033546417 0.000113151895
0001c0 95 e7 e3 b8 e5 53 a6 b9 e8 07 5c b8 6a 8f 1a 3a
       -0.00010867339 -0.00031724494 -5.245945e-05 0.0005896004
0001d0 72 c9 20 3a ec b3 16 bb ce 66 d5 ba 94 8d 08 b9
       0.00061335333 -0.0022995425 -0.0016281249 -0.00013022713
0001e0 ea b2 1e 3b c1 4d a1 b8 62 09 a3 b8 7a 1b 2d b9
       0.0024215528 -7.691561e-05 -7.774193e-05 -0.00016508801
0001f0 db 71 a9 38 94 86 85 b8 69 83 76 ba f2 95 bf b7
       8.079755e-05 -6.367001e-05 -0.0009403737 -2.2838798e-05
000200 d7 d7 9d 39 23 81 9e 39 61 d6 14 b9 11 c9 c3 39
       0.00030106187 0.00030232323 -0.00014194242 0.00037343104
000210 90 b5 23 bb c9 72 4a 3a e6 f4 22 bb 65 38 9c b7
       -0.0024980046 0.0007722793 -0.002486521 -1.862291e-05
000220 e5 8d 60 b8 37 23 84 b9 10 ac 06 3b 4d 3a 97 38
       -5.353791e-05 -0.0002520324 0.0020549335 7.2111005e-05
000230 88 ac 59 37 45 a4 6b ba e9 74 da 3a 5b 28 26 bb
       1.29743785e-05 -0.00089890166 0.0016666922 -0.0025353644
000240 b9 bf 0c bb 13 0c 02 39 eb a0 ff ba ff 0f ab 39
       -0.002147658 0.00012402264 -0.0019502913 0.0003262758
000250 e7 ce da 38 0c b8 c2 b9 13 c8 e7 b8 e3 cb b4 38
       0.000104335886 -0.0003713969 -0.00011052205 8.621046e-05
000260 10 03 15 3b 25 5a 30 39 8f 0a 51 ba f9 7b 4f b8
       0.002273742 0.0001681825 -0.00079742906 -4.9468104e-05
000270 01 dd c9 ba 32 fa 20 b6 32 74 44 37 5e 49 51 3a
       -0.0015400947 -2.398749e-06 1.1709564e-05 0.000798365
000280 87 e5 b7 39 4e 29 6c b8 b6 f8 11 bb 26 e4 a3 39
       0.0003507549 -5.6305253e-05 -0.0022273487 0.00031259767
000290 20 98 2f 3a 17 80 6a ba a1 fc 37 b9 dc cf 87 b9
       0.00066983886 -0.00089454785 -0.00017546352 -0.00025904074
0002a0 dc 0c 37 ba 04 70 b0 b9 8f b6 c4 b8 bd 8e 9c 38
       -0.0006982812 -0.00033652794 -9.3800125e-05 7.465247e-05
0002b0 a2 ba dc 3a 72 81 33 38 4d 62 79 39 6a 88 f1 38
       0.0016840289 4.279748e-05 0.0002378311 0.000115171846
0002c0 88 ee 22 3b ae 23 7e 37 1b e0 82 3a 6d 61 e0 3a
       0.0024861414 1.5147887e-05 0.0009985002 0.0017118879
0002d0 03 13 10 3b 6d 50 8e b9 9b 86 55 ba ab be 9d 39
       0.0021983988 -0.00027144272 -0.0008145363 0.00030087432
0002e0 20 75 ea ba 78 35 4d 3a 3d c6 6b 3a e9 a4 03 3b
       -0.0017887689 0.0007828097 0.00089940784 0.0020087308
0002f0 83 20 37 3a 52 62 c2 39 10 1c 16 bb de 95 4f b8
       0.00069857406 0.00037075818 -0.002290491 -4.949222e-05
000300 a0 5c a0 3a 7f 36 a3 b7 21 42 dc 3a 7b bc 1b b8
       0.0012234636 -1.9456491e-05 0.0016804376 -3.7130416e-05
000310 02 5a 13 b9 70 54 25 bb d5 9f 2d b7 75 d0 e3 38
       -0.00014052543 -0.002522733 -1.0348817e-05 0.00010863032
000320 27 df b9 b8 24 f4 d1 b8 5e de c0 b9 5f 36 be b9
       -8.863053e-05 -0.00010011371 -0.0003678677 -0.00036280134
000330 56 f4 1c 39 88 10 c3 39 94 52 22 bb d5 52 c7 b8
       0.00014968342 0.00037205615 -0.0024768459 -9.504488e-05
000340 9a 20 cc 39 c5 0e 1d 3a 6d ee 0f bb 8e ca 8a ba
       0.00038934202 0.00059912755 -0.0021962181 -0.001058893
000350 06 23 8c 38 6b 72 65 39 f2 05 03 3a 7a 6f 24 bb
       6.682244e-05 0.00021881766 0.00049981393 -0.002509086
000360 0d 96 b5 3a ff 85 de 37 8e 22 d9 38 4c 91 f7 b8
       0.0013853923 2.6526859e-05 0.00010353803 -0.000118049415
000370 e3 e6 99 b9 4b ab 01 38 78 37 ab b8 8f d2 44 36
       -0.00029354458 3.0915526e-05 -8.164247e-05 2.9328837e-06
000380 ae 99 ae 38 e3 10 1d 3b 72 69 03 bb 99 0d 13 ba
       8.3255916e-05 0.0023966364 -0.0020051864 -0.0005609631
000390 da 67 c9 38 d5 8d 44 38 fe 3b 64 b8 1d 19 0c 3b
       9.603771e-05 4.6862133e-05 -5.4415308e-05 0.0021377273
0003a0 3c 49 bd 38 a3 43 33 b8 c6 f5 35 ba 11 48 f0 38
       9.025863e-05 -4.2739917e-05 -0.0006941225 0.00011457515
0003b0 18 45 3c ba 51 f2 05 b9 e2 36 48 39 3e e1 c0 39
       -0.00071819266 -0.00012774138 0.00019093932 0.00036788912
0003c0 09 ee 94 39 a1 23 2f b9 b2 b7 00 39 dc 30 0a 3b
       0.0002840611 -0.00016702573 0.00012275463 0.0021086251
0003d0 71 6d 4d ba 65 ef 31 b7 55 46 f8 b8 25 dd 67 3a
       -0.00078364374 -1.06057605e-05 -0.00011838662 0.0008844904
0003e0 c7 1e e1 39 e1 0d 61 b8 3a 8f 6a 3a d9 1d 65 3a
       0.00042938275 -5.3657106e-05 0.0008947734 0.00087401044
0003f0 50 99 13 3b de f8 c1 39 f8 ba 22 3b 3f ae 0f ba
       0.0022521801 0.0003699725 0.002483068 -0.0005480982

convs.4.weight f4 [16, 16]
000000 9e e5 6c 3a d2 3a 96 b8 ff 9a 81 b9 3b 16 66 ba
       0.0009036901 -7.1635135e-05 -0.00024720278 -0.00087771163
000010 1b 0c 2c 38 f3 40 4e ba f9 af e6 39 98 50 0d 39
       4.101927e-05 -0.00078679546 0.00044000128 0.00013476831
000020 f2 f8 31 b9 fe 04 26 3b cc c7 39 b7 a3 c8 04 bb
       -0.00016972775 0.0025332565 -1.1073378e-05 -0.002026119
000030 3e 4a c6 39 5f 03 54 ba ee a4 be 38 d1 88 af 38
       0.00037820818 -0.00080876605 9.0906266e-05 8.370134e-05
000040 1f 4e 07 3b fb 8e ea ba 99 80 b7 36 f8 3d bb b6
       0.002064593 -0.0017895395 5.4687957e-06 -5.5802484e-06
000050 88 76 b1 39 16 5c 46 b9 8d 63 99 b8 82 95 b9 b9
       0.00033848383 -0.00018917056 -7.314151e-05 -0.00035397342
000060 81 6c 7b 38 3a fd b2 b9 67 2e d5 ba f0 37 a3 b8
       5.9944115e-05 -0.00034139474 -0.0016264439 -7.782865e-05
000070 1d c1 40 ba c1 04 45 b9 53 d1 ad ba 93 3e a8 36
       -0.0007352995 -0.00018789155 -0.0013261236 5.0140748e-06
000080 2b 3f e7 b8 3b 03 90 39 0b a5 24 b9 10 19 1e 3b
       -0.00011026704 0.00027468227 -0.00015701742 0.0024123825
000090 de 78 fd 3a 1b 34 66 3a 4b 87 23 bb 99 74 fd ba
       0.0019338389 0.0008781568 -0.0024952467 -0.0019337117
0000a0 28 42 4c 3a f1 0a 5b 3a e5 44 33 ba 50 f2 59 3a
       0.00077918405 0.00083558174 -0.0006838574 0.00083140004
0000b0 e8 2d 4b ba fa 3f d7 ba 25 c1 45 ba 4e 1f 23 3a
       -0.0007750676 -0.0016422265 -0.00075437344 0.00062226213
0000c0 46 96 b9 b8 27 ae b4 38 da 29 9b 39 29 ac 15 b9
       -8.849478e-05 8.615507e-05 0.00029595086 -0.00014273882
0000d0 90 1e b8 38 bc 5b db 35 43 d3 23 3b 95 c6 14 b9
       8.7794964e-05 1.634347e-06 0.0024997748 -0.00014188357
0000e0 01 c2 46 ba 26 00 5b 39 a6 1a 01 ba f3 f0 22 3b
       -0.00075820094 0.00020885523 -0.00049249304 0.0024862855
0000f0 21 ce 45 35 0e 25 b7 39 b4 7e 20 bb 5d af 67 3a
       7.3688176e-07 0.00034932088 -0.0024489583 0.0008838082
000100 c8 2c 35 ba 47 fd 9e 3a d7 4e c3 b9 6f cb 6a 3a
       -0.0006911275 0.0012129926 -0.0003725204 0.00089567056
000110 3a d6 23 3b c5 53 a5 b9 ee 95 1f bb 4e a7 d6 37
       0.0024999515 -0.00031533666 -0.002435084 2.5588695e-05
000120 63 4a 52 ba f5 f6 11 bb f6 7f 57 b9 ff ce 3f 39
       -0.0008021949 -0.0022272442 -0.00020551667 0.00018292291
000130 e7 16 d4 37 55 72 68 3a 13 b7 09 39 8f 65 9d ba
       2.5283034e-05 0.00088671345 0.00013133539 -0.0012008416
000140 25 57 71 39 f0 17 52 3a ab eb 6e b8 e8 6f 1f 39
       0.00023016015 0.0008014431 -5.6963105e-05 0.0001520511
000150 96 d6 ed b7 de af a1 b9 a9 28 90 39 f7 70 0a 3b
       -2.8352526e-05 -0.00030839344 0.00027496114 0.0021124461
000160 2b 8b c4 39 ac 63 e9 ba 60 f0 1f b9 c4 82 26 b8
       0.0003748772 -0.0017806194 -0.00015252968 -3.969927e-05
000170 bd 27 ba 39 9b 53 a5 ba a0 fc 57 3a c3 5a 97 b9
       0.00035506292 -0.0012613417 0.0008239243 -0.00028868587
000180 d4 ed 24 ba da fa 0f 3b e8 b5 2a b7 d7 64 65 ba
       -0.00062915427 0.0021969588 -1.0175143e-05 -0.0008750683
000190 ce 72 13 bb bd 5a ee 3a 23 b4 33 b8 2d 25 84 ba
       -0.002249885 0.0018185001 -4.284469e-05 -0.001008188
0001a0 c0 fa 0b 3a 20 3c 63 b9 d3 58 eb 3a 80 6e ec ba
       0.0005339794 -0.00021670805 0.0017955549 -0.0018038303
0001b0 32 7a cd 38 c0 00 11 3b fa 72 a5 ba ad f9 aa 39
       9.7979224e-05 0.0022125691 -0.0012622767 0.0003261095
0001c0 fe cf 4a b8 c3 63 1e bb 19 0c 8e 39 3f 06 0b 3a
       -4.835426e-05 -0.002416835 0.00027093364 0.000530336
0001d0 0e 6a 4d b8 10 e0 d7 b8 fd 21 16 b9 a6 12 1c 3b
       -4.897458e-05 -0.00010293734 -0.00014317776 0.0023814826
0001e0 80 35 92 b7 b5 d5 87 38 11 7f eb b9 9a 5a 1c 3b
       -1.742947e-05 6.477108e-05 -0.00044917365 0.0023857714
0001f0 32 60 4b 3a bd e7 b4 b8 8d 14 1e 3b 39 34 fb ba
       0.00077581697 -8.6262335e-05 0.0024121136 -0.0019165344
000200 5b 7a 27 38 96 15 ea b8 5c 87 65 ba ab 45 4d 38
       3.9929855e-05 -0.0001116201 -0.0008755827 4.8940692e-05
000210 0d 1c e8 ba bc af 38 b9 a1 ae df 3a 69 d8 1e bb
       -0.0017708555 -0.00017613074 0.0017065593 -0.0024237877
000220 d5 cf f1 b7 e7 31 ae 39 d9 64 dc ba 03 3e 22 bb
       -2.8826218e-05 0.00033225046 -0.0016814723 -0.00247562
000230 81 cd e1 3a 9d aa 26 bb 73 11 8b 38 a3 f1 3a b8
       0.0017227383 -0.0025431283 6.631287e-05 -4.4570897e-05
000240 67 34 d0 39 f0 c5 80 b8 41 58 15 b5 8f 18 b3 37
       0.00039711894 -6.140384e-05 -5.563525e-07 2.1349899e-05
000250 35 30 4e 37 44 f9 60 b7 b2 ec ab ba ec ac 69 3a
       1.2289781e-05 -1.3409477e-05 -0.0013116805 0.0008914012
000260 9c 6b 66 3a b7 f7 b0 b9 3d 70 d8 ba 89 5f 23 37
       0.0008789839 -0.00033753898 -0.0016512942 9.737801e-06
000270 74 76 f4 b6 75 e5 d3 b7 94 d2 24 3b b6 b5 07 3b
       -7.2855564e-06 -2.526001e-05 0.0025149928 0.0020707673
000280 08 cc 5d 36 a0 fc c0 39 67 1f fe b6 37 63 ad b8
       3.3050328e-06 0.00036809314 -7.5734456e-06 -8.267763e-05
000290 48 d7 0a 37 ac 28 b2 39 a2 71 05 39 dd f1 03 bb
       8.275565e-06 0.0003398111 0.000127262 -0.0020133175
0002a0 61 b9 f4 ba 70 00 ca 3a e2 66 d3 3a 59 33 0a 3b
       -0.001867097 0.0015411507 0.0016128684 0.0021087734
0002b0 72 9d 62 ba c1 6e c2 39 63 5e 34 38 38 6b 05 b9
       -0.0008644677 0.00037085082 4.300325e-05 -0.0001272381
0002c0 77 00 17 ba 5e a2 63 38 63 99 a9 39 a3 45 b8 ba
       -0.0005760262 5.4272234e-05 0.00032348474 -0.0014058839
0002d0 9c 67 bb 39 cb 3b 32 3a 41 4a 9b b9 b4 2f b6 b7
       0.00035744614 0.0006799071 -0.00029619227 -2.1718304e-05
0002e0 0f 61 c6 ba 88 7b 25 3a 62 cf 1b bb 8f 12 7b 3a
       -0.0015135127 0.0006312658 -0.0023774733 0.00095776556
0002f0 94 9e e4 39 d4 3b 1d bb d4 8c f7 b9 09 82 1b bb
       0.000436057 -0.002399196 -0.00047216436 -0.002372863
000300 99 2a a4 ba e7 c6 3c b7 33 32 b4 39 9a d7 8d 39
       -0.0012524902 -1.1251984e-05 0.00034369677 0.0002705425
000310 99 26 26 3b 5f 3d 19 39 28 8f 6d 38 1e f5 9d b9
       0.0025352596 0.0001461408 5.6638528e-05 -0.00030128
000320 1b 2d c4 39 a2 a6 22 3b 7c 57 24 bb 14 cd db ba
       0.0003741764 0.002481856 -0.0025076559 -0.0016769492
000330 5c 38 18 39 ec 7f 1e ba d3 7a cd 39 eb 0c c8 b8
       0.00014516845 -0.00060462835 0.00039192158 -9.539149e-05
000340 41 fa 20 39 59 45 2a b9 b8 d4 bf ba 1b e4 3a 39
       0.00015352016 -0.00016238297 -0.0014635539 0.00017823318
000350 67 b6 84 b8 55 8a 17 39 4a b5 02 ba 3c bf 08 bb
       -6.3282256e-05 0.00014452015 -0.00049861206 -0.0020865938
000360 5c 87 47 ba 8a 8a 71 38 8d e9 e7 b8 4c 9b 2c b9
       -0.00076114177 5.7587902e-05 -0.000110584406 -0.00016461051
000370 3b 85 e6 b8 a2 d8 26 b8 a9 01 17 3b f8 d0 99 38
       -0.00010992071 -3.977924e-05 0.002304176 7.334532e-05
000380 a7 70 14 b8 6c 03 94 37 d5 1e 8b 38 4b 20 95 3a
       -3.5390865e-05 1.7644568e-05 6.6337794e-05 0.0011377422
000390 bf 79 f0 38 7a ee 05 b8 8a a2 ab b8 79 bc 1b bb
       0.00011466769 -3.193177e-05 -8.184191e-05 -0.0023763462
0003a0 6e d3 10 b8 18 aa e7 39 d1 34 10 39 68 f6 1e 3b
       -3.4529185e-05 0.00044186483 0.00013752586 0.0024255756
0003b0 f1 f8 d7 38 e6 77 17 bb b3 2d 9b b9 3e 1b ce b9
       0.00010298368 -0.0023112237 -0.00029597952 -0.0003931168
0003c0 66 b7 bd ba 4b f1 06 bb dd 32 70 ba d9 f3 51 3a
       -0.0014474213 -0.00205906 -0.00091628527 0.00080090534
0003d0 08 46 77 b8 57 0b a9 3a 09 c7 b3 b9 d3 64 af b8
       -5.895461e-05 0.0012897056 -0.00034289833 -8.36343e-05
0003e0 d2 26 93 b8 77 08 80 b9 57 62 22 3b 18 6a a1 b9
       -7.016737e-05 -0.0002442037 0.0024777853 -0.0003078736
0003f0 0f 20 22 bb bc 71 62 3a 85 4a 05 b9 68 66 14 b9
       -0.0024738347 0.00086381636 -0.00012711629 -0.00014152529

convs.5.weight f4 [16, 16]
000000 2e 1f 57 3a d1 a5 2f b9 5b e1 80 b8 09 05 6b ba
       0.0008206245 -0.00016751072 -6.145491e-05 -0.0008965289
000010 85 0d 8c 3a d1 82 03 38 df 57 f0 b8 d4 2e 20 3b
       0.0010685181 3.1354666e-05 -0.00011460459 0.0024441974
000020 9a 85 af b8 ac 41 a0 b9 a6 f0 03 bb d0 d4 66 3a
       -8.3695355e-05 -0.00030566507 -0.0020132451 0.0008805515
000030 90 68 1b bb ed 92 04 39 f9 46 e8 b9 d6 64 0d bb
       -0.0023713447 0.00012643235 -0.00044303367 -0.0021574995
000040 3d d9 08 3b d7 56 05 3b bb f3 45 b8 f8 92 60 3a
       0.0020881437 0.002034595 -4.719545e-05 0.0008566822
000050 cd 2b 02 ba f8 6e c9 b8 0e 9b f9 34 34 b2 1a 39
       -0.0004965633 -9.6050964e-05 4.649268e-07 0.0001475297
000060 75 68 56 ba 11 08 6c 3a fb 72 15 39 ee 11 a0 39
       -0.00081790175 0.00090038875 0.00014252581 0.00030530937
000070 b3 62 94 37 32 39 20 b6 0a 80 b6 b8 63 7c 13 bb
       1.7688935e-05 -2.387515e-06 -8.7022854e-05 -0.002250456
000080 1e 3c ac 38 c9 e2 a0 b8 a3 2e 24 bb 33 d6 c2 39
       8.212797e-05 -7.6716366e-05 -0.0025052212 0.00037162154
000090 6a 8b c3 b8 15 46 c6 b7 ed 41 bc 3a d5 61 d0 b8
       -9.3242925e-05 -2.3636074e-05 0.0014362909 -9.9364355e-05
0000a0 af 93 6c 38 4f 21 53 b8 cd 0a 0d 38 49 81 eb 38
       5.6404326e-05 -5.033734e-05 3.362708e-05 0.000112297545
0000b0 ea af 1e 3b 66 4e 03 3b e9 87 d1 38 04 9a 23 bb
       0.002421374 0.0020035743 9.991212e-05 -0.0024963627
0000c0 a3 69 26 3b 22 05 c4 b9 a9 c2 84 3a c9 72 8d 37
       0.0025392554 -0.00037387857 0.0010128814 1.686196e-05
0000d0 86 53 14 bb 75 62 b7 ba 3e 0b 6c 3a 4b 25 34 3a
       -0.0022632792 -0.0013991134 0.0009004361 0.0006872012
0000e0 b0 40 3a 3a ff 01 d8 37 ba d9 db ba e7 c6 b7 39
       0.0007104976 2.5750136e-05 -0.0016773262 0.00035052674
0000f0 bb 0f c7 b8 ca 19 1a ba 5a 74 86 38 23 f8 1f 39
       -9.4919895e-05 -0.00058784767 6.41129e-05 0.0001525586
000100 2f fa b5 b6 27 95 6b ba 7f bc fa b5 da 38 60 b9
       -5.4233456e-06 -0.0008986764 -1.8681311e-06 -0.00021383484
000110 66 69 26 3b 92 1d fb b6 f4 5c 98 36 51 ca ae 39
       0.0025392412 -7.4838254e-06 4.540774e-06 0.00033338604
000120 61 8e b0 b9 ae e6 b6 36 fe 1b e8 b9 f0 f3 94 b8
       -0.00033675416 5.4508773e-06 -0.00044271344 -7.102627e-05
000130 3a a9 14 ba 3a ee 07 ba 43 0b e9 38 51 07 e4 b8
       -0.00056709687 -0.000518534 0.000111124034 -0.0001087325
000140 5f 18 6d b9 c7 85 d3 38 d8 b8 fe 3a 09 e9 1f 39
       -0.0002261116 0.00010086182 0.001943375 0.00015250234
000150 35 d5 f7 39 c4 6b 26 3b 05 54 96 b9 38 57 3f 3a
       0.00047270363 0.0025393823 -0.0002867283 0.00072990684
000160 de 79 1d bb 8b 52 21 bb 02 16 8e 37 93 c2 0d bb
       -0.0024028937 -0.002461585 1.6937967e-05 -0.0021630868
000170 11 07 38 39 ca 47 d5 3a 47 01 8d b9 2a af 9a b9
       0.0001755024 0.0016272005 -0.00026894567 -0.00029503676
000180 96 f4 b9 ba 21 d7 09 b7 ed 23 c8 ba ef 2f 3f 3a
       -0.0014187272 -8.215925e-06 -0.0015269496 0.00072932144
000190 c0 1c 55 ba 0e ec 93 3a 1b c7 14 bb 51 07 22 3b
       -0.0008129589 0.001128556 -0.0022701684 0.00247236
0001a0 d9 a1 24 bb 12 94 10 b8 58 01 26 3b 7e 06 0a 39
       -0.0025120883 -3.4470177e-05 0.002533039 0.00013163124
0001b0 93 ef 2a 38 06 b4 23 3b 87 e4 aa 39 6e 33 77 b8
       4.075428e-05 0.0024979129 0.00032595193 -5.8937287e-05
0001c0 7f e7 de ba be 19 09 b8 ca 1e 56 3a a4 91 b2 37
       -0.0017006247 -3.268732e-05 0.000816804 2.1287073e-05
0001d0 c3 17 dc b7 04 15 c6 b8 f3 e3 b3 b9 9a 42 18 3b
       -2.6237109e-05 -9.44529e-05 -0.00034311376 0.0023233057
0001e0 65 ae 80 37 3e 99 13 3b 0d f6 39 b9 49 17 7f b8
       1.5339998e-05 0.002252176 -0.00017734636 -6.0818424e-05
0001f0 39 77 74 b9 63 a5 91 39 9d ea 9b 38 d6 b2 77 38
       -0.00023314067 0.00027779778 7.434676e-05 5.9055943e-05
000200 3e 6f 65 ba ab 03 be b7 8a 35 ef b8 52 26 e4 38
       -0.0008752233 -2.2651473e-05 -0.000114063805 0.00010879025
000210 98 c7 84 b7 05 cc 08 ba 9a 24 6b 39 74 7f 14 38
       -1.582857e-05 -0.00052183896 0.00022424982 3.540465e-05
000220 81 d4 27 ba f4 5d 73 b7 72 f7 1c 38 ef b4 c4 b9
       -0.000640221 -1.4505804e-05 3.742375e-05 -0.0003751884
000230 1d be e3 38 da ee a1 ba 14 d0 71 b6 c1 8c 8c 3a
       0.00010859615 -0.0012354509 -3.6032916e-06 0.00107231
000240 4c 43 8f b7 ae fa 8e b3 e8 e6 13 b9 42 05 bb 38
       -1.7078266e-05 -6.657989e-08 -0.00014105032 8.917834e-05
000250 6e c1 c3 39 91 b1 ba 39 ff 4f 1e bb d3 16 6d 3a
       0.00037337415 0.00035608982 -0.0024156568 0.00090442336
000260 6c 38 ef 38 3a 66 0d bb e3 ee 20 3b 10 e1 48 b8
       0.000114069175 -0.0021575824 0.002455645 -4.789332e-05
000270 06 33 f5 39 3e e1 03 39 d3 2f fc 3a c1 45 9e b9
       0.00046768057 0.00012577043 0.0019240327 -0.0003018808
000280 d9 1c 6c ba fb 94 af b7 75 7d 2b 37 77 ce 1a 3b
       -0.0009006984 -2.0931e-05 1.02216045e-05 0.0023621598
000290 97 66 fe 3a 46 95 7e b9 9c 91 93 37 1f b6 a4 38
       0.0019409236 -0.00024278936 1.759157e-05 7.854052e-05
0002a0 95 bf 25 3b 66 97 c1 39 df 20 84 36 e5 fc 24 3b
       0.0025291194 0.0003692463 3.9377333e-06 0.002517515
0002b0 c2 cb 6b 3a 2f dd 21 bb ae 72 f4 b8 fd a4 95 3a
       0.0008994901 -0.0024698486 -0.000116561874 0.0011416968
0002c0 99 b6 ce 38 9f e1 b2 b9 58 d9 f8 ba 5b d0 4e ba
       9.856857e-05 -0.00034118906 -0.0018985672 -0.0007889324
0002d0 98 8c 24 3b e5 2a d6 b8 e0 02 42 b8 2d 2a ff 38
       0.0025108214 -0.00010212305 -4.6255882e-05 0.000121672034
0002e0 fd b0 87 39 8b c1 2e ba 12 c0 0a bb 08 6b c8 38
       0.00025881073 -0.00066664134 -0.0021171612 9.556679e-05
0002f0 a0 9d 49 ba 2c 8d 25 bb 45 f1 0f 38 c2 28 df 36
       -0.00076910295 -0.0025261147 3.4318557e-05 6.6506627e-06
000300 f8 69 ba 37 49 7d 48 b9 ac 2f 23 3b c6 97 bb b9
       2.2222273e-05 -0.00019120159 0.002490024 -0.000357805
000310 be 8a 58 38 99 14 8f 38 f2 eb 89 b7 58 e6 ba 39
       5.1627627e-05 6.822608e-05 -1.6441543e-05 0.00035648304
000320 30 66 c1 38 84 bb 59 3a be 38 a6 39 57 08 12 ba
       9.221991e-05 0.0008305835 0.00031704264 -0.0005570701
000330 c9 13 7a b8 d2 3e ae 39 bd ed c0 b9 f1 23 d4 37
       -5.962307e-05 0.0003323467 -0.00036798223 2.5289106e-05
000340 0b 10 b9 37 f4 b4 08 bb fc f6 79 39 7b e6 6d ba
       2.206119e-05 -0.002085981 0.000238385 -0.0009075177
000350 91 96 c7 37 a9 34 6e 39 77 6c b5 39 a9 c5 24 3b
       2.3792762e-05 0.00022717066 0.00034603823 0.0025142229
000360 80 6f 24 3b 8f c1 43 39 51 ad 42 3a 71 02 0f bb
       0.0025090873 0.00018668755 0.0007426339 -0.0021821524
000370 9a e2 21 bb eb cd 79 b8 63 b0 08 b9 2e ea 57 ba
       -0.0024701715 -5.9558002e-05 -0.0001303568 -0.00082364946
000380 00 d6 c3 b9 0f 46 f3 3a 61 55 6f 39 15 8b f0 b8
       -0.0003735274 0.0018560308 0.00022824622 -0.00011469998
000390 24 e7 a3 36 72 94 b4 b9 34 3a d2 b8 06 c1 23 bb
       4.884687e-06 -0.00034442876 -0.000100244215 -0.0024986877
0003a0 46 d7 97 39 93 cf 86 39 65 a6 c4 38 81 be 1c 3a
       0.00028961356 0.00025713127 9.377002e-05 0.0005979315
0003b0 81 0e d0 37 f3 8f 08 38 1c 52 be ba 05 02 f1 38
       2.4802286e-05 3.255899e-05 -0.001452032 0.00011492152
0003c0 db 7a 87 39 b9 55 81 38 58 9c 4c 3a 98 64 cd ba
       0.0002584074 6.1671664e-05 0.00078052795 -0.0015670238
0003d0 4a 16 94 38 63 43 bc 39 18 2a 47 b9 3a 1c 10 39
       7.0613416e-05 0.0003590836 -0.000189938 0.00013743425
0003e0 60 c6 07 b9 e3 2a eb b8 ee 72 ea ba dd ea 50 3a
       -0.00012948504 -0.000112136615 -0.0017887035 0.00079695677
0003f0 9b eb 2d ba 9d d5 23 b7 73 58 9a b8 9f e8 1f ba
       -0.0006634534 -9.765293e-06 -7.359767e-05 -0.0006100032
