Comparisons/GCNII-master/pretrained/5fb17b4583274fa9afe1c7db44418741.pt (torch_old, 85412 bytes, 68 tensors)

convs.0.weight f4 [16, 16]
00000000: 3b1d 0738 cff9 a139 8c25 8cb8 3259 41ba
00000010: efce cc39 c42c 28bc 500a 1539 8d3b 15b9
00000020: a35e a638 f21e a3b9 3c70 a639 fefa fd38
00000030: f691 e439 4999 b5b9 b5e4 9eb9 e724 b739
00000040: 84fd c239 cb15 7a38 608b 4739 c6d1 afb6
00000050: d323 f138 9a35 5b38 3085 0e39 f2d5 82b9
00000060: db7b a7b9 4904 f838 b00c a8b5 c402 1fb7
00000070: 2894 3c39 edf9 ab38 4e6e a637 5b18 02b9
00000080: 807c c139 d9db 0a38 8a4a b638 07bf 6eb7
00000090: 6830 0337 0042 8439 b068 e6b6 6ed3 1538
000000a0: f88a 5d35 0ff4 20b7 5f88 05b8 2f1a 2b38
000000b0: 1d03 23b9 09c7 dcb8 8236 2bb9 5cf1 0338
000000c0: 986a 2439 87a1 c9b8 dd7e a338 516c 00bc
000000d0: 2d02 54b8 9731 0abc 488a 0c39 1c95 eab7
000000e0: d0fe 9fb8 d257 0c39 8aa9 083a 5f64 0fb9
000000f0: 6b55 cb39 7482 a139 9a7f c7b8 f04b a138
00000100: b1da bcb6 6306 0837 c9bc 4639 65da d038
00000110: aa48 3837 1a1b 32b6 7cb1 f137 9f80 86b8
00000120: d692 74b8 96e5 59b9 ce0b b938 f6ff b1b9
00000130: 7a09 6439 4357 14b9 1a0e 3bb9 c162 5939
00000140: a947 81b8 e675 2539 174f c3b8 73f7 9e38
00000150: 34ca ac37 7ffa d538 63c2 59b9 7fb4 b2b9
00000160: e739 79b8 af5f 1938 75cd c939 1d66 2537
00000170: 54a9 03b8 bfe1 22b9 13b1 90b9 b887 2839
00000180: c2fc 2835 2dfb aa37 c475 f838 2cda 8238
00000190: 5502 5f39 7408 143a 8ed3 33b9 13c2 96b9
000001a0: 1ab1 d8b8 d7d4 1739 720c 0fb9 b95e 9239
000001b0: c8d5 96b8 33b1 f638 52ff bbb8 3eb4 ab38
000001c0: 3980 9fb7 c3ee a037 e03f 8139 6775 78b8
000001d0: 8640 81b7 38e3 90b8 e316 95b8 61dd a6b6
000001e0: 659c 9bb8 0c01 deb7 e5b0 48b9 954f 3e39
000001f0: c793 e138 8ebe f038 253c 6bb8 62b0 9eb9
00000200: 0907 2a39 ce92 83b7 95d5 dc38 f4c3 27b7
00000210: d702 11b9 7c22 61b8 b6e7 abb5 32a7 ddb8
00000220: 8589 42b9 7cea b338 8648 18b7 b8c5 9137
00000230: 2b87 9c36 334a 61b9 2a6f c439 3019 b4b9
00000240: cd72 46b8 361c 9d35 a4b6 8838 3022 8639
00000250: fa46 5036 f85f a3b9 c4ec c6b7 eff6 93b8
00000260: 5ba1 bf37 586f ceb9 f8c2 1437 cb45 aeb9
00000270: d277 09b9 a20e 20b7 3f49 53b9 86c5 7239
00000280: e86a 86b4 fbfb efb7 8594 f938 3e82 68b8
00000290: e980 24b8 695a 5bb9 99f9 9f38 2e4e e638
000002a0: 33b8 80b7 3fe0 9439 d45d 90b8 d92d ddb8
000002b0: 954f 94b9 fc6e 1db8 0a31 6339 39d1 8db8
000002c0: 5a98 c9b9 46e4 15b9 d465 bf39 4a05 0838
000002d0: e149 a8b7 0b59 5b38 4a25 9738 c44d 1839
000002e0: 11e9 b036 0221 20b8 5252 7538 19b5 82b8
000002f0: 5ccd 5236 6c66 3938 134a 7db8 5760 4437
00000300: d3fd 1bb9 05a1 e138 4730 69b9 22d6 1937
00000310: 9eaf c8b8 2c2b 43b9 dc31 21b7 d00b 9eb7
00000320: 2e7b 49b7 0cd6 a138 b93e 1f39 81e5 0db6
00000330: 7e09 fcb8 e7d0 81b7 470f 91b7 d999 0eb8
00000340: ba56 a938 5cf6 6bb6 8a41 0db9 1a8d c9b8
00000350: 3f6a 56b8 683b 49b8 8885 0437 43e4 7ab8
00000360: 7cc1 4638 7247 0637 312d c5b8 dc0f deb8
00000370: f1c4 5739 68a4 b139 8e32 1238 13fa a037
00000380: be52 9638 368b 75b9 fabb cc39 e61b 87ba
00000390: 6295 ceb6 9480 91b6 5405 7bb9 c104 c539
000003a0: f5ca 4fb9 0150 2039 81f1 e2b7 dc78 18b7
000003b0: 578f 8438 3ebe dcb9 2329 efb8 c901 e437
000003c0: eb6f d4b8 1a56 c938 ce5b ba36 f903 4b39
000003d0: aad2 1ab9 d3d7 cbb8 3acf 7839 99b9 d5b8
000003e0: 6305 8d37 37c9 b0b4 ed74 6c38 2bb8 b3b9
000003f0: c05f a5b8 6d15 2739 7a78 2f37 d337 7338
3.221373e-05 0.00030894435 -6.682714e-05 -0.0007375657 0.0003906409 -0.010264579 0.00014213589 -0.00014231932
7.933124e-05 -0.0003111284 0.00031745608 0.00012110731 0.00043596298 -0.00034637217 -0.00030306508 0.00034931974
0.00037191447 5.962494e-05 0.0001903004 -5.2398273e-06 0.00011498448 5.226359e-05 0.00013591792 -0.00024954934
-0.00031945002 0.0001182636 -1.2520668e-06 -9.477782e-06 0.0001798427 8.200468e-05 1.9840107e-05 -0.00012406839
0.00036904588 3.3106513e-05 8.69232e-05 -1.42303825e-05 7.819479e-06 0.00025226176 -6.8667214e-06 3.5721278e-05
8.253114e-07 -9.5935675e-06 -3.1836676e-05 4.0793962e-05 -0.00015546051 -0.00010527491 -0.00016328137 3.1457617e-05
0.00015679968 -9.614514e-05 7.796076e-05 -0.007838325 -5.0546765e-05 -0.008434675 0.00013402954 -2.7964408e-05
-7.629173e-05 0.00013384156 0.00052132516 -0.00013674934 0.0003878282 0.00030805508 -9.512827e-05 7.691223e-05
-5.6282956e-06 8.107719e-06 0.0001895308 9.958892e-05 1.0984173e-05 -2.6539842e-06 2.8812086e-05 -6.4135755e-05
-5.8310885e-05 -0.0002078026 8.823686e-05 -0.00033950777 0.00021747305 -0.00014146887 -0.00017838963 0.00020731521
-6.164547e-05 0.00015779547 -9.313056e-05 7.580118e-05 2.0598156e-05 0.0001020329 -0.00020767147 -0.00034085286
-5.9420152e-05 3.6567155e-05 0.00038490785 9.8585415e-06 -3.1390533e-05 -0.00015533621 -0.0002759775 0.00016072288
6.295269e-07 2.0382542e-05 0.00011847497 6.239521e-05 0.00021267806 0.00056470116 -0.0001714958 -0.00028754826
-0.0001033267 0.00014479771 -0.00013642179 0.00027917864 -7.192377e-05 0.000117632 -8.964412e-05 8.187488e-05
-1.9013985e-05 1.9184668e-05 0.00024652388 -5.9237147e-05 -1.5408044e-05 -6.908778e-05 -7.109137e-05 -4.9729574e-06
-7.420107e-05 -2.646495e-05 -0.00019139385 0.00018149459 0.00010756362 0.000114795854 -5.608438e-05 -0.00030267524
0.00016215084 -1.5684778e-05 0.000105302 -9.9996e-06 -0.00013829336 -5.3676296e-05 -1.280793e-06 -0.00010569244
-0.00018552512 8.579061e-05 -9.076792e-06 1.7377417e-05 4.664898e-06 -0.00021485313 0.00037466857 -0.00034351042
-4.7313795e-05 1.1705622e-06 6.519005e-05 0.00025583943 3.103573e-06 -0.00031161285 -2.3713692e-05 -7.055501e-05
2.2844111e-05 -0.0003937434 8.866882e-06 -0.00033239866 -0.00013109975 -9.54015e-06 -0.00020149814 0.00023152502
-2.503723e-07 -2.8608358e-05 0.00011900909 -5.5434408e-05 -3.9220704e-05 -0.00020919148 7.628202e-05 0.00010981817
-1.5344564e-05 0.00028395836 -6.883932e-05 -0.00010546641 -0.00028288053 -3.753508e-05 0.00021666675 -6.762375e-05
-0.00038451218 -0.00014294786 0.00036506227 3.2429853e-05 -2.0061563e-05 5.2296597e-05 7.207187e-05 0.0001452482
5.2723412e-06 -3.8177714e-05 5.848922e-05 -6.232615e-05 3.1411973e-06 4.4202825e-05 -6.0388888e-05 1.1704941e-05
-0.00014876509 0.00010758828 -0.00022238596 9.169367e-06 -9.5694544e-05 -0.00018612732 -9.607957e-06 -1.8840568e-05
-1.2009214e-05 7.7169476e-05 0.00015186788 -2.1144226e-06 -0.000120180644 -1.5475276e-05 -1.7292461e-05 -3.399872e-05
8.074702e-05 -3.5161129e-06 -0.00013471223 -9.610709e-05 -5.1120525e-05 -4.797746e-05 7.898903e-06 -5.981723e-05
4.7387075e-05 8.003657e-06 -9.4021096e-05 -0.00010588739 0.00020577364 0.00033882563 3.4856195e-05 1.9189936e-05
7.167969e-05 -0.00023416881 0.00039049966 -0.0010307997 -6.156669e-06 -4.336305e-06 -0.0002393921 0.0003757831
-0.00019816666 0.00015288593 -2.7053758e-05 -9.088046e-06 6.3209496e-05 -0.0004210341 -0.000114040704 2.718055e-05
-0.00010129794 9.6004645e-05 5.5539194e-06 0.00019361069 -0.00014765063 -9.719995e-05 0.00023728321 -0.00010191202
1.6811018e-05 -3.2928958e-07 5.637568e-05 -0.00034278756 -7.885648e-05 0.00015934343 1.04588635e-05 5.7987705e-05

convs.1.weight f4 [16, 16]
00000000: 07fa abb9 3d1d 8f37 8f70 1738 11bc ec3a
00000010: 2c88 b439 e3d0 8cbb 7d07 d538 4ad3 8939
00000020: 05b5 6db7 1c14 13b8 9dff c5b9 d1f3 1538
00000030: d5e6 3bb9 5707 a1b9 9e69 86b9 baa0 9138
00000040: 74f8 87b7 55e8 cb39 9275 28b8 6e8a 1d37
00000050: bb39 5fb9 fee9 9eb7 01f9 94b9 b3d2 b738
00000060: 1ff5 5437 f283 48b6 d1b5 9438 7679 7838
00000070: 2c91 0239 69b5 4238 5df4 3938 43a3 6839
00000080: 8291 2839 c917 c9b7 913c a838 b1ad 0639
00000090: fa34 d0b7 ac04 8c38 ca90 eeb6 94ee 9039
000000a0: 71a4 3939 4c64 e338 3a97 9238 e2ed a038
000000b0: f71a 45b8 def4 8f36 38c4 a6b8 5208 5739
000000c0: de92 f6b9 da3b 5539 85eb 1c39 3931 9b3b
000000d0: 9eae 37b9 cbeb 10bc 2351 0bb5 62f3 87b8
000000e0: 6129 b5b8 4d94 dbb8 7fbc 4239 3e86 6338
000000f0: 43cd 7cb9 3b33 83b9 6806 a4b8 2dfc 7539
00000100: 3f83 1b37 d174 7036 3e98 c039 4153 fc38
00000110: 9750 cf38 4371 94b9 ca5e 0b39 9bc7 a738
00000120: c830 c2b9 b12f 0d37 3e06 55b9 2776 de37
00000130: 8a6d cbb9 6e5d 91b9 30b6 bf36 0cd1 c9b9
00000140: 8d35 0435 ed0c 26b9 5021 1639 8d82 2ab9
00000150: 1a91 9638 c0ce 6738 0910 99b8 e15e d9b7
00000160: 029e 84b9 f1dd 2539 0aac 03b8 6b63 5239
00000170: 57f6 6539 ac42 92b9 f977 8038 5f95 83b9
00000180: 94d0 ca39 f075 92b9 2a4f af38 d76d f336
00000190: 7324 b737 13ab 2b39 9a5e 9438 a89c 4db8
000001a0: 2332 70b8 6823 6f39 2d46 e3b7 2c3e 9738
000001b0: 8460 d638 b7c6 96b8 e634 8f37 a2e9 cbb9
000001c0: fd0b dd37 080b a5b8 76e1 2737 9176 00b9
000001d0: 5453 f038 4911 19b9 f841 bdb9 adb3 4339
000001e0: 65c3 8c38 e6ab 81b9 bee9 4639 915e 1a37
000001f0: 6849 7ab9 7650 c6b8 3c80 bc38 9956 1e39
00000200: 748c beb8 4855 3537 075f 02b9 459e f6b8
00000210: 90e2 e2b8 f897 1b37 654a 8a37 8d05 8b38
00000220: 23cb a5b8 f722 afb8 c1da 81b8 9a11 8e39
00000230: 5b1d 7fb9 3ec8 5637 63d8 4cb7 2cba 0539
00000240: e924 d5b6 9a3f 40b9 555b 18b9 e6e2 c838
00000250: 3b1c 40b8 3b08 62b7 7158 1038 7dd6 5d39
00000260: bf86 a4b8 3410 09b8 c347 1937 2db3 1238
00000270: f29e 42b8 e2c3 5538 93c0 3839 a7ff 2739
00000280: 6579 0a39 a5ce d3b8 c6b3 7f39 e51c 7e39
00000290: fa15 e7b8 02af 1038 526e cbb9 b84a 02b8
000002a0: 4557 8d39 7d10 9137 1382 8fb8 7bfb 7037
000002b0: 3738 4739 1c05 0ab8 5ff1 65b9 3aec c1b8
000002c0: 7fba d738 f7f2 94b9 19fe 9ab9 e41a cfb8
000002d0: 67ff 0ab8 7af4 c9b8 f568 82b7 b489 b632
000002e0: 5915 0437 2de1 9f39 5506 c538 e181 b639
000002f0: 3027 73b8 ef4e 0639 a532 a7b9 05bd 9239
00000300: 8714 b139 517b c9b9 ff64 c938 d848 a838
00000310: 7b77 68b9 9cff b437 2140 8bb5 fb0c 0fb8
00000320: 2730 27b7 208c 17b7 37bd c538 002d 5a38
00000330: 4f8e 3bb9 bd3c acb7 8f33 6437 4dc0 01b9
00000340: faed c238 484c beb8 1577 40b9 056b 8b39
00000350: f477 7bb8 b226 d238 2f30 1938 d806 9db8
00000360: ce77 ce39 8178 3bb9 eaa4 9139 d355 7038
00000370: adc2 13b8 5361 5939 dc22 8038 135d c7b5
00000380: eda9 8f38 09e3 b2b7 c0ae 8338 9a83 b8b8
00000390: 1773 7738 3dcb 3939 95bb 2a37 6f5d b8b7
000003a0: 71e0 ab36 e5dd 8fb8 6bdd 5eb7 c14a 9f38
000003b0: a07c 1db7 5111 acb8 5fef 04b8 2129 b8b8
000003c0: e0e4 a238 7439 a2b7 f837 8fb6 d4d9 9637
000003d0: c6bb ffb7 af08 2839 3e20 3338 d5ca ca39
000003e0: 24a2 b339 d0a3 9eb8 52b3 b7b9 d2a6 3e39
000003f0: 2ee5 9936 55f5 a3b8 0d67 2ab9 a387 2a37
-0.00032801947 1.7060544e-05 3.6106034e-05 0.0018061419 0.0003443373 -0.004297362 0.00010158026 0.000262881
-1.4168448e-05 -3.506626e-05 -0.00037765215 3.575144e-05 -0.00017919701 -0.00030713782 -0.00025637163 6.9440764e-05
-1.620895e-05 0.00038892278 -4.0163817e-05 9.39016e-06 -0.00021288444 -1.8944029e-05 -0.00028414282 8.765366e-05
1.2693256e-05 -2.9879125e-06 7.091056e-05 5.9240927e-05 0.00012451847 4.6422156e-05 4.4335018e-05 0.00022186064
0.00016075934 -2.3972143e-05 8.0221456e-05 0.00012843941 -2.4820201e-05 6.6765904e-05 -7.1098084e-06 0.00027643575
0.00017704234 0.00010842885 6.989991e-05 7.673704e-05 -4.6993573e-05 4.2902384e-06 -7.9520454e-05 0.00020507097
-0.000470302 0.0002033556 0.00014965057 0.0047360924 -0.0001751729 -0.00884528 -5.1899605e-07 -6.482635e-05
-8.63846e-05 -0.00010470357 0.00018571502 5.424604e-05 -0.00024109059 -0.00025024437 -7.821323e-05 0.00023458964
9.269278e-06 3.5830783e-06 0.00036734523 0.000120318036 9.88554e-05 -0.00028313146 0.00013291385 8.00036e-05
-0.00037038908 8.415359e-06 -0.00020315588 2.6519481e-05 -0.0003880079 -0.00027726166 5.713453e-06 -0.0003849346
4.925176e-07 -0.00015835809 0.00014317525 -0.00016261097 7.179585e-05 5.5267243e-05 -7.298595e-05 -2.5912597e-05
-0.00025294727 0.00015818306 -3.1393058e-05 0.00020064197 0.0002193091 -0.00027896964 6.125862e-05 -0.00025097557
0.00038683845 -0.0002793516 8.359396e-05 7.2547514e-06 2.1832273e-05 0.00016371561 7.074811e-05 -4.9021706e-05
-5.7267152e-05 0.00022806006 -2.7093187e-05 7.2118215e-05 0.000102222926 -7.189571e-05 1.7071561e-05 -0.00038893247
2.6350835e-05 -7.869868e-05 1.000647e-05 -0.000122512 0.00011459613 -0.00014597656 -0.0003609804 0.00018663584
6.712115e-05 -0.00024732872 0.00018969827 9.201133e-06 -0.00023869204 -9.456363e-05 8.988424e-05 0.00015100314
-9.0860674e-05 1.0808297e-05 -0.00012433167 -0.00011759674 -0.0001081872 9.274103e-06 1.6485525e-05 6.6290704e-05
-7.90565e-05 -8.351163e-05 -6.1919454e-05 0.00027097465 -0.00024329631 1.28020165e-05 -1.2209729e-05 0.00012753223
-6.3521916e-06 -0.0001833424 -0.00014529873 9.579006e-05 -4.580266e-05 -1.3472566e-05 3.4414643e-05 0.00021156106
-7.845228e-05 -3.2678436e-05 9.136219e-06 3.4975983e-05 -4.6401234e-05 5.0965587e-05 0.00017619347 0.00016021599
0.00013205929 -0.000100997546 0.00024385666 0.00024234092 -0.00011019032 3.4495264e-05 -0.00038801372 -3.1064003e-05
0.00026958637 1.7293025e-05 -6.8429996e-05 1.4363667e-05 0.0001899906 -3.2906522e-05 -0.0002192906 -9.246958e-05
0.000102867365 -0.00028409783 -0.00029562486 -9.875538e-05 -3.3139626e-05 -9.629964e-05 -1.5546082e-05 2.1250209e-08
7.8727835e-06 0.00030494612 9.3948714e-05 0.00034810512 -5.797221e-05 0.00012808641 -0.00031890455 0.0002798812
0.00033775365 -0.00038429585 9.603239e-05 8.0244325e-05 -0.00022169754 2.15767e-05 -1.0374971e-06 -3.4105946e-05
-9.965187e-06 -9.032927e-06 9.428936e-05 5.201716e-05 -0.00017886724 -2.0532281e-05 1.3601863e-05 -0.00012374036
9.2949675e-05 -9.0741145e-05 -0.00018354908 0.00026591882 -5.995478e-05 0.00010020788 3.6522917e-05 -7.487618e-05
0.00039380643 -0.00017878601 0.00027779426 5.730039e-05 -3.5228837e-05 0.00020730989 6.110009e-05 -1.4853744e-06
6.8504225e-05 -2.1324975e-05 6.2791165e-05 -8.7983164e-05 5.8996575e-05 0.00017718687 1.01764645e-05 -2.1978018e-05
5.1223255e-06 -6.8601024e-05 -1.3283784e-05 7.595635e-05 -9.386946e-06 -8.2048246e-05 -3.1694184e-05 -8.7814646e-05
7.767393e-05 -1.9338659e-05 -4.2682477e-06 1.7982828e-05 -3.0485808e-05 0.00016024963 4.2706954e-05 0.00038679564
0.00034262345 -7.5645396e-05 -0.00035038084 0.00018181957 4.5864354e-06 -7.818142e-05 -0.00016250853 1.016437e-05

convs.2.weight f4 [16, 16]
00000000: 3477 1238 1ccb b7b9 890d 9e38 830d dfb9
00000010: b9c5 2c39 5dc3 2ebb b6d2 af39 c448 e338
00000020: a0cd fe38 ebee 30b8 8175 c0b9 a538 77b8
00000030: 8e29 a539 7205 90b9 3030 a938 223b db39
00000040: 10d7 8ab7 bbbb 9838 6afc 1037 e522 4d39
00000050: 375c fdb8 abf1 51b8 31cb 6ab9 33a8 b3b6
00000060: 7775 0c38 4daa 8d38 7332 2939 ca9d 7a39
00000070: fa6b adb7 a830 5cb8 ee68 6737 3e11 8838
00000080: d5e0 0fb8 d5fb 4d39 bb8b 1bb9 ac78 ba39
00000090: ce2b 8539 107c a5b8 99cf a837 dbe0 42b9
000000a0: 60b7 1bb7 99ed 51b9 2234 9137 3750 3e39
000000b0: 86e6 0ab9 ad3d 0938 80f7 af38 34a1 aab8
000000c0: f81a adb9 3af7 e1b6 80ff 2a39 8c7b 16ba
000000d0: ce43 9c38 e5b5 1fbb 8b06 28b8 0a13 a638
000000e0: c223 a937 d541 62b7 3e0a 6eb9 7833 a138
000000f0: 20a6 74b8 ac5a 8eb8 d74f c438 2bdb 1339
00000100: 9bfc ae37 8bce 14b9 c249 2a38 d781 8639
00000110: 9a09 a436 12db aeb8 74e9 0638 6aad 6738
00000120: 1395 3f38 ea28 cc36 6a0b f338 caeb bf38
00000130: 0511 3539 12a1 9db7 6b54 bc37 04b0 c938
00000140: 87b3 cdb9 0c45 59b8 f036 ecb7 ee97 a9b9
00000150: 11ea 0d39 7092 a0b8 c825 8f37 14b4 1db9
00000160: 9b41 5039 2d85 83b5 8993 7c38 fb74 4bb8
00000170: 27aa cab8 ff55 b2b8 39d8 f738 680a 9038
00000180: 3e96 cb39 4537 82b8 a9af 03b9 354d fb37
00000190: 5847 7f39 c51a 6d38 ebe2 f9b6 ff5c bdb8
000001a0: 7909 1939 7a2c 8fb9 d62b cc38 a0eb 77b8
000001b0: c3ab 6337 8f6d fab8 d87c 41b9 0fa2 9039
000001c0: fb78 e938 b6c8 9a38 2764 5db8 e52c 10b9
000001d0: a7f0 a038 190c 2238 4971 8339 13d2 f838
000001e0: 1759 d338 4dcb 9a39 4446 7e37 02e3 ec38
000001f0: f35f 95b7 86dc 78b8 39df 99b8 8515 ce36
00000200: 30fa 5cb6 2bb5 f337 ae9d a138 775d 73b8
00000210: d8ba 9b38 93e2 5a39 3024 bab8 1a3b 3736
00000220: 5355 2237 8a8e acb7 5208 8f39 e139 9339
00000230: 6e14 4539 2781 4439 c04c 9736 4de8 b639
00000240: 6ffe a3b7 cabc 3039 2f94 8db7 fba7 7f39
00000250: 350b c9b9 fbab 69b7 1e17 a438 82bc a0b7
00000260: 2b3f 8fb8 3274 5c38 baca 4c38 6b2a e0b8
00000270: fe6f 95b9 1639 a1b9 7b1d ceb8 7fb0 d038
00000280: 7b99 ccb8 c806 a938 e48c 9fb9 1945 c539
00000290: 8e69 1137 12a1 a3b7 560e 44b7 ef07 aeb7
000002a0: f389 0239 2c58 0339 55bf fd38 350b 46b7
000002b0: 5b83 7138 fc16 fc36 8f71 b9b8 ae63 1d38
000002c0: e299 8138 040e a738 8a65 0cb8 fa3c 7cb8
000002d0: ab88 0938 3db8 9fb8 d21b c437 d4e1 26b9
000002e0: b0b4 9139 797d 2e39 1c94 9239 1c0e 96b6
000002f0: 7fad a137 343f 4c39 3d00 6139 4db3 24b9
00000300: 3ddb 11b7 c6c0 81b9 c08c 89b7 3275 12b8
00000310: 1b41 b4b8 16b0 1736 228e 2539 9f54 5cb8
00000320: 4c2a 4ab9 f3a4 b438 75bb 97b3 93a5 2839
00000330: 6051 04b9 e746 68b6 edfd 3139 47e8 8e37
00000340: e6d5 3737 39bf 96b9 6298 4ab9 6526 a239
00000350: 51fc c7b8 46af 87b8 8b01 18b9 9eb9 38b9
00000360: 521c 8e38 5be1 07b8 bc5c 03b9 9474 4538
00000370: 621a a6b8 dd81 8fb9 f4e4 58b9 14e7 5c39
00000380: 64ce ceb9 a7e3 adb9 c8c7 9b38 abec 5a38
00000390: e7ec 5bb2 f158 63b5 d763 61b8 3507 3bb8
000003a0: 578c 4b39 fe35 6237 196e 0e38 77e5 0839
000003b0: f65c 9339 0588 a539 94a8 07b8 049e 9ab8
000003c0: 8cb7 4637 a8cb bd38 7b13 1336 4937 ffb5
000003d0: 3c4a 8ab8 439e 75b9 7b9b 8838 cb94 8ab8
000003e0: 03cd 04b8 d4d0 f236 7e6b c836 ef70 7439
000003f0: e215 a138 6405 8cb9 f0d0 32b6 2440 0e38
3.492013e-05 -0.00035055808 7.536548e-05 -0.00042543942 0.00016476856 -0.0026666739 0.00033535593 0.00010837757
0.000121499645 -4.218418e-05 -0.0003670864 -5.8942143e-05 0.00031502213 -0.00027469877 8.0675236e-05 0.00041814992
-1.6551028e-05 7.282892e-05 8.641839e-06 0.00019563323 -0.000120811565 -5.0054554e-05 -0.00022391674 -5.3541967e-06
3.3488e-05 6.755125e-05 0.0001613589 0.00023900639 -2.0673488e-05 -5.2497402e-05 1.3793104e-05 6.488197e-05
-3.4303248e-05 0.00019644138 -0.00014834006 0.00035566592 0.00025400374 -7.8909216e-05 2.012383e-05 -0.00018585047
-9.281415e-06 -0.00020020305 1.7309623e-05 0.00018149694 -0.00013246582 3.2720785e-05 8.390751e-05 -8.136258e-05
-0.00033017225 -6.7343035e-06 0.00016307645 -0.0005740456 7.451289e-05 -0.0024369892 -4.0060415e-05 7.919043e-05
2.0163021e-05 -1.3485977e-05 -0.00022701264 7.686665e-05 -5.832885e-05 -6.7879766e-05 9.3608796e-05 0.00014100659
2.0860045e-05 -0.00014191323 4.059985e-05 0.0002565521 4.8886986e-06 -8.3377716e-05 3.216551e-05 5.5236196e-05
4.5676785e-05 6.084437e-06 0.00011589269 9.151509e-05 0.00017267845 -1.8790863e-05 2.2450657e-05 9.617212e-05
-0.00039234405 -5.1801137e-05 -2.8158975e-05 -0.00032347388 0.00013534004 -7.656671e-05 1.7064522e-05 -0.00015039771
0.00019860866 -9.79902e-07 6.0218885e-05 -4.8507918e-05 -9.663804e-05 -8.5037194e-05 0.000118181524 6.8683934e-05
0.00038831116 -6.209178e-05 -0.00012558572 2.9957484e-05 0.00024345273 5.6530134e-05 -7.447195e-06 -9.029544e-05
0.00014594746 -0.00027308223 9.735643e-05 -5.9108832e-05 1.3570246e-05 -0.00011941336 -0.00018452422 0.00027586563
0.0001113284 7.3806776e-05 -5.278378e-05 -0.00013749635 7.6742195e-05 3.8635077e-05 0.0002507067 0.00011864691
0.00010077858 0.0002952464 1.515594e-05 0.000112956404 -1.7806864e-05 -5.9333186e-05 -7.337187e-05 6.1417836e-06
-3.2928183e-06 2.905222e-05 7.7064484e-05 -5.802276e-05 7.425778e-05 0.00020874506 -8.8759116e-05 2.7303527e-06
9.675819e-06 -2.0570373e-05 0.00027281285 0.00028081148 0.00018794995 0.0001874013 4.5090856e-06 0.00034886823
-1.9549594e-05 0.00016854997 -1.6877513e-05 0.00024381273 -0.00038346057 -1.3927925e-05 7.824435e-05 -1.9161267e-05
-6.830537e-05 5.2560303e-05 4.8826194e-05 -0.00010689053 -0.00028502935 -0.00030750845 -9.8283366e-05 9.951088e-05
-9.756066e-05 8.059811e-05 -0.00030431815 0.0003762625 8.66725e-06 -1.9506118e-05 -1.1685848e-05 -2.074611e-05
0.00012449156 0.0001252598 0.000120996185 -1.1804329e-05 5.7581212e-05 7.512861e-06 -8.842639e-05 3.752455e-05
6.179862e-05 7.965791e-05 -3.3473167e-05 -6.013827e-05 3.2790627e-05 -7.616028e-05 2.3377976e-05 -0.00015915121
0.00027791178 0.00016640675 0.0002795764 -4.471991e-06 1.9273486e-05 0.00019478501 0.00021457761 -0.00015707054
-8.693719e-06 -0.00024748425 -1.6397214e-05 -3.491826e-05 -8.595196e-05 2.260325e-06 0.00015788575 -5.2530897e-05
-0.00019279978 8.613793e-05 -7.065584e-08 0.0001608341 -0.00012618816 -3.4611965e-06 0.0001697463 1.7035882e-05
1.0957452e-05 -0.00028752701 -0.00019320988 0.00030927654 -9.536057e-05 -6.469949e-05 -0.00014496424 -0.00017616755
6.776363e-05 -3.2396387e-05 -0.0001252768 4.7077032e-05 -7.920411e-05 -0.0002737184 -0.00020684657 0.00021066918
-0.00039445155 -0.00033166746 7.428188e-05 5.2195664e-05 -1.2801343e-08 -8.4693517e-07 -5.3737163e-05 -4.4590986e-05
0.0001941187 1.3483221e-05 3.3957975e-05 0.00013055453 0.00028107286 0.00031572595 -3.234351e-05 -7.372725e-05
1.1844455e-05 9.050156e-05 2.1916046e-06 -1.9015071e-06 -6.59418e-05 -0.00023423978 6.513946e-05 -6.6080676e-05
-3.1662184e-05 7.236473e-06 5.972978e-06 0.00023311724 7.681154e-05 -0.00026706897 -2.6645685e-06 3.3915174e-05

convs.3.weight f4 [16, 16]
00000000: d798 b138 59e0 36b8 d704 b538 de3b 95ba
00000010: ac92 8438 ca93 81bb 318f 31ba 9c45 0aba
00000020: 296b 0339 fd3f 16b9 701d f4b8 39a0 dfb8
00000030: 42c5 42b9 c58e 6ab9 11db 48b8 68a8 3839
00000040: 5429 5538 d385 b038 11dd 34b7 4fb9 16b7
00000050: 74ed abb8 6281 8db8 f7f1 44b7 ef55 52b9
00000060: abe3 a538 e244 29b9 8a2f 49b9 3d86 9936
00000070: 5dc7 9539 5528 d9b7 8911 5e39 3787 95b8
00000080: f0cb bdb6 51c3 03b9 47f3 21b8 93de 2eb9
00000090: e9bf 7d37 5b04 cdb9 7d89 9a38 8b77 27b9
000000a0: 0941 c438 4e6c 9eb7 8bf0 8338 1ab5 1638
000000b0: e7da df36 8ddc ba38 ac14 8fb9 cc29 fa36
000000c0: 4d9c beb9 3149 c939 3c0c d337 57b7 003a
000000d0: b272 34b9 f8f3 03bb 1e8a 8539 10a1 1e39
000000e0: b8fb 0fb7 9b9c 2c39 0ee9 58b9 2a50 7039
000000f0: 7692 1639 5a5c 01b9 1637 d8b8 9d35 adb8
00000100: 767d 98b8 26d6 9139 a7ed 93b9 9ba5 a137
00000110: f71a 7639 05ea 0f39 c941 67b7 0579 8e39
00000120: 2de3 57b7 0f85 9438 558c 56b9 d705 68b7
00000130: f771 ec36 030e 4339 7336 cb38 d901 5cb8
00000140: f46a 62b9 2edd 4e37 e134 50b9 ee11 af37
00000150: ae36 0338 1aaf 82b9 239a 7b37 36f5 ee38
00000160: e040 78b9 ec31 8138 07cd 2db7 e52c 32b8
00000170: 58e8 23b8 08f9 8cb9 86c8 3d38 fcf6 5739
00000180: 830a 6d39 53d0 2f39 5ef0 bd39 8e56 4139
00000190: d0c3 3e39 6bd1 3bb9 0a0a c3b8 86dc 55b8
000001a0: 98a0 b0b7 c0d9 f8b8 4dc7 eb37 6897 18b8
000001b0: c1e4 4eb7 d53b 5939 640f 6ab9 51d4 95b8
000001c0: 978f db38 9658 8237 3d53 9337 a84c 90b8
000001d0: 617e 5bb8 faae 96b7 f8db c539 df63 50b4
000001e0: b270 11b9 913a 9e38 64a7 3138 a54b 26b7
000001f0: 3b9d aeb7 9b37 d238 8409 aa39 58f2 b2b7
00000200: f92f f538 7bb2 e238 0c20 1037 d01e 63b8
00000210: 2015 e537 fc8e c7b8 85b9 ba37 355c 7db8
00000220: 4361 1636 39ec 9138 4981 2b38 80a5 3eb7
00000230: 1f9e 2cb9 8104 9139 b39a bcb9 92d9 5f38
00000240: 0d54 7b39 4f2e 41b9 7c04 50b8 e828 1639
00000250: 17c2 80b8 0811 0739 16cb 97b7 dd51 8db7
00000260: c90f 51b9 5063 9bb7 3670 90b7 76e1 abb7
00000270: d308 90b8 fb83 7f37 0de0 3e36 92fe 6a37
00000280: 4ee5 0639 b08d fe38 5061 d1b7 b04a f238
00000290: 987e 58b9 83ec 8039 e8c3 3bb7 378c 6a39
000002a0: 8290 12b8 a4cb 15b9 2448 0c38 dee3 7338
000002b0: f7e9 bab9 0ac5 f037 a7c3 bb37 c414 b638
000002c0: 350e bfb7 0d6c 80b7 bdc5 b5b9 515d b9b9
000002d0: ccef 6eb9 e69d 7fb8 deaa 4bb7 55e0 c938
000002e0: 57bf b039 1b74 dcb8 edf5 4cb9 2025 3938
000002f0: de5a 6ab9 20f9 f6b8 db14 4c39 3968 4539
00000300: 1f46 cab9 dfdc 30b8 109a bbb9 05c3 8537
00000310: a2cb 21b7 1406 c238 41f2 8cb7 34ed a9b8
00000320: 744b 0938 3275 6437 f38f 8bb8 9cf7 dcb8
00000330: d928 02b7 8f84 7636 4719 0039 9af0 b6b8
00000340: 2ab6 c4b6 9875 20b8 1138 7539 5f76 bcb8
00000350: 5ff9 c1b7 a61d bfb8 1dee 9d38 3d2f e938
00000360: 8ead a138 399f d4b8 77b0 2139 bb5f 0239
00000370: 15c0 a7b8 fa7b ffb6 c63d 2339 cf99 2c38
00000380: c330 07b8 f1cb 24b9 77a3 9439 4713 6c38
00000390: 5ac5 d537 92cf bd38 abdd 56b9 9105 0c38
000003a0: cf5a b4b8 3c52 8937 4e3c 2eb8 1d3b 20b7
000003b0: fbab dcb6 1919 1d39 000f 9d37 6245 c5b8
000003c0: cf3f 8a38 9ecc a5b6 a1ca b8b7 c857 86b9
000003d0: 6746 98b7 6d20 ddb8 2cb1 0439 2bcc 94b9
000003e0: 0c4a 93b8 5b81 81b8 8950 76b9 b25e 96b9
000003f0: 9412 b337 877d 10b9 eea7 deb8 a31f df38
8.468486e-05 -4.360112e-05 8.631654e-05 -0.001138564 6.32157e-05 -0.0039543854 -0.00067733513 -0.0005274655
0.00012533054 -0.00014328952 -0.0001164031 -0.000106633124 -0.00018574766 -0.00022369165 -4.7887737e-05 0.00017610344
5.0821647e-05 8.417261e-05 -1.0780307e-05 -8.983842e-06 -8.1981445e-05 -6.747503e-05 -1.1738847e-05 -0.00020059173
7.9102196e-05 -0.00016142757 -0.00019186563 4.5753827e-06 0.00028568032 -2.5887197e-05 0.00021178102 -7.1300594e-05
-5.6563804e-06 -0.00012565895 -3.861196e-05 -0.00016676848 1.5124658e-05 -0.00039103892 7.3689014e-05 -0.00015970894
9.358122e-05 -1.8885501e-05 6.2913714e-05 3.593145e-05 6.6714015e-06 8.910252e-05 -0.00027290487 7.4554464e-06
-0.00036356077 0.0003839224 2.5158857e-05 0.0004910132 -0.00017208865 -0.002013443 0.00025470642 0.00015128055
-8.582072e-06 0.00016461538 -0.00020686185 0.00022918047 0.00014359676 -0.00012336802 -0.00010309943 -8.259269e-05
-7.271294e-05 0.00027816108 -0.0002821509 1.9269812e-05 0.00023470433 0.00013724722 -1.378399e-05 0.00027174517
-1.2867892e-05 7.081974e-05 -0.00020460908 -1.3829637e-05 7.0466153e-06 0.00018601869 9.689936e-05 -5.2453808e-05
-0.00021592883 1.2330054e-05 -0.00019856125 2.0869975e-05 3.128376e-05 -0.00024925993 1.4996654e-05 0.000113943985
-0.00023675291 6.160498e-05 -1.035934e-05 -4.248032e-05 -3.9078615e-05 -0.00026888424 4.5247863e-05 0.00020596007
0.00022605997 0.00016766907 0.00036227977 0.00018438158 0.00018192758 -0.00017911724 -9.3001945e-05 -5.0988536e-05
-2.1055617e-05 -0.000118661206 2.810699e-05 -3.6380632e-05 -1.2331818e-05 0.00020717022 -0.00022321712 -7.144421e-05
0.000104694795 1.5538459e-05 1.7562526e-05 -6.8807334e-05 -5.233137e-05 -1.7962873e-05 0.00037738658 -1.9407842e-07
-0.0001387026 7.544936e-05 4.2355983e-05 -9.911983e-06 -2.0815633e-05 0.00010023938 0.00032432016 -2.1332104e-05
0.00011691446 0.00010809764 8.59053e-06 -5.4149714e-05 2.7308764e-05 -9.515692e-05 2.2259317e-05 -6.0405775e-05
2.2408356e-06 6.958139e-05 4.0889983e-05 -1.1363416e-05 -0.00016462103 0.0002765991 -0.00035973414 5.336997e-05
0.00023968537 -0.00018423166 -4.959524e-05 0.00014320354 -6.139668e-05 0.00012880948 -1.8095172e-05 -1.684663e-05
-0.00019937674 -1.8523686e-05 -1.721839e-05 -2.0489777e-05 -6.868099e-05 1.52299135e-05 2.844262e-06 1.4006759e-05
0.00012864658 0.00012138055 -2.4960056e-05 0.00011553371 -0.00020646525 0.00024590277 -1.1191682e-05 0.00022368213
-3.4943696e-05 -0.0001428561 3.3445787e-05 5.8147933e-05 -0.00035651002 2.8701983e-05 2.2383245e-05 8.682304e-05
-2.277559e-05 -1.5309104e-05 -0.00034670337 -0.00035355476 -0.0002278678 -6.0943792e-05 -1.2139526e-05 9.626212e-05
0.00033711895 -0.00010512044 -0.0001954657 4.4142012e-05 -0.0002234983 -0.00011776597 0.00019462725 0.0001882621
-0.00038580687 -4.2167372e-05 -0.00035782205 1.5945649e-05 -9.64376e-06 9.251773e-05 -1.6802109e-05 -8.1027305e-05
3.2733617e-05 1.3617146e-05 -6.654849e-05 -0.00010536538 -7.758114e-06 3.6734016e-06 0.00012216448 -8.723252e-05
-5.862462e-06 -3.825649e-05 0.00023385907 -8.986587e-05 -2.3123515e-05 -9.113112e-05 7.5306954e-05 0.000111191046
7.709405e-05 -0.00010138605 0.00015419895 0.00012433428 -7.9989586e-05 -7.614025e-06 0.00015567904 4.115124e-05
-3.223192e-05 -0.00015716233 0.0002835055 5.6284738e-05 2.5483478e-05 9.050885e-05 -0.00020491208 3.3383785e-05
-8.599983e-05 1.6369966e-05 -4.1540996e-05 -9.550507e-06 -6.576532e-06 0.00014982036 1.8722843e-05 -9.4066156e-05
6.592238e-05 -4.9412038e-06 -2.2028866e-05 -0.00025623874 -1.8152596e-05 -0.00010544141 0.00012654503 -0.00028380877
-7.0232985e-05 -6.175294e-05 -0.0002349039 -0.00028680783 2.1347114e-05 -0.00013779673 -0.00010617064 0.000106393614

convs.4.weight f4 [16, 16]
00000000: 9867 a9b9 4476 7bb9 8e11 58b7 7d42 903a
00000010: ddbb d037 3f99 e5ba 9adb b0b9 f3d9 b7b7
00000020: aefc a7b5 9bdb d9b8 dbcb 20b9 5361 44b8
00000030: babe 7ab7 3c56 0639 8b27 ecb8 6334 b038
00000040: e899 8bb9 2703 b039 971d d5b8 506d 6eb7
00000050: a69d 1739 967e 4739 1105 c137 dbb1 6ab8
00000060: 9471 70b7 14fc 4239 5266 8db8 e2a1 8fb8
00000070: d24b 8ab7 c662 4c39 2ef1 a6b8 0fe8 7635
00000080: b6a8 17b9 c660 9b38 0bae 9836 08d5 22b9
00000090: a1d0 a0b9 cc85 c4b8 a232 f538 4b36 50b8
000000a0: f042 8bb9 6c3e 64b9 b4e5 ae36 9f26 26b7
000000b0: bc65 8939 b55c bf39 0dd5 8239 3253 29b8
000000c0: 8a48 3139 9881 83b7 228e 2139 dc43 3e3a
000000d0: eb82 2738 7cd5 52bb c2d7 98b8 1bbe 04ba
000000e0: 71b7 e637 d301 eab8 c5b0 8338 88cd cfb7
000000f0: 1efa 9639 d934 98b9 c27f 7cb8 6a24 02b9
00000100: a401 2bb8 39dc ac38 c1d6 0439 cbec 88b9
00000110: c24b e8b8 f48d 53b9 4b09 1639 09c8 4f39
00000120: 8d16 5db7 d8c4 5f39 75cc da37 845b 83b9
00000130: ae04 4c39 aae9 f7b8 a210 1639 604c a8b8
00000140: d91a 3d36 c425 83b5 a111 3a37 55c8 aa39
00000150: 6271 07b8 2a4f 21b9 0f89 8538 cbac 6e38
00000160: 30ef c2b8 be9d b139 7721 f738 81a5 22b8
00000170: 18b3 8938 c87c e239 0e17 c6b6 0bdd 58b8
00000180: ba1a e4b8 c7f7 6ab9 3d5c a736 e17c cc38
00000190: eacf 5239 a70d 1c38 5c73 e038 167b a7b8
000001a0: e770 3038 bc94 5738 43c0 6838 a25a 74b8
000001b0: 9b8e e2b7 6e88 ff37 c7a5 aab8 616d 0b39
000001c0: 8358 c8b8 466a 08b7 d814 ea37 9869 d6b8
000001d0: 7d79 23b6 cb35 16b9 0380 4ab7 2b62 2ab9
000001e0: 0a9b 8fb8 a879 bcb8 02c4 6238 95bd 4137
000001f0: cb37 ceb8 4eb7 dd37 f86a 19b9 8d74 a239
00000200: ba62 01b7 d2ec 7d38 182d 9c38 d07d 4a38
00000210: a97a 7bb8 939f fab8 f372 b8b9 edba c936
00000220: 5dc0 cdb8 dec4 4cb9 95b4 bb39 bc83 0239
00000230: 714d b7b9 3be4 9538 c412 3839 095e d7b7
00000240: a017 f7b7 eee7 cab7 a340 b0b8 5453 0f38
00000250: 4c96 0fb8 1848 bab8 28a6 a7b8 876b 02b9
00000260: 1fdf 92b9 472e 15b9 e4ab be39 af0c cfb8
00000270: 0983 20b9 f28e f6b6 f7ad c3b8 7a20 89b9
00000280: 8751 1c38 aa25 0d38 3be9 e138 d809 8537
00000290: 973e d437 3753 71b9 04f1 aa38 f775 9339
000002a0: 3740 a739 b7a1 c6b9 73fe bbb9 8445 84b9
000002b0: 5105 8d39 1ed7 a1b6 039c 1f38 95ab 2837
000002c0: 41b0 97b8 292a 2e38 a858 5b39 b55b a1b8
000002d0: ca68 1138 0472 60b9 71ab 9cb8 e948 45b9
000002e0: bb39 c839 ab4a 2cb8 f8ac 78b6 fccc aeb9
000002f0: 202e 39b9 de51 2639 c025 0e38 467f 32b6
00000300: b848 cb39 511d 93b8 0d76 41b9 9bfe c3b7
00000310: e14a a5b8 52c7 88b7 5644 58b7 c7b3 7639
00000320: 3ae0 20b9 f04e fab8 a2ac db38 ae10 87b8
00000330: 33fb b4b6 4d30 6f38 15d0 0cb9 a56e 2a38
00000340: 1ee3 a837 31ca e6b8 dd73 cb39 2429 53b8
00000350: d34d 42b7 ba71 b337 72e1 43b7 8d07 8a39
00000360: a7d0 0738 6d28 8ab4 5a36 6038 d4c5 1eb8
00000370: 2b22 1fb9 3948 8bb7 668b ee36 0105 a737
00000380: 6e71 4d37 9be3 6a39 3c07 9a38 cc43 4538
00000390: 32c3 8eb8 7543 8eb9 21a6 c9b8 7315 63b6
000003a0: 3bd9 9637 6817 36b9 9460 cbb5 38dc 17b9
000003b0: 9c24 12b7 258a 4339 555e 7639 b602 5139
000003c0: 4c2b 94b8 c864 8e39 dbe3 9139 142c 7937
000003d0: f8ce 0bb9 639e 9f38 6df7 4ab8 849b afb8
000003e0: 2022 4137 dc6c 8a38 bee0 f5b8 bb79 97b8
000003f0: 13bd f738 9489 96b9 6d9b 1838 9b9e b5b8
-0.00032311375 -0.00023981283 -1.28786905e-05 0.0011006143 2.4883013e-05 -0.0017516984 -0.00033732952 -2.191679e-05
-1.2516009e-06 -0.00010388271 -0.00015334731 -4.682068e-05 -1.4945568e-05 0.0001281136 -0.000112607224 8.402092e-05
-0.00026626815 0.00033571685 -0.00010162143 -1.4211357e-05 0.00014459211 0.00019025276 2.3009752e-05 -5.595559e-05
-1.4331559e-05 0.00018595188 -6.7424626e-05 -6.8489244e-05 -1.6486189e-05 0.00019491752 -7.96042e-05 9.197983e-07
-0.00014463332 7.4090014e-05 4.5502143e-06 -0.00015528884 -0.0003067302 -9.37093e-05 0.000116919415 -4.964163e-05
-0.00026562018 -0.00021767028 5.212345e-06 -9.903363e-06 0.00026206474 0.0003649943 0.00024954267 -4.037022e-05
0.00016907058 -1.5676764e-05 0.00015407105 0.00072580366 3.993783e-05 -0.0032170704 -7.288113e-05 -0.00050637283
2.7503558e-05 -0.00011158329 6.279493e-05 -2.477203e-05 0.0002879658 -0.00029031074 -6.0200466e-05 -0.00012411331
-4.0771105e-05 8.242619e-05 0.00012668503 -0.00026116366 -0.00011076733 -0.0002017541 0.00014308577 0.00019815577
-1.3177877e-05 0.00021340267 2.6082833e-05 -0.00025054452 0.000194567 -0.00011821401 0.00014311311 -8.02509e-05
2.8178822e-06 -9.771252e-07 1.10905685e-05 0.00032574186 -3.2292104e-05 -0.00015383647 6.367463e-05 5.6904548e-05
-9.295193e-05 0.00033877598 0.00011784111 -3.8777947e-05 6.566028e-05 0.00043199048 -5.9035438e-06 -5.1704275e-05
-0.000108768654 -0.00022408283 4.987726e-06 9.7507385e-05 0.00020104615 3.7206013e-05 0.0001070264 -7.986107e-05
4.206682e-05 5.1398514e-05 5.5492168e-05 -5.825854e-05 -2.7007705e-05 3.0461899e-05 -8.13711e-05 0.0001329682
-9.55323e-05 -8.130975e-06 2.790468e-05 -0.000102239836 -2.4359608e-06 -0.00014325154 -1.2069943e-05 -0.00016249034
-6.84765e-05 -8.987199e-05 5.4065145e-05 1.1547837e-05 -9.833238e-05 2.643061e-05 -0.00014631066 0.00030985885
-7.711986e-06 6.0540457e-05 7.447059e-05 4.8277725e-05 -5.99573e-05 -0.00011950652 -0.0003518086 6.012028e-06
-9.810992e-05 -0.00019528295 0.00035801964 0.00012446841 -0.00034962178 7.147385e-05 0.00017554598 -2.5673786e-05
-2.9455696e-05 -2.4188277e-05 -8.4043735e-05 3.4171462e-05 -3.423383e-05 -8.8826e-05 -7.9941296e-05 -0.00012437823
-0.00028013528 -0.00014226987 0.00036367693 -9.872892e-05 -0.00015307603 -7.3480123e-06 -9.330728e-05 -0.00026154873
3.7269227e-05 3.3652097e-05 0.000107722786 1.585942e-05 2.5301515e-05 -0.00023014551 8.151124e-05 0.00028125916
0.00031900566 -0.0003788599 -0.00035857 -0.00025228795 0.00026897577 -4.823217e-06 3.805385e-05 1.005353e-05
-7.233071e-05 4.1524097e-05 0.00020918495 -7.69416e-05 3.4668286e-05 -0.00021404779 -7.470593e-05 -0.00018814545
0.00038189985 -4.1077536e-05 -3.705556e-06 -0.00033340591 -0.00017660158 0.00015861492 3.3890596e-05 -2.659815e-06
0.00038773357 -7.014967e-05 -0.00018449892 -2.3364371e-05 -7.8817604e-05 -1.630528e-05 -1.2890514e-05 0.0002352736
-0.0001534232 -0.00011935632 0.00010474889 -6.4404085e-05 -5.3936615e-06 5.7027024e-05 -0.00013428957 4.0634204e-05
2.013292e-05 -0.00011004916 0.00038805502 -5.0344635e-05 -1.1581421e-05 2.139142e-05 -1.1675396e-05 0.00026327037
3.238083e-05 -2.5733917e-07 5.345638e-05 -3.7854377e-05 -0.0001517615 -1.6603723e-05 7.109181e-06 1.9910281e-05
1.2245362e-05 0.00022400769 7.34464e-05 4.70316e-05 -6.8074456e-05 -0.0002713461 -9.615371e-05 -3.383812e-06
1.798255e-05 -0.00017365592 -1.5152787e-06 -0.0001448252 -8.710802e-06 0.00018648112 0.0002349553 0.00019932803
-7.0652546e-05 0.00027159438 0.0002782632 1.4851819e-05 -0.00013333175 7.611213e-05 -4.8390986e-05 -8.373617e-05
1.1511642e-05 6.6006294e-05 -0.00011724372 -7.222915e-05 0.000118130956 -0.00028712733 3.6384376e-05 -8.660295e-05

convs.5.weight f4 [16, 16]
00000000: fa3c d6b9 e0e9 3eb8 5412 75b9 0b75 a73a
00000010: ead5 a4b9 6155 90ba 0387 b4b9 9dc2 3c38
00000020: 960c c8b6 b9fd dcb8 1308 ae38 0172 1eb9
00000030: 0e9f 3738 91f2 28b9 b440 af37 263c 5839
00000040: f36a 2038 ab93 90b9 daea 1035 f2ac 87b9
00000050: 5dcc 36b6 78c5 13b8 3354 e738 2ca9 4bb7
00000060: 31cd 3e39 623a 89b9 c56c 81b9 8954 f137
00000070: 7978 88b8 b684 93b8 3a7c 8bb8 e3b7 acb7
00000080: 6029 8ab7 fd6d 5837 fbba f837 c5cf 07b9
00000090: 2c6f 8936 46e4 1539 86e4 cab9 031d c0b6
000000a0: ed86 3d39 c07b 2c39 82a4 5639 70e8 0e39
000000b0: de61 1ab9 9fc5 3c38 fff1 e1b8 ef78 f938
000000c0: 4f4b 82b9 db5f a337 998c c0b9 45e0 9aba
000000d0: a7f0 1838 28fd 8aba fe42 bab9 8cfa 64b8
000000e0: 27df 17b7 4e1c 1139 59b8 e838 6d7a db38
000000f0: 9c54 0cb9 f9dd 5039 3f42 46b7 8293 9938
00000100: 0dce 13b9 8bc7 8c39 abe5 1ab8 5760 d937
00000110: 6199 91b8 0116 00b8 ce41 e638 9878 1339
00000120: 423b 4ab9 770d 4a39 acde 9038 5eef c937
00000130: 24f1 b938 b343 f838 3e78 0139 a9d0 3137
00000140: c7d2 8139 791d fd36 bb0e 5138 56d3 e839
00000150: 3156 d5b7 3ca8 abb8 f32c 7a39 a5bc 70b9
00000160: 8519 2539 24eb 0739 671f 2139 7eac f6b7
00000170: c77a aab8 2ba1 d338 a0c1 5c38 fe4b cdb8
00000180: ce22 a0b8 6e8d 4bb9 21b0 c739 ff59 b637
00000190: 0e3d 9339 3740 9e38 326b 5739 bd43 f4b8
000001a0: 267b 0638 5dcb 3db8 e8cc 66b8 b4ef 8a37
000001b0: 46f5 1238 e1d4 c6b7 96ee 5539 cb5c 4a39
000001c0: edec b839 5d19 71b7 8c7b fab7 b147 7238
000001d0: 1d23 2fb8 634e a538 929f 8039 89f2 40b9
000001e0: 7d7a f737 cf87 a037 ef60 2a39 5aa9 b238
000001f0: 8e11 8239 9d1a ad38 91e3 81b8 0ecb 9438
00000200: 2359 9439 76ae e438 df94 f9b8 dbf0 9bb6
00000210: 7455 aa38 5705 03b8 f4a1 95b8 223c 9f38
00000220: e560 1338 a760 e7b8 e9bd c4b8 370c f037
00000230: 02bf 25b7 afc8 ca39 b05b 2d38 20b9 beb9
00000240: 0f36 9a38 833b 4e39 5315 12b9 8d4f a038
00000250: 09fa 23b9 9e67 2e38 39bf 08b6 48a1 51b9
00000260: ca34 6037 ce2f 21b8 c9ad 93b7 834d 8137
00000270: 6941 25b9 6c96 83b9 5f5c a5b9 a9e0 05b9
00000280: 72e0 6739 c24b 9ab7 8b96 3637 3896 31b9
00000290: e12c 5538 52c3 8e39 ae60 19b7 96b8 88b8
000002a0: 390c b0b8 ec75 bdb8 1e3d fab8 5521 c7b8
000002b0: cdc5 8ab9 235c bb37 ef81 9d38 c252 c5b9
000002c0: da75 33b7 a2c1 4ab9 8e81 a339 2b30 f238
000002d0: d60e 0fb8 0718 e338 6216 5039 a925 bc38
000002e0: 7335 4438 2f7b 81b8 ea82 8339 5264 68b8
000002f0: 0712 8839 67f7 2338 7c5a b138 a87d 74b7
00000300: fb2b 19b9 943e dcb8 b146 cdb7 118d 05b9
00000310: 74e8 92b7 3bf7 57b8 deda 4038 5802 5838
00000320: c6ee 8cb7 af3e 5bb9 2ac4 ae37 8e88 c538
00000330: 1027 3337 0422 5539 541e 89b8 7b97 64b9
00000340: 3f29 43b8 6604 2bb8 cb43 6638 88f3 9239
00000350: 5e2f 90b8 6425 a638 cbe6 7eb8 fda6 31b8
00000360: 52e4 4fb8 7839 82b7 c637 a437 c0c2 99b7
00000370: 6eee 0439 a607 45b9 be1c 4f38 b0b4 5b35
00000380: 0eb4 8138 29a6 6538 e133 65b9 eb02 3239
00000390: 8b07 4ab6 805b 7bb9 cba5 1239 d168 e638
000003a0: ccfa 63b9 f68e 80b9 a6b0 0f39 3b0e 83b8
000003b0: a737 64b9 6bf2 8237 fad5 c939 d347 96b8
000003c0: a08d 80b9 1725 2bb7 9533 0137 73bc 95b8
000003d0: 62a4 b1b8 b561 9b35 8038 6db9 d2bf 08b7
000003e0: c5d0 1738 1e63 5cb7 5df9 b039 0731 9536
000003f0: b82f 8237 5b77 1d39 2b84 5ab9 07aa 7538
-0.00040862692 -4.5517343e-05 -0.00023371849 0.001277597 -0.00031439896 -0.0011011773 -0.00034432867 4.500394e-05
-5.9619297e-06 -0.00010537677 8.2984705e-05 -0.00015110524 4.377873e-05 -0.00016112092 2.0891755e-05 0.00020621772
3.8246577e-05 -0.00027575842 5.3985934e-07 -0.0002587806 -2.7239068e-06 -3.523144e-05 0.00011030622 -1.2139131e-05
0.00018196252 -0.00026174175 -0.00024685837 2.8768804e-05 -6.507425e-05 -7.0342256e-05 -6.6511755e-05 -2.0589627e-05
-1.6470149e-05 1.2900212e-05 2.9650973e-05 -0.00012952003 4.0958603e-06 0.00014294786 -0.00038698706 -5.7254233e-06
0.00018074708 0.00016449299 0.00020469914 0.00013628765 -0.00014723043 4.5006742e-05 -0.00010773911 0.00011895771
-0.00024851642 1.947575e-05 -0.00036725847 -0.0011816105 3.646375e-05 -0.0010604011 -0.00035526598 -5.4592776e-05
-9.052258e-06 0.00013838822 0.000110969595 0.00010465537 -0.0001338296 0.00019919117 -1.1817144e-05 7.323084e-05
-0.00014095772 0.00026851552 -3.6930356e-05 2.5913278e-05 -6.942708e-05 -3.053807e-05 0.00010979512 0.00014063937
-0.00019286296 0.00019269237 6.907931e-05 2.4072531e-05 8.8664034e-05 0.000118381715 0.00012347192 1.0598605e-05
0.0002476184 7.5434186e-06 4.9843202e-05 0.00044407946 -2.5431715e-05 -8.1852515e-05 0.00023858603 -0.00022958459
0.00015745133 0.000129622 0.00015365855 -2.9405808e-05 -8.129101e-05 0.00010091284 5.2632415e-05 -9.7893164e-05
-7.6358774e-05 -0.00019412275 0.00038087464 2.1737998e-05 0.00028083514 7.545988e-05 0.00020543931 -0.00011647444
3.206278e-05 -4.525051e-05 -5.5027107e-05 1.6562502e-05 3.503754e-05 -2.3702569e-05 0.00020402143 0.00019298789
0.00035271738 -1.4370625e-05 -2.9859853e-05 5.7764064e-05 -4.1755953e-05 7.882414e-05 0.00024532952 -0.00018400898
2.9501733e-05 1.9136727e-05 0.00016248574 8.5192456e-05 0.00024808611 8.25424e-05 -6.193587e-05 7.095012e-05
0.00028295172 0.00010904383 -0.00011900975 -4.6473992e-06 8.1221486e-05 -3.1237807e-05 -7.13504e-05 7.5929114e-05
3.513777e-05 -0.00011032941 -9.381382e-05 2.8615917e-05 -9.879239e-06 0.00038677963 4.1331805e-05 -0.00036377553
7.3533614e-05 0.00019667861 -0.00013931589 7.644212e-05 -0.00015638037 4.1581334e-05 -2.0376885e-06 -0.00019991875
1.3363731e-05 -3.8429913e-05 -1.760469e-05 1.5414093e-05 -0.00015759993 -0.0002509834 -0.00031540074 -0.00012767561
0.00022113489 -1.8393508e-05 1.0883096e-05 -0.00016935996 5.0824954e-05 0.00027229876 -9.142021e-06 -6.519367e-05
-8.3946106e-05 -9.034187e-05 -0.00011932313 -9.495268e-05 -0.00026468784 2.2335042e-05 7.5105454e-05 -0.00037636427
-1.0696671e-05 -0.00019336355 0.00031186308 0.00011548431 -3.4107674e-05 0.00010828679 0.00019844764 8.971553e-05
4.677982e-05 -6.174144e-05 0.00025083806 -5.540654e-05 0.00025953373 3.909264e-05 8.456872e-05 -1.457279e-05
-0.00014607601 -0.000105020736 -2.4470823e-05 -0.0001273642 -1.75128e-05 -5.1490246e-05 4.5980203e-05 5.1500596e-05
-1.6800488e-05 -0.00020908819 2.0833762e-05 9.419127e-05 1.0678326e-05 0.00020325935 -6.538318e-05 -0.00021800205
-4.6530036e-05 -4.0773673e-05 5.489941e-05 0.00028028735 -6.875278e-05 7.9224614e-05 -6.077326e-05 -4.235561e-05
-4.9565286e-05 -1.5523969e-05 1.9576295e-05 -1.8329709e-05 0.00012677323 -0.00018790233 4.9379414e-05 8.184679e-07
6.184737e-05 5.4752603e-05 -0.00021858468 0.0001697649 -3.0104736e-06 -0.00023971312 0.00013985408 0.00010986778
-0.00021741836 -0.00024520577 0.0001370335 -6.2492174e-05 -0.00021764507 1.5610092e-05 0.00038497132 -7.165936e-05
-0.0002451958 -1.020103e-05 7.701009e-06 -7.139975e-05 -8.4706364e-05 1.1576836e-06 -0.00022623129 -8.150893e-06
3.6195637e-05 -1.3136099e-05 0.00033755126 4.4462536e-06 1.5519428e-05 0.0001501715 -0.00020839337 5.8570902e-05

convs.6.weight f4 [16, 16]
00000000: b818 0339 1032 dfb8 7e0b b6b8 d9d6 acb9
00000010: df0b 9a38 2f67 9aba 2ee4 ffb9 c5aa 28b6
00000020: e5aa 3c37 c102 8ab9 0699 b3b8 c912 0338
00000030: e1d8 94b9 5baa 28b9 0d38 a038 c931 7fb8
00000040: c3fb e438 e0c9 9e38 16be a039 0116 b5b5
00000050: 5f8c 84b8 a54e cfb9 8db2 afb9 248e ca36
00000060: 93bd 03b7 47b4 5eb9 9654 9738 a106 2238
00000070: 5310 0539 493f 5937 5171 6538 7e95 87b8
00000080: 7065 e438 d9ea c638 6be2 c438 9854 6037
00000090: 31b5 d234 5143 1f37 352c eeb6 272e 4c38
000000a0: 61af 71b5 e098 1fb8 90b7 7fb8 d4ea a3b8
000000b0: c3ff 2d39 b415 15b9 025d 08b9 0f49 6bb7
000000c0: 5ce0 3039 85a1 2236 c879 3439 6216 1fbb
000000d0: 7d45 7139 0572 a0ba 7d7c 7c39 1658 89b8
000000e0: 3941 18b8 0e6d 8539 cfad e4b8 cbfc 20b6
000000f0: 7ace 03b9 5055 fc39 1795 6b38 8171 9d39
00000100: 186c 21b8 3626 1638 bbc0 d0b7 9b6a 27b7
00000110: a35b 5039 041a 2939 fcf5 5939 8167 27b7
00000120: dda7 e837 601e 83b8 9161 4c39 4535 9838
00000130: 715a 92b7 754d 9f37 ebd0 2838 b564 a8b9
00000140: 766b 86b7 d528 3cb8 455b 98b8 199b fe39
00000150: 8ae1 c9b9 4b7d 4a38 39dd 7e38 12f6 78b8
00000160: 5600 4e39 dcef 92b7 9614 64b9 e83c 1438
00000170: caf2 cc38 5420 fdb8 74d3 4ab9 a416 5539
00000180: 26b0 9039 f8d6 5036 4ada 28b9 bf11 9fb9
00000190: 3ef0 6538 6cf3 0a39 fc1e 53b7 083c e638
000001a0: 43de 4f39 69af 4338 573c 8938 247a ca38
000001b0: e1cc 3837 3ea3 2337 4767 d138 c9ec bdb9
000001c0: 62be 8538 dd5b 4ab8 6ea3 e937 8d83 bdb8
000001d0: 4faa 5ab9 ac8d 8639 ad4a 21b9 a9c8 81b9
000001e0: 67cd e636 c9bf cbb9 f850 38b9 7a09 e537
000001f0: 0ad0 aa38 9bdc adb8 1c40 64b9 1139 bdb8
00000200: 6b52 7bb8 ac34 cf38 7fad 9738 1112 ca39
00000210: 602d a537 47a1 2d36 9d76 afb8 e593 9638
00000220: a2b4 85b5 f970 6ab9 7a16 86b9 9f29 5937
00000230: 5924 e9b6 2c91 96b8 5842 7f39 41c7 8f37
00000240: 7b17 7437 aa0e 8fb8 8781 a939 c5ad c639
00000250: 2c31 a636 af72 67b9 e170 c037 81df aab8
00000260: 9efe 6bb8 751e cd36 38e3 38b9 d918 0439
00000270: 717f df37 cd48 4ab8 b689 26b7 1422 9639
00000280: b2e3 7e38 d16b 96b8 508b 97b7 8074 b337
00000290: e276 8139 aceb 17b8 d299 9db8 2250 2d39
000002a0: 09f1 64b9 d501 eeb8 ae77 9239 f56c a738
000002b0: c994 59b8 e592 b639 9e30 c5b8 e6d2 abb8
000002c0: 14cc 1d37 a6dc e1b8 fa58 ab37 1ed2 3e39
000002d0: 02e0 4137 2cd3 9137 4d31 39b9 f09b 5ab8
000002e0: a016 dc38 7515 c2b5 f83b 75b5 eb95 17b9
000002f0: c07d a0b8 2fc2 2eb9 5626 6fb9 29dc 1239
00000300: 7c7b 3d38 019e c038 84d8 2639 0ad9 d138
00000310: c3be 39b9 1a9c 7ab7 0e1e 8d38 55e3 d4b7
00000320: bb5d 5ab7 1e38 87b8 1fb5 7f38 b223 83b9
00000330: e72f 0b39 ae4e 62b8 1a67 02b9 bd5b 29b9
00000340: 0e47 9f39 625c aa37 94aa 2e37 f423 a6b8
00000350: 0d16 b638 e17b 19b7 de88 39b8 0223 8fb8
00000360: 74d0 a337 9316 4f37 3310 97b8 ddd4 9838
00000370: 3325 a438 0286 17b8 c2ff 5db9 0615 b1b8
00000380: 461c 8a38 a5fa 5238 f501 b038 d9b6 aab7
00000390: 625f 3ab7 b8c3 05b8 195c dab8 b439 f638
000003a0: ccdf 95b9 2509 96b9 58ee 94b8 5bbe 5d37
000003b0: 275a 9fb9 8ed5 7338 e1fd 40b8 6cd8 3d39
000003c0: a190 0539 fc66 3a39 3f94 8ab6 9e5a c3b9
000003d0: be92 9239 1999 a4b6 8e68 6db8 e629 3238
000003e0: ca1b 3438 a6a6 8db8 b9e2 3db9 2df7 3ab9
000003f0: d2f9 0338 7735 cab9 9f25 eab8 d4ff a437
0.00012502342 -0.000106427935 -8.680577e-05 -0.0003296647 7.3455034e-05 -0.0011780019 -0.00048807397 -2.5133352e-06
1.1245463e-05 -0.00026323463 -8.563888e-05 3.125033e-05 -0.00028390347 -0.00016085191 7.639835e-05 -6.0843104e-05
0.000109187815 7.571629e-05 0.00030659203 -1.3491955e-06 -6.320397e-05 -0.0003954071 -0.00033511632 6.0366165e-06
-7.852347e-06 -0.00021238728 7.2159964e-05 3.8629983e-05 0.0001268995 1.2948943e-05 5.470339e-05 -6.465147e-05
0.000108907814 9.4851195e-05 9.388182e-05 1.3371136e-05 3.9247382e-07 9.492812e-06 -7.098099e-06 4.8680373e-05
-9.0034706e-07 -3.805093e-05 -6.0967694e-05 -7.816186e-05 0.00016593844 -0.00014217832 -0.00013004619 -1.4024102e-05
0.00016868248 2.4233898e-06 0.00017211505 -0.0024274816 0.00023009437 -0.0012241012 0.00024078968 -6.549076e-05
-3.6300367e-05 0.0002544899 -0.000109042616 -2.3989003e-06 -0.00012570052 0.00048128748 5.6167217e-05 0.0003002994
-3.848606e-05 3.5798374e-05 -2.488528e-05 -9.978797e-06 0.00019870563 0.00016126788 0.00020786369 -9.978075e-06
2.7734723e-05 -6.2522246e-05 0.00019491302 7.257847e-05 -1.7446671e-05 1.8990346e-05 4.024889e-05 -0.0003211849
-1.6024085e-05 -4.486072e-05 -7.264925e-05 0.00048562212 -0.00038505747 4.827724e-05 6.076435e-05 -5.935698e-05
0.00019645816 -1.751625e-05 -0.00021751443 3.5342673e-05 9.772701e-05 -0.00012070002 -0.00019342994 0.00020321697
0.0002759706 3.1119544e-06 -0.00016103048 -0.00030340065 5.4821598e-05 0.00013251387 -1.2583794e-05 0.00010978436
0.00019823857 4.6654986e-05 6.543908e-05 9.654861e-05 1.1014957e-05 9.753565e-06 9.9851335e-05 -0.00036225308
6.377396e-05 -4.8246107e-05 2.7851867e-05 -9.0367255e-05 -0.00020853545 0.00025664025 -0.00015381975 -0.000247543
6.878446e-06 -0.00038862068 -0.0001757777 2.730334e-05 8.144982e-05 -8.290374e-05 -0.00021767657 -9.022852e-05
-5.991982e-05 9.88034e-05 7.232557e-05 0.00038541903 1.9690662e-05 2.5872885e-06 -8.366744e-05 7.180105e-05
-9.961843e-07 -0.00022358065 -0.00025575218 1.2943899e-05 -6.9481725e-06 -7.179598e-05 0.0002434341 1.7139713e-05
1.4549e-05 -6.821503e-05 0.00032330697 0.0003789497 4.95291e-06 -0.000220726 2.2940747e-05 -8.1478625e-05
-5.6265497e-05 6.1130218e-06 -0.00017632253 0.00012597757 2.6643016e-05 -4.8228354e-05 -9.926434e-06 0.0002863562
6.0770377e-05 -7.17264e-05 -1.8065475e-05 2.1392712e-05 0.00024693372 -3.6220692e-05 -7.514995e-05 0.00016528417
-0.00021833567 -0.000113490656 0.00027936458 7.9834754e-05 -5.18754e-05 0.0003482319 -9.402748e-05 -8.193198e-05
9.405445e-06 -0.00010769935 2.0426221e-05 0.00018198087 1.1555852e-05 1.7383682e-05 -0.00017661341 -5.212048e-05
0.00010494632 -1.4460371e-06 -9.135688e-07 -0.00014456331 -7.652817e-05 -0.00016666272 -0.00022807097 0.00014005661
4.5176115e-05 9.184704e-05 0.00015911652 0.00010006323 -0.00017714039 -1.4937506e-05 6.729002e-05 -2.537823e-05
-1.3015636e-05 -6.447754e-05 6.096542e-05 -0.00025012862 0.00013273918 -5.3955875e-05 -0.00012436174 -0.00016151271
0.00030379783 2.0308598e-05 1.0410924e-05 -7.9221936e-05 8.6825436e-05 -9.1483535e-06 -4.4234905e-05 -6.825292e-05
1.9528183e-05 1.2343417e-05 -7.2032584e-05 7.287574e-05 7.827058e-05 -3.612601e-05 -0.0002117148 -8.4439336e-05
6.585619e-05 5.0301333e-05 8.3926985e-05 -2.0350724e-05 -1.1108672e-05 -3.189195e-05 -0.000104122046 0.00011740942
-0.00028586236 -0.00028617043 -7.101585e-05 1.3216947e-05 -0.00030394012 5.8134603e-05 -4.601281e-05 0.00018105068
0.00012737747 0.00017776707 -4.1299786e-06 -0.00037260813 0.00027956621 -4.905404e-06 -5.6602577e-05 4.2477528e-05
4.2941225e-05 -6.7544446e-05 -0.00018108905 -0.00017830422 3.1465497e-05 -0.00038568277 -0.00011164997 1.9669453e-05
