Comparisons/GCNII-master/pretrained/6b8bc7c77d644b4caf4022646fd8fad1.pt (torch_old, 289636 bytes, 68 tensors)

convs.0.weight f4 [32, 32]
0	0xbc0eb286	-0.0087095555
1	0xbbbdebcc	-0.0057959314
2	0xb999897c	-0.00029284868
3	0xb9f49544	-0.00046650518
4	0xb98a9c8b	-0.00026438045
5	0x38e4889c	0.00010897333
6	0x3c0098bd	0.007848916
7	0xbc3527f9	-0.0110568935
8	0xbb3d5a61	-0.0028892981
9	0x3c1e901d	0.009677914
10	0xbb6fa8df	-0.003656916
11	0x38da56da	0.000104112274
12	0xbc1c1204	-0.00952578
13	0x380cd195	3.357379e-05
14	0xbbfa7c84	-0.007644238
15	0xb8dc6caf	-0.000105106614
16	0xbc09d8ca	-0.008413503
17	0xb8b9406e	-8.8334884e-05
18	0x3be1bb4a	0.0068887817
19	0x399ed090	0.000302915
20	0x3bd764fe	0.0065733185
21	0x372fbec1	1.0475226e-05
22	0x3b6c3eb0	0.0036048107
23	0xbc369999	-0.011145019
24	0x3bfbb593	0.0076815574
25	0x3bd7ae5b	0.006582064
26	0xb9174bbd	-0.00014428697
27	0x3c377e3e	0.011199532
28	0xb7437d6c	-1.1652108e-05
29	0xbba01224	-0.004884975
30	0xbac71d86	-0.0015191294
31	0x3b9b81a9	0.0047456813
32	0xbc08aa31	-0.008341358
33	0x3810f22b	3.4557812e-05
34	0x39e29736	0.0004321874
35	0xbc399ab4	-0.011328388
36	0x36df532e	6.6556013e-06
37	0xbbe105f7	-0.006867166
38	0xb5b00b36	-1.3116285e-06
39	0x39845caa	0.00025246042
40	0x3969586a	0.00022253548
41	0xb9632f60	-0.00021666056
42	0xbb8fc8b9	-0.0043879417
43	0xbb0fc630	-0.0021938197
44	0xbc32bd06	-0.0109093245
45	0x3bae0110	0.0053101853
46	0xbc3263b3	-0.010888028
47	0x39cd1e97	0.00039123438
48	0xbc0f700c	-0.008754741
49	0x3c398450	0.01132305
50	0xbba632fb	-0.0050719953
51	0x3b281d70	0.0025652312
52	0x3c0c4101	0.00856042
53	0xbbcca52a	-0.006245275
54	0x38d2cf84	0.00010052233
55	0xbb84a6a0	-0.0040481836
56	0xb98456bd	-0.00025241627
57	0x3809bd1b	3.2839464e-05
58	0xbc024fed	-0.007953626
59	0x3c28a626	0.010293519
60	0x36c7f6de	5.9594013e-06
61	0x3c322dbc	0.010875162
62	0xb907abc8	-0.00012938597
63	0x3a61e806	0.0008617643
64	0xbb2a031a	-0.002594179
65	0xb902de4b	-0.00012480577
66	0xbbbcf8a8	-0.005766947
67	0x3c3841d9	0.011246168
68	0x3c376337	0.011193088
69	0x3c36d6da	0.011159623
70	0xbaea92a5	-0.0017896487
71	0xba2909dc	-0.00064483075
72	0x3b3eecbb	0.0029132802
73	0x3bc62716	0.00604714
74	0xbbac5ba2	-0.005259947
75	0x3c034f64	0.008014534
76	0x3c350bb7	0.011050156
77	0xbb75f178	-0.003752796
78	0xbaa90c69	-0.0012897375
79	0xbbbb887b	-0.005723057
80	0x3c156eb4	0.009120632
81	0x3c2ff586	0.01073969
82	0xbc1cccd4	-0.009570319
83	0x3b529dbd	0.0032137476
84	0xbc388739	-0.011262708
85	0xb9d1d510	-0.0004002233
86	0xbc308566	-0.010773992
87	0x3c051093	0.008121627
88	0x3c0d3bf5	0.008620252
89	0xb74c51a2	-1.2178354e-05
90	0x39749994	0.00023326866
91	0xb85912f9	-5.17545e-05
92	0xbc369bce	-0.011145545
93	0xbc32cca2	-0.010913046
94	0x3c21f3d5	0.009884794
95	0x3c265290	0.01015152
96	0xba319101	-0.00067736214
97	0x3a2a059d	0.0006485822
98	0x3aa30d85	0.0012439942
99	0xbb5307f3	-0.0032200783
100	0x3c313e41	0.010818065
101	0x39520db3	0.00020032264
102	0xb88850c6	-6.5000306e-05
103	0x3c236dfa	0.009974951
104	0xb9c3ef32	-0.00037371513
105	0x3c320306	0.010864979
106	0x3b9cd924	0.0047866274
107	0x3c28daa4	0.010306034
108	0x3b56d209	0.0032779
109	0x3c393635	0.011304428
110	0x3bc2f246	0.0059492914
111	0x3a313508	0.00067599164
112	0xb8e7e8ef	-0.000110583256
113	0xba44e278	-0.0007510553
114	0x3c37cc1b	0.011218096
115	0xb9b5e83e	-0.00034696044
116	0x38bb354f	8.926784e-05
117	0x3b4b2697	0.0030998343
118	0x3ba1bdef	0.004935972
119	0x3c35af7e	0.011089204
120	0x37cfa8ed	2.4754985e-05
121	0x3afe2fc7	0.0019392901
122	0x37a2cb3e	1.9406547e-05
123	0x3c336084	0.010948304
124	0x3c3193ff	0.010838508
125	0x3c3434ca	0.010998914
126	0x3a58bfa0	0.00082683004
127	0x3bfe6257	0.007763188
128	0xbbafca9a	-0.005364728
129	0xb93a45f1	-0.00017764397
130	0xbb8842bb	-0.0041583455
131	0xb948e329	-0.0001915811
132	0x3ba162b5	0.004925097
133	0xbc2f5691	-0.010701791
134	0xb947418b	-0.00019002536
135	0x3b20ea42	0.002455369
136	0x3bbddea7	0.0057943645
137	0xbbb23ec0	-0.0054396093
138	0x390688fa	0.00012830264
139	0xb98dc39c	-0.00027039356
140	0xbb351605	-0.0027631533
141	0x3bccaed1	0.0062464257
142	0xbc1a281d	-0.009408978
143	0x3c1df76c	0.0096415095
144	0xb8340cbb	-4.29272e-05
145	0x396fe9e2	0.00022879944
146	0xbc14f1a8	-0.009090818
147	0xbbe15620	-0.006876722
148	0xba815ddb	-0.000986989
149	0x3bf6b13b	0.0075284517
150	0x39940343	0.0002823119
151	0x3ba0cab3	0.004906976
152	0x32c2fc56	2.2699322e-08
153	0x3c16e7c0	0.009210527
154	0xba82f729	-0.0009991872
155	0x3c1e4907	0.009660966
156	0xbc1fc164	-0.009750698
157	0xba9523fe	-0.0011378524
158	0xb9df3342	-0.00042572065
159	0x3c231853	0.00995453
160	0xba8e8d32	-0.001087582
161	0x39961329	0.00028624505
162	0x36779dd4	3.6897736e-06
163	0x3b400061	0.00292971
164	0xbb8de7fa	-0.0043306323
165	0xb83a1b2c	-4.437116e-05
166	0x3bd2ff86	0.006439152
167	0xbb8ad333	-0.0042366027
168	0x39912574	0.0002768446
169	0x3c294414	0.0103311725
170	0x3c0e3e03	0.008681777
171	0xb8d52075	-0.00010162677
172	0xbc2bca3a	-0.010485226
173	0xb9afe685	-0.00033550352
174	0x3c3026a0	0.010751396
175	0x3a1e47a8	0.00060378993
176	0x3c17aadb	0.009257044
177	0xbaae0717	-0.001327726
178	0xbc07daeb	-0.00829194
179	0xba9ec09a	-0.0012111843
180	0x399adc36	0.0002953724
181	0xbc146b3a	-0.009058768
182	0x38ac5200	8.216873e-05
183	0x3aa5a1ba	0.0012636699
184	0xbc1884df	-0.009309023
185	0xbc1ab384	-0.009442214
186	0xbb03355a	-0.0020020814
187	0x388aedf4	6.624675e-05
188	0xb97b43d0	-0.00023962487
189	0xb1d65105	-6.2374306e-09
190	0xb88030bd	-6.112594e-05
191	0xb8814ca2	-6.165473e-05
192	0xbc36866d	-0.011140448
193	0xbb8abf73	-0.0042342483
194	0xb8d580cb	-0.00010180621
195	0xba1955b7	-0.00058492593
196	0x3724f7e6	9.83288e-06
197	0xb8858f95	-6.3686784e-05
198	0x39b5dd7b	0.00034688026
199	0x392a42ae	0.00016237303
200	0x3aa74866	0.0012762665
201	0x3ae26fcd	0.0017275751
202	0xbbaac23c	-0.005211143
203	0xbb311cee	-0.00270253
204	0xb84fa76a	-4.9508562e-05
205	0x3c37b9d9	0.011213743
206	0x3c39352d	0.011304182
207	0x3b11d801	0.0022253993
208	0x39f21f5d	0.00046181204
209	0xbaa3aefe	-0.0012488065
210	0xbc3992bf	-0.011326491
211	0xbbdd2de0	-0.0067498535
212	0x3b34f4ee	0.002761181
213	0x3c3de425	0.011590038
214	0xb6daebad	-6.5243426e-06
215	0x3b512dc5	0.003191815
216	0x38a81968	8.0155965e-05
217	0xb9427d8a	-0.00018548049
218	0xbb834b59	-0.004006785
219	0x3b1c20a1	0.002382316
220	0x3c3929b1	0.011301444
221	0xbc203584	-0.009778384
222	0x3bcbe611	0.0062224944
223	0xba13763d	-0.0005625224
224	0xbba79a68	-0.005114842
225	0xbc35bf92	-0.011093037
226	0xbc112040	-0.008857787
227	0xbad04a3f	-0.0015891268
228	0x3c2dd3f9	0.01060962
229	0xbb9e69a2	-0.0048343698
230	0x3bd92579	0.0066267815
231	0xbc181868	-0.009283163
232	0xbbf3b15d	-0.007436915
233	0xbba9ef4f	-0.0051859985
234	0xbc1b0e9a	-0.0094639305
235	0x39a4dc39	0.00031444596
236	0xb82a48c3	-4.0598923e-05
237	0x3c0d9c11	0.008643166
238	0x3b8f7147	0.0043775174
239	0xb9e44ed2	-0.00043546275
240	0xbb760ab0	-0.0037542991
241	0x3c053c59	0.008132064
242	0xb91fdbcf	-0.00015245307
243	0x3c30bcce	0.010787202
244	0xb8cdef6c	-9.8197575e-05
245	0x3c2f4be8	0.01069925
246	0x3c387860	0.011259168
247	0xba7a3262	-0.0009544251
248	0x39206f71	0.00015300304
249	0xbc397f8c	-0.011321913
250	0x39b37937	0.00034231853
251	0x3c1df8aa	0.009641806
252	0xb84bbe60	-4.8576272e-05
253	0x3bfe1c0b	0.007754808
254	0x38ba15e1	8.8732464e-05
255	0xbada50c7	-0.0016656154

convs.1.weight f4 [32, 32]
0	0xbc2b750d	-0.010464919
1	0xb82c8761	-4.1134077e-05
2	0xbb9696a1	-0.004595593
3	0x3c3503b1	0.011048243
4	0x36876e0c	4.0361247e-06
5	0x3c384d14	0.011248846
6	0xbc0a04cf	-0.008423998
7	0x3bad9762	0.0052975873
8	0xb99117ed	-0.0002767438
9	0x3b753237	0.0037413964
10	0xb90b0b28	-0.00013260229
11	0x3aece835	0.0018074574
12	0xbc005411	-0.007832543
13	0x3c1f2c33	0.009715128
14	0x390f85a0	0.00013687322
15	0x374231c6	1.157489e-05
16	0x3be50cc1	0.006990046
17	0xbc0132de	-0.007885663
18	0xb93ba583	-0.00017895368
19	0x39792028	0.0002375847
20	0x3b64498b	0.0034833874
21	0x3be4f4fc	0.006987212
22	0x37b396e3	2.1408725e-05
23	0xbaee7aca	-0.0018194553
24	0x399a227b	0.0002939886
25	0x3bf9c897	0.007622789
26	0x3b64f546	0.0034936233
27	0x382745cf	3.9880917e-05
28	0x3c395735	0.011312296
29	0x3be318fb	0.006930468
30	0x3b971105	0.004610183
31	0xbb19a9a0	-0.0023447052
32	0x37533228	1.2588258e-05
33	0x3b8770b4	0.0041333083
34	0xb98492b9	-0.0002528632
35	0x3ba91ad0	0.005160667
36	0x3bf415c9	0.007448886
37	0xbc349c26	-0.011023557
38	0xbb91a2a3	-0.0044444366
39	0x3b0ea381	0.0021764936
40	0x3c23fefd	0.010009524
41	0xbc234bef	-0.009966834
42	0x3c39a6aa	0.01133124
43	0xbc3715a4	-0.011174593
44	0xbc243d13	-0.010024327
45	0xbc0830a4	-0.008312378
46	0xbc24d354	-0.01006015
47	0xbc3a2390	-0.011361018
48	0xb747e6de	-1.1915077e-05
49	0xbbd46d84	-0.006482782
50	0x3ab2a54a	0.0013629582
51	0xbbaa5dca	-0.005199169
52	0x39b73755	0.00034945706
53	0xbaa6439c	-0.0012684944
54	0x3b6a79b9	0.0035778119
55	0xb9873197	-0.00025786154
56	0x3c1ae51e	0.00945404
57	0x3a3c50d9	0.0007183678
58	0x3c39a08c	0.011329781
59	0x3ae653af	0.0017572547
60	0x36ec8adb	7.049513e-06
61	0xbc38bdcf	-0.011275723
62	0xba839c92	-0.0010041168
63	0xbc33dc26	-0.01097778
64	0x3c194571	0.009354935
65	0xbba3ee2d	-0.005002758
66	0xbb105361	-0.0022022354
67	0xbc2bda4a	-0.010489056
68	0x3b8c18df	0.004275426
69	0xbab92431	-0.0014125166
70	0xbba41b5e	-0.0050081452
71	0xb946af20	-0.0001894799
72	0x3c392df3	0.011302459
73	0xbbcdee45	-0.0062845075
74	0xbb993946	-0.004676017
75	0xbc3662d2	-0.011131959
76	0x3c33814b	0.010956119
77	0xbc365989	-0.011129745
78	0x3c32388f	0.010877742
79	0x3bad21a5	0.0052835518
80	0x3b95136e	0.0045494353
81	0xbc34a4f1	-0.011025653
82	0x39602bfd	0.00021378692
83	0xb8e1db32	-0.000107696644
84	0x382c2c32	4.1049156e-05
85	0xbb76b12b	-0.0037642221
86	0x3b888b8d	0.0041670264
87	0xbaaa741c	-0.0013004574
88	0x3b24fc4a	0.002517479
89	0xbc0185f3	-0.007905471
90	0xb98609f3	-0.00025565884
91	0xb893279b	-7.016883e-05
92	0x3af37546	0.0018574379
93	0xbc15f9a9	-0.009153762
94	0xbc37dfd2	-0.0112227965
95	0xbb08bfe4	-0.002086633
96	0x3c0fcc59	0.008776748
97	0x3bd23533	0.0064150332
98	0xb988fe2e	-0.0002612932
99	0x3c35e6be	0.0111023765
100	0xbbca5063	-0.0061741336
101	0xbb32cca1	-0.0027282613
102	0xbbbf17f9	-0.005831715
103	0x3bbb7bf7	0.005721565
104	0xbc09ee0b	-0.00841857
105	0xba56b93b	-0.00081910536
106	0xbb37e796	-0.002806162
107	0x3b3614af	0.0027783324
108	0xb7f10e38	-2.873606e-05
109	0xba42b4b2	-0.00074274384
110	0x3b9f20eb	0.004856219
111	0x3b6199a2	0.0034423848
112	0xb5971f2b	-1.1259448e-06
113	0xba3fc619	-0.00073155906
114	0x3c2e3bbe	0.010634361
115	0x3c29062a	0.010316411
116	0x385ad01e	5.2169074e-05
117	0x37ddd4a7	2.6444277e-05
118	0x39988e25	0.00029097605
119	0x3badec8d	0.00530774
120	0xbab316b0	-0.0013663378
121	0x3bbbf568	0.005736042
122	0x3c0411cd	0.008060885
123	0x3a291103	0.00064493733
124	0xbc1d2ad4	-0.009592731
125	0x3914fb13	0.00014207912
126	0x3ba2c95e	0.0049678525
127	0xbbf448c7	-0.007454965
128	0xb80d7f66	-3.373567e-05
129	0x38d5b03c	0.00010189458
130	0x3c34f5ea	0.011044959
131	0x367968a1	3.7164793e-06
132	0x3b3e7b42	0.0029065167
133	0xbc3139d9	-0.010817015
134	0x3c04d6cf	0.008107855
135	0xba60e819	-0.0008579507
136	0xb6500e15	-3.1002612e-06
137	0xbbf8380f	-0.007575042
138	0xbc0632b7	-0.008190802
139	0xbb9691b9	-0.004595008
140	0x3c04b209	0.0080990875
141	0xbb5660a3	-0.0032711409
142	0x3c330f32	0.010928916
143	0x3414d4e1	1.3861019e-07
144	0x3c2d1b07	0.010565526
145	0xb98f6570	-0.00027350662
146	0x361ab9ff	2.3056052e-06
147	0x33f0925b	1.1202493e-07
148	0xb716f57a	-8.997851e-06
149	0xb3ac8f84	-8.0354795e-08
150	0x3b9cae89	0.0047815484
151	0xbc335b99	-0.010947132
152	0xbc2bc0d6	-0.010482987
153	0xbb57e2b3	-0.003294152
154	0xbc07c7b4	-0.008287359
155	0x375285e8	1.2548153e-05
156	0x33530f6e	4.91413e-08
157	0x3962c1d2	0.00021625243
158	0x3b635a13	0.003469114
159	0x3be41bd7	0.0069613266
160	0x38300ef0	4.197558e-05
161	0x3b38c17f	0.0028191505
162	0xb8a64a17	-7.929297e-05
163	0xb9a80b45	-0.00032051853
164	0x36e4c647	6.818012e-06
165	0xbc38b87e	-0.011274455
166	0x3a166d46	0.0005738329
167	0xbbeb3015	-0.0071773627
168	0xbbfb24b5	-0.007664288
169	0x3c0bf748	0.008542843
170	0x3c08f0d3	0.008358198
171	0x3bdf02fd	0.006805776
172	0x3c26b1d0	0.01017423
173	0x3b31f714	0.0027155327
174	0xb803142b	-3.1251617e-05
175	0xb96d82d6	-0.00022650821
176	0x3c0db8da	0.008650029
177	0x398fb715	0.00027411492
178	0x3ac51aac	0.0015037856
179	0x3b8d7e33	0.0043180226
180	0x3af41549	0.0018622066
181	0x3c27220e	0.01020099
182	0xbb86c196	-0.0041124327
183	0x36add76b	5.1808797e-06
184	0xbc0d14d2	-0.008610921
185	0xbc39dc51	-0.011344031
186	0xb9ece9d8	-0.00045187655
187	0x3c1f120b	0.009708892
188	0xbc395518	-0.011311792
189	0xbbae4ceb	-0.005319228
190	0x3c05b404	0.008160595
191	0xb9ced503	-0.00039450088
192	0xbc14fa1c	-0.009092834
193	0xb9cdc5a0	-0.0003924789
194	0xbbfa5fc2	-0.0076408098
195	0x3a8fad57	0.0010961693
196	0x3b63ecb2	0.0034778533
197	0x3782e534	1.5603939e-05
198	0x37ff85b7	3.0460635e-05
199	0x3c3828b7	0.011240176
200	0xbbfce2be	-0.0077174595
201	0x3b9410bc	0.0045185965
202	0xbb884fdc	-0.0041599106
203	0x3b587c34	0.0033033015
204	0x39aed967	0.00033349844
205	0x3c381ff7	0.01123809
206	0xbc0067d2	-0.007837253
207	0x3a897680	0.0010487586
208	0x39636cfe	0.0002168901
209	0xba2d4ad7	-0.0006610578
210	0xbc107dc2	-0.0088190455
211	0x3b9bec7e	0.0047584167
212	0xb99e376b	-0.00030177398
213	0x38d9a26a	0.00010377618
214	0x32d8ef6b	2.5254584e-08
215	0xbbe3eaf5	-0.0069554993
216	0x3c1a54f9	0.009419673
217	0x3a012e09	0.0004927819
218	0x38fe8f42	0.00012138348
219	0x3813746b	3.5155954e-05
220	0xbc3220ab	-0.010872046
221	0xb4cb0ce4	-3.7821076e-07
222	0x384c37e7	4.8689453e-05
223	0xb922c407	-0.0001552255
224	0x3bc8282d	0.006108305
225	0xb908187f	-0.00012979096
226	0xb7f8c4b7	-2.9655506e-05
227	0xbbac2542	-0.005253465
228	0xb8b5aa03	-8.66242e-05
229	0x3a640714	0.00086985645
230	0xb7945705	-1.7683496e-05
231	0xb9d709fe	-0.0004101544
232	0xb99ec1b4	-0.00030280428
233	0xbc395afd	-0.011313197
234	0x39d65c94	0.00040886237
235	0x3ba658f5	0.0050765225
236	0x39db507d	0.00041830904
237	0xbbc46e74	-0.0059946124
238	0x3c382833	0.011240053
239	0x3c382d93	0.0112413345
240	0x3b87d0ca	0.0041447626
241	0xbbe48e2d	-0.0069749565
242	0x3c2b4304	0.0104529895
243	0xbc388482	-0.011262061
244	0x38ab38a5	8.164466e-05
245	0xbb98f7c8	-0.0046682097
246	0x3703d5e5	7.85801e-06
247	0xba18b8b5	-0.00058258633
248	0x38e1756c	0.000107507076
249	0xba81343d	-0.0009857487
250	0x3b921e46	0.0044591753
251	0xbc2f9ce1	-0.010718555
252	0xbb965d34	-0.0045887474
253	0xbc28724f	-0.01028116
254	0x38044d5f	3.154331e-05
255	0xba8bd6fd	-0.001066893

convs.2.weight f4 [32, 32]
0	0xbbde7f4b	-0.006790077
1	0x3990aeeb	0.00027596144
2	0xb945822d	-0.00018835878
3	0xbbebcd1f	-0.007196083
4	0xbada0351	-0.0016633068
5	0x3ae116a8	0.001717289
6	0x3c35c688	0.011094697
7	0x38b33a7d	8.5462794e-05
8	0xbb131315	-0.0022441794
9	0xbc006a78	-0.007837884
10	0x3c36b797	0.01115217
11	0xbbac6108	-0.0052605905
12	0x39541997	0.00020227428
13	0xb7efa548	-2.8567985e-05
14	0x38a95be6	8.0756654e-05
15	0xb9338f51	-0.0001712416
16	0xbc0dbc3d	-0.008650837
17	0xb91db083	-0.00015038443
18	0xbc202f68	-0.0097769275
19	0x3c2df39d	0.010617164
20	0xbb571899	-0.0032821058
21	0x370e8131	8.493939e-06
22	0x3c0a321b	0.008434798
23	0xbc07270d	-0.0082490565
24	0xbb95fbc7	-0.0045771333
25	0xbbdfeeef	-0.006833903
26	0x340723df	1.2585905e-07
27	0x37805823	1.5299831e-05
28	0xbbda26b7	-0.006657447
29	0x320e50e0	8.283877e-09
30	0xbb9ddc4e	-0.004817522
31	0xbc39e4d3	-0.01134606
32	0x3c03d4e1	0.00804636
33	0xbc36e96d	-0.0111640515
34	0xb56b9a65	-8.7768996e-07
35	0xb99e5bcc	-0.00030204502
36	0x394a32d9	0.00019283163
37	0xbc02aa1f	-0.00797513
38	0x3c24a15b	0.010048236
39	0x3c345d4e	0.011008574
40	0xbc39c329	-0.011338034
41	0x3be63ddc	0.007026417
42	0xb9bb558c	-0.00035731157
43	0xb68e6306	-4.2434576e-06
44	0x395015bc	0.00019844522
45	0xbc0ec161	-0.008713097
46	0x3c0ec0d9	0.008712971
47	0x3bfc74ef	0.0077043693
48	0xbc035bbc	-0.008017477
49	0xb765ab6a	-1.3689374e-05
50	0x35777d9a	9.2197445e-07
51	0x3b4adb8b	0.0030953612
52	0xbba03c63	-0.004890011
53	0xba383e30	-0.00070283096
54	0xb8c8b1e0	-9.569875e-05
55	0x3b7ad5bb	0.0038274366
56	0xb9331ee8	-0.00017082284
57	0xbbffdab9	-0.007808056
58	0x386a8ce4	5.5921162e-05
59	0xbb91ff07	-0.0044554505
60	0x36e562e0	6.8362424e-06
61	0xb5147128	-5.529896e-07
62	0xbc2df6fa	-0.010617966
63	0x382d6a48	4.1345396e-05
64	0xba4e3935	-0.0007866801
65	0xba2bc786	-0.00065528636
66	0xbbfbcdf3	-0.007684463
67	0x391559f5	0.00014243259
68	0xbc2dfc88	-0.01061929
69	0xbc39b718	-0.011335157
70	0x392b3101	0.00016326086
71	0xba870b6b	-0.0010303085
72	0xb9ae0850	-0.0003319406
73	0xb4aac297	-3.180655e-07
74	0xbb9a8ba7	-0.004716355
75	0xb906b358	-0.00012846047
76	0xbaa48012	-0.0012550375
77	0xba356c14	-0.0006920707
78	0xbafe7a3c	-0.0019415091
79	0x3c045e21	0.008079083
80	0xbc1e03da	-0.009644473
81	0xbc19447b	-0.009354706
82	0xbc39f007	-0.011348731
83	0x3ac94988	0.0015356997
84	0x3c18446b	0.009293656
85	0xbc2666ae	-0.010156317
86	0x3bad7550	0.0052935258
87	0x390a496d	0.00013188059
88	0xbc2ee05a	-0.010673607
89	0xba30abbb	-0.0006739457
90	0x36dba7f1	6.5462596e-06
91	0x3aa8b411	0.0012871047
92	0xbc28dd77	-0.010306708
93	0x3c39c3d7	0.011338196
94	0xbc3905ca	-0.011292884
95	0xbc3653dc	-0.011128392
96	0xbc29ed11	-0.010371462
97	0x3b2b8e8f	0.00261775
98	0x3833d1ca	4.2872307e-05
99	0x3aace16f	0.0013189743
100	0xbc275b3a	-0.010214621
101	0x39f3087e	0.000463549
102	0xb9e5dcd4	-0.00043842813
103	0xbb03b27d	-0.00200954
104	0xb9abe1f6	-0.00032784016
105	0x3bfece7b	0.0077760792
106	0x3b88f258	0.0041792803
107	0xbc28104f	-0.0102577945
108	0xbc184c91	-0.009295599
109	0xbc3326f0	-0.010934576
110	0x3c39eccb	0.01134796
111	0x3b9bfc79	0.0047603217
112	0x3b39f479	0.0028374477
113	0x3b5bf745	0.0033564132
114	0xbc05a9cc	-0.0081581585
115	0xba9b4822	-0.0011847059
116	0xbbea4fb8	-0.0071506165
117	0x3a1a876c	0.0005894813
118	0x3b157e6a	0.0022810944
119	0xb9413ac9	-0.00018427813
120	0xbc2b84d4	-0.01046868
121	0xbc385070	-0.011249647
122	0xb9190445	-0.00014592808
123	0x38f31d0c	0.00011592553
124	0xba187f7a	-0.00058173353
125	0x3c217233	0.009853887
126	0xbc188601	-0.009309293
127	0x3b5b8d57	0.0033500993
128	0xbbf426f2	-0.0074509317
129	0x3954ec1b	0.00020305852
130	0x3b2209be	0.0024725045
131	0xbc390012	-0.011291521
132	0x39b764f7	0.00034979705
133	0x3888ef99	6.529614e-05
134	0x3b1801d3	0.0023194447
135	0xbae2cd75	-0.0017303663
136	0x37783679	1.4794635e-05
137	0x38c1ad56	9.2352435e-05
138	0x3c0c8dbb	0.008578713
139	0xbc3933b7	-0.011303834
140	0x3afbf29b	0.0019222082
141	0xbb40bc2e	-0.0029409039
142	0x3c399d2d	0.0113289775
143	0x3a79f040	0.0009534396
144	0x322638e7	9.67541e-09
145	0xb91c5247	-0.0001490797
146	0xbbcfcc30	-0.0063414797
147	0x3b4e18da	0.0031447918
148	0x35c8a761	1.4949875e-06
149	0x39282a88	0.00016037573
150	0x39807341	0.00024499933
151	0x3bb1fa6e	0.005431465
152	0xbc39585f	-0.011312573
153	0x3c297f4c	0.010345291
154	0x3bcefa90	0.0063164905
155	0xb99a1d45	-0.00029394976
156	0x3c0b4b15	0.008501788
157	0xba8bda1e	-0.0010669862
158	0x355b94f8	8.1800636e-07
159	0xbbe65703	-0.0070294156
160	0xbb41b82b	-0.0029559236
161	0xb8c0791c	-9.177832e-05
162	0xb82dc248	-4.1427353e-05
163	0x39924879	0.00027901286
164	0xb41ae43a	-1.4425396e-07
165	0xbbe29313	-0.0069145053
166	0x3c02b907	0.007978684
167	0xbc00ff6d	-0.007873398
168	0x3c39bb95	0.011336227
169	0x3b542d1f	0.0032375527
170	0xb94bbfb5	-0.00019431005
171	0xbc00ea88	-0.007868417
172	0xbc2a4f0a	-0.010394821
173	0x398c580c	0.0002676848
174	0xb7308791	-1.05219815e-05
175	0xb9f4efbb	-0.0004671792
176	0x3b699151	0.0035639594
177	0x37b38b79	2.140341e-05
178	0xb691e31a	-4.347775e-06
179	0xbb9a02ff	-0.004700064
180	0xbc349160	-0.011020988
181	0x3bece604	0.0072295684
182	0xb50d41df	-5.262245e-07
183	0x3c396165	0.011314725
184	0xb71e357e	-9.4299885e-06
185	0x3bf404fe	0.007446884
186	0x3989247f	0.00026157868
187	0x3c2447cb	0.010026882
188	0x3b9edd0c	0.004848128
189	0xbc133005	-0.008983617
190	0x3c307d84	0.010772113
191	0xba9a1de1	-0.0011758172
192	0xba1fcc56	-0.0006095817
193	0xb9350664	-0.00017263886
194	0x3853d033	5.050022e-05
195	0x3c34d3d7	0.011036835
196	0xbb76bf0c	-0.0037650494
197	0x3b80bb6a	0.0039285915
198	0x3c1b5e55	0.00948294
199	0x3c1abca6	0.009444391
200	0xbbfb91a7	-0.007677275
201	0xba04ebac	-0.0005070518
202	0xbb3147a9	-0.002705077
203	0x3c3080de	0.010772912
204	0x3bd67a5d	0.0065453486
205	0xb9a18bea	-0.00030812557
206	0x37b3912a	2.140606e-05
207	0xbb060973	-0.002045241
208	0xb8bc05e8	-8.965639e-05
209	0x3b4ed57e	0.0031560357
210	0xb80b71bb	-3.3246102e-05
211	0x3bf39cf9	0.007434484
212	0x3c38e111	0.011284129
213	0x3990cc6e	0.00027618132
214	0xbb221701	-0.002473295
215	0xb8591ca9	-5.1763524e-05
216	0xbc0722c0	-0.008248031
217	0x3b4867a4	0.0030579353
218	0xb97cfa06	-0.00024125734
219	0xbb043e53	-0.002017875
220	0xbbbfd9e7	-0.0058548334
221	0x3b740fb1	0.0037240798
222	0xb9d538a3	-0.00040668724
223	0xbc38d05c	-0.0112801455
224	0xbbcdf6c2	-0.0062855193
225	0xbc078dda	-0.008273566
226	0xbc144bb6	-0.009051254
227	0xbb022dbf	-0.0019863693
228	0xba8a81b9	-0.0010567225
229	0x3c0b4d71	0.00850235
230	0xb9402a55	-0.00018326317
231	0x3b806a30	0.0039189085
232	0x3c0f14fb	0.0087330295
233	0x3bfd826e	0.0077364957
234	0x397af545	0.00023933228
235	0xb94acf70	-0.00019341498
236	0xb8c743b9	-9.501674e-05
237	0x3c32afad	0.010906142
238	0xbc37ffe1	-0.01123044
239	0x3a852abd	0.0010159832
240	0xb919939e	-0.00014646209
241	0xbc0cbbcc	-0.008589696
242	0xbb8c7d33	-0.004287386
243	0x3a566e2c	0.0008179869
244	0x3c25c9cb	0.010118912
245	0x3c0d1d63	0.008612963
246	0xb4a94536	-3.152906e-07
247	0xbc3548f3	-0.011064756
248	0xbc088ae4	-0.008333895
249	0x3bb73fbf	0.005592316
250	0xbac31caa	-0.0014885862
251	0x3b55a48c	0.0032599298
252	0x399ecb34	0.00030287507
253	0x375b8297	1.30838225e-05
254	0x3bc2c8e5	0.0059443587
255	0x3bfd4bf7	0.007730003

convs.3.weight f4 [32, 32]
0	0xb99c5381	-0.00029816854
1	0x37eb92d0	2.8082548e-05
2	0xb9710f9b	-0.00022989365
3	0xbb889e10	-0.004169233
4	0xb293f764	-1.7225553e-08
5	0xbc016422	-0.007897409
6	0x3538f386	6.8899715e-07
7	0x3c04aa62	0.008097263
8	0xb94f81ea	-0.00019789455
9	0x38c52750	9.4010145e-05
10	0xb9208244	-0.00015307317
11	0x3c06f8e8	0.008238055
12	0x3c2046a7	0.00978247
13	0xb88359fc	-6.263328e-05
14	0xbabe408d	-0.0014515087
15	0xbb1ea3ca	-0.0024206513
16	0x3794dc5f	1.7745593e-05
17	0xbab3fd5b	-0.0013732122
18	0xbc31d59b	-0.01085415
19	0x3bab7d99	0.0052334783
20	0x3a1634d6	0.0005729919
21	0xbc362ea8	-0.011119522
22	0xbc268868	-0.010164358
23	0x3998ab87	0.00029119497
24	0x3c08ade7	0.008342243
25	0xbc2f1090	-0.010685101
26	0x3bc3a8ff	0.0059710736
27	0xbc0a0c2d	-0.0084257545
28	0xb68a36eb	-4.119114e-06
29	0xb9c7bb0d	-0.00038095601
30	0xbb799239	-0.003808154
31	0x3a91b761	0.0011117273
32	0xbb971129	-0.0046102
33	0xbc0a96da	-0.008458817
34	0xb8ec9cd0	-0.000112825655
35	0xbb141eef	-0.0022601446
36	0xb9930446	-0.0002804121
37	0x3c38194d	0.011236501
38	0x3ba5d507	0.005060795
39	0x3705f381	7.984113e-06
40	0xb88d5c2a	-6.740571e-05
41	0xbbfce8b4	-0.00771817
42	0x3c29566d	0.010335547
43	0xb9064d19	-0.00012807957
44	0xbba97367	-0.0051712277
45	0xbbd45689	-0.0064800424
46	0xb8f35f98	-0.00011604949
47	0x3bfd15ac	0.0077235308
48	0xb47aab17	-2.3345306e-07
49	0xb896497b	-7.166244e-05
50	0x3933ef07	0.00017159815
51	0x38086355	3.2517437e-05
52	0xbc39ec9e	-0.011347918
53	0x3a7431f9	0.0009315308
54	0x373eab01	1.13646975e-05
55	0xb99d5477	-0.00030008305
56	0x388c92ba	6.70305e-05
57	0xbbeab0c2	-0.0071621845
58	0x35130041	5.4762137e-07
59	0xbc0acf41	-0.008472265
60	0xbc005885	-0.007833605
61	0x3c17bfb8	0.009262018
62	0x31790358	3.623617e-09
63	0x3bea4003	0.007148744
64	0xbb924efa	-0.004464981
65	0x3a9245e1	0.0011159742
66	0xb7f890ca	-2.9631326e-05
67	0xb8808a00	-6.12922e-05
68	0x3c37c730	0.011216924
69	0x3c3444b1	0.011002705
70	0xbb82be3c	-0.003989963
71	0x3c2c2ef4	0.010509241
72	0x395f2fda	0.00021284763
73	0x3992f212	0.00028027646
74	0xbc1557fe	-0.009115217
75	0x3b480302	0.003051937
76	0xb782d598	-1.559667e-05
77	0x3af01a26	0.001831834
78	0xb9b9fcee	-0.00035474397
79	0xbb0f4949	-0.002186375
80	0x3afb0a2e	0.0019152814
81	0xbb2e5901	-0.0026603343
82	0x38d7e232	0.00010294131
83	0xbb2db733	-0.00265069
84	0xb770f510	-1.4362173e-05
85	0xbc2d1216	-0.010563394
86	0xba927ebe	-0.0011176688
87	0x3ac052ad	0.0014673077
88	0xb982f65d	-0.00024979087
89	0xbc195c42	-0.009360375
90	0x3b903a64	0.004401492
91	0xbc36edb8	-0.011165075
92	0x3c3a1fa8	0.0113600865
93	0x39891aef	0.00026150743
94	0x3c37aa99	0.011210107
95	0x3b69f5d2	0.00356995
96	0xbc1930e0	-0.009350032
97	0x3ba98661	0.00517349
98	0xbb8dfd4c	-0.004333174
99	0xbc2fc4f9	-0.010728114
100	0xba4b2e9e	-0.0007750782
101	0xbb5ccd30	-0.0033691637
102	0xb9bb5476	-0.00035730348
103	0x39f8e9bc	0.00047476392
104	0x399568e7	0.00028497653
105	0x3c134554	0.008988697
106	0xbb774ace	-0.0037733796
107	0xb98b6be1	-0.00026592522
108	0x3be984ee	0.007126442
109	0x3adc8efb	0.001682728
110	0xbc18ec81	-0.009333731
111	0x3ab31f6b	0.001366598
112	0xbc1c771a	-0.00954988
113	0x392d3a41	0.00016520267
114	0xb8dfd051	-0.000106722706
115	0x3964c806	0.00021818289
116	0x38a9b8fe	8.0930055e-05
117	0x3a4bbca9	0.0007771948
118	0x3b7bc7fc	0.003841876
119	0xbc3ad1dc	-0.011402573
120	0x3c3a15d7	0.011357746
121	0xbc3347fd	-0.010942456
122	0x3a39dfc8	0.0007090536
123	0xbc3a0ebf	-0.011356055
124	0xbb8e0ec5	-0.0043352568
125	0x3c3931ec	0.011303406
126	0xbbc53e12	-0.0060193622
127	0x3a61bac0	0.0008610897
128	0x3c0e0a6c	0.008669477
129	0xbb738031	-0.0037155265
130	0xbc2eb63c	-0.010663565
131	0xbb3e81da	-0.0029069097
132	0xbb02452f	-0.0019877662
133	0xbac84827	-0.0015280292
134	0xbc117b51	-0.008879499
135	0x3b9551b9	0.0045568612
136	0xbc255bef	-0.010092719
137	0x3c000552	0.007813768
138	0xbc11400b	-0.008865367
139	0xba4cc188	-0.0007810821
140	0x3b1bbada	0.0023762495
141	0xb7a09818	-1.914431e-05
142	0xbc0261bb	-0.007957871
143	0xbbe599e8	-0.0070068724
144	0xbc37199e	-0.011175541
145	0xbc0cd11c	-0.008594777
146	0x3c137d97	0.009002111
147	0xb8340b84	-4.292607e-05
148	0x3b553402	0.003253222
149	0xbc172445	-0.009224956
150	0x399725aa	0.00028829026
151	0x3c08eae3	0.008356783
152	0x33a2ddf6	7.584087e-08
153	0x3bd542f6	0.0065082265
154	0xba9963c2	-0.0011702704
155	0xba7788bb	-0.00094426767
156	0x3c0c41cf	0.008560612
157	0xbbbe0342	-0.005798728
158	0xb9927db7	-0.00027940955
159	0xb9550d06	-0.00020318115
160	0xba3dc07b	-0.00072384597
161	0xbc0411c7	-0.008060879
162	0x36fa296b	7.4554023e-06
163	0xbbc1f6b3	-0.0059193014
164	0xbc34890e	-0.0110190045
165	0xbc315629	-0.010823765
166	0x3aa4d4d2	0.0012575632
167	0x3be2e54f	0.0069243084
168	0x3bd674de	0.0065446934
169	0xb9777b9e	-0.00023601807
170	0xb95754fd	-0.00020535658
171	0x39537bc3	0.00020168633
172	0xbb021d67	-0.001985395
173	0xbbc28cc6	-0.0059371917
174	0x3c2e192b	0.010626118
175	0x3c39c0cb	0.011337469
176	0xbc133d34	-0.00898676
177	0x38179e2f	3.6148525e-05
178	0x390fe9f5	0.00013724699
179	0x3c18defb	0.009330506
180	0x3728e7b1	1.0067525e-05
181	0x38e36ff2	0.00010845055
182	0x3c37ca60	0.011217684
183	0xbc385e4a	-0.011252949
184	0xbc08ee86	-0.00835765
185	0x3c3415cc	0.010991525
186	0x3b79dacb	0.0038124796
187	0xb98acfde	-0.00026476284
188	0x36acaefe	5.146371e-06
189	0x3adf778b	0.0017049176
190	0x3b1a6085	0.0023556065
191	0xbb3b919e	-0.002862073
192	0x3c2dda48	0.010611124
193	0x3c390d9f	0.011294751
194	0x395ddd75	0.00021158702
195	0xb9873161	-0.00025785997
196	0xb90321fc	-0.00012505794
197	0xbb95d5aa	-0.00457259
198	0x3b8222de	0.0039714416
199	0xba992155	-0.0011682907
200	0x3c28a4cc	0.010293197
201	0xb9876d29	-0.00025830537
202	0xbb3b910e	-0.0028620395
203	0x3c181576	0.00928246
204	0x3b9d905b	0.0048084683
205	0xbba8c24e	-0.005150116
206	0x3b07bb56	0.0020711026
207	0xbc1c6708	-0.009546049
208	0x3c24006e	0.010009868
209	0xb96b6a9c	-0.00022451062
210	0xb7895de7	-1.63754e-05
211	0xbbb11f4d	-0.0054053427
212	0xb9748b30	-0.00023321505
213	0xbc3096a7	-0.010778106
214	0x394164c4	0.00018443452
215	0xbc397d6a	-0.011321405
216	0xbc39fe10	-0.011352077
217	0xbb64e632	-0.0034927246
218	0x382945c1	4.0357703e-05
219	0x37bb9760	2.2362627e-05
220	0xbb315cfb	-0.0027063477
221	0xbc255378	-0.010090701
222	0xb74825e4	-1.1929751e-05
223	0xbc0b4fc8	-0.008502908
224	0x3c38c692	0.011277812
225	0xbc2d8334	-0.010590363
226	0x3613515f	2.1952071e-06
227	0x3c317524	0.010831151
228	0x3bffe462	0.007809208
229	0x3c0dd6ec	0.008657198
230	0x393ec820	0.00018194364
231	0x3c364a54	0.01112612
232	0xb89ed3ee	-7.573502e-05
233	0x393a25eb	0.00017752468
234	0x3c389b83	0.011267546
235	0xba3245dd	-0.00068005716
236	0xb7b84db8	-2.19707e-05
237	0xba051d5f	-0.0005077924
238	0xbc23cd2d	-0.009997648
239	0x3c363959	0.011122071
240	0xbc262a3d	-0.010141906
241	0xb9fcb99b	-0.00048203472
242	0x3c303f0b	0.010757218
243	0x3bc821c2	0.00610754
244	0x398acab4	0.00026472437
245	0x390e022d	0.00013542986
246	0xba0e07c9	-0.000541803
247	0x3c07e225	0.008293663
248	0xbc0d24af	-0.008614703
249	0x38dd6aef	0.00010558019
250	0xbb6b7da2	-0.0035933037
251	0x382e3528	4.153434e-05
252	0xb948dac5	-0.00019154984
253	0x3b9a65b7	0.0047118324
254	0x3c29cd39	0.01036387
255	0x3bdf4361	0.006813452

convs.4.weight f4 [32, 32]
0	0x3c29580b	0.0103359325
1	0xbbe54b21	-0.0069974815
2	0xbba70254	-0.005096713
3	0xbbfe3d85	-0.0077587985
4	0x3a8f7f1d	0.0010947917
5	0xbc39e90a	-0.011347065
6	0x3bb49b83	0.0055117025
7	0xbbd41e58	-0.006473344
8	0x3783edfb	1.5727235e-05
9	0x3bc021a8	0.005863387
10	0x3be8b662	0.00710182
11	0xba4a53c5	-0.0007718171
12	0x39021331	0.00012404915
13	0x3ac2ca1f	0.0014861262
14	0x3bd6df43	0.0065573766
15	0x3b0320f9	0.0020008667
16	0x38a51a89	7.872756e-05
17	0xba3763cb	-0.00069957663
18	0xb86569f9	-5.469655e-05
19	0xbc381501	-0.0112354765
20	0xb6216169	-2.404757e-06
21	0xbc3970d1	-0.011318401
22	0x39871d10	0.0002577086
23	0xb991db15	-0.00027819784
24	0xbb34d49d	-0.0027592548
25	0xb885339c	-6.351547e-05
26	0x3c376e2a	0.011195699
27	0xb92f0e4d	-0.00016694628
28	0xb68b9900	-4.1603344e-06
29	0x3c1a8bac	0.009432714
30	0xb2a2bceb	-1.8945192e-08
31	0xb99f0be0	-0.0003033569
32	0x3b503f88	0.0031776149
33	0x3bf27db0	0.007400237
34	0x3b98685b	0.004651112
35	0x3b682293	0.0035420998
36	0x33725359	5.642082e-08
37	0x3b4b3061	0.0031004178
38	0x3c34b83e	0.011030255
39	0x3be11ecb	0.006870126
40	0x3c353384	0.011059646
41	0x38887950	6.5075816e-05
42	0xb67d266c	-3.7722302e-06
43	0x3c3110c1	0.010807217
44	0xbbd0a6f1	-0.006367557
45	0x3afbbf95	0.0019206876
46	0x3800bf6a	3.0695846e-05
47	0x39409532	0.00018366126
48	0xb1da5bc6	-6.3550685e-09
49	0x3ab2f7d4	0.0013654181
50	0xbbc2e08a	-0.0059471773
51	0xbc203026	-0.0097771045
52	0x3c381ab0	0.011236832
53	0xb99ab483	-0.0002950766
54	0xbc1d4f82	-0.009601476
55	0xb8e8f634	-0.00011108481
56	0x3c1d37f3	0.009595859
57	0x39bdbc1b	0.0003618904
58	0xb6bcbf63	-5.625117e-06
59	0xb8dc6bb8	-0.00010510482
60	0x3c316590	0.010827437
61	0x3c39ecc3	0.011347952
62	0x39644e4b	0.00021772941
63	0xbc311239	-0.010807567
64	0xba607649	-0.0008562548
65	0xb783bd26	-1.5704496e-05
66	0xbb21ac56	-0.002466937
67	0x3bf65c52	0.0075183297
68	0xbc1eedc6	-0.009700244
69	0x3b12f465	0.0022423503
70	0xbc184455	-0.009293635
71	0x3b46bde3	0.0030325584
72	0xbbd40926	-0.006470817
73	0xbad22b91	-0.0016034712
74	0x383b7563	4.46936e-05
75	0xb9843653	-0.00025217477
76	0xbbbc4ec0	-0.0057466924
77	0x3c2e7220	0.010647327
78	0x3c20dfff	0.00981903
79	0x39cea59d	0.00039414773
80	0x34d307c5	3.9307466e-07
81	0xbbcd0b74	-0.006257469
82	0xb9a2e444	-0.0003106912
83	0xbbc732bd	-0.0060790465
84	0x38d1de87	0.000100073456
85	0xbbbc17b3	-0.00574013
86	0xbbda7e86	-0.006667915
87	0x3b9e19f8	0.004824873
88	0x3c34e58d	0.011041057
89	0xbc378399	-0.011200809
90	0x3abd6e9d	0.0014452521
91	0x3b939c3c	0.0045047086
92	0xb9d9bbd7	-0.00041529417
93	0x3b2330d8	0.002490094
94	0x3a9b44df	0.0011846087
95	0xbbb6af41	-0.005575091
96	0xbc221c22	-0.009894403
97	0xbc21f997	-0.009886167
98	0xb8f9e0ec	-0.0001191514
99	0xb92482ad	-0.0001568894
100	0x3be3a5c5	0.0069472515
101	0x39a929bd	0.0003226529
102	0xb97b78c5	-0.00023982215
103	0x3c20d091	0.009815351
104	0x3bedcef7	0.007257338
105	0x399ee937	0.00030309867
106	0x38b9dcc9	8.862612e-05
107	0x3c36f3b4	0.011166502
108	0xb8111fde	-3.4600373e-05
109	0xb89a95d0	-7.371197e-05
110	0x3c2cfb4e	0.010557963
111	0xbc396486	-0.011315471
112	0x3b9af10d	0.0047284425
113	0xb99c3f25	-0.00029801685
114	0x3bd04b11	0.006356605
115	0x3acf79b0	0.0015829112
116	0x3892ccbc	6.999957e-05
117	0xba9ae051	-0.0011816119
118	0x3ac2de0a	0.0014867198
119	0xbac6beb8	-0.001516304
120	0xbc070be7	-0.008242584
121	0x3c271983	0.010198954
122	0xbc2d69ca	-0.010584304
123	0xbc390d6c	-0.011294704
124	0xbb14cf1c	-0.0022706455
125	0x3c0cad90	0.008586302
126	0xbba47249	-0.0050185067
127	0x39a739ee	0.00031895883
128	0x3c339d85	0.010962849
129	0x3bfbc772	0.007683688
130	0xbc23a7f6	-0.0099887755
131	0xb3bf8fd4	-8.920293e-08
132	0x362605eb	2.4739372e-06
133	0xbb4ed0c0	-0.003155753
134	0xbb4ec9ca	-0.003155338
135	0x3c3700dd	0.011169639
136	0xbbbca437	-0.0057568806
137	0x330451ab	3.080792e-08
138	0x390199d9	0.00012359711
139	0xbc039063	-0.00803003
140	0xb97c1e47	-0.00024043872
141	0xb922a0d6	-0.0001550944
142	0xbbf099ed	-0.007342568
143	0x3c0c6f2d	0.008571428
144	0xbbbba381	-0.0057262783
145	0xb98d2068	-0.0002691776
146	0x3a2536f2	0.0006302438
147	0xbc3559e1	-0.011068792
148	0x3801238c	3.0789102e-05
149	0xb9dde367	-0.00042321833
150	0xbb0c2514	-0.0021384405
151	0x3c077688	0.008268006
152	0xbb8079e1	-0.003920779
153	0x39609564	0.00021417957
154	0x3b7b0c96	0.0038307062
155	0x381537c0	3.557629e-05
156	0x340be57c	1.302887e-07
157	0xbb1a8885	-0.0023579907
158	0x38adc84a	8.2865896e-05
159	0x3c07180d	0.00824548
160	0xbc267b19	-0.010161185
161	0xbc38c64f	-0.011277749
162	0x3603ff2b	1.9669048e-06
163	0x3a948564	0.0011331257
164	0xb4b08a6c	-3.288327e-07
165	0x3c1c9c56	0.009558758
166	0x3c255208	0.010090359
167	0xbc349dd6	-0.011023959
168	0x3b689d93	0.0035494312
169	0xbc39e70f	-0.011346593
170	0xbb67b567	-0.0035355927
171	0xb6b1f332	-5.3033227e-06
172	0x3c2fa3a4	0.010720167
173	0xbaa703e9	-0.0012742254
174	0xbbda6ca4	-0.006665783
175	0xbb463c2a	-0.0030248263
176	0x3a6a9a3a	0.0008949373
177	0xba7680c1	-0.0009403341
178	0x3bed03c2	0.007233114
179	0x3c3583df	0.011078804
180	0x3b11bca5	0.0022237685
181	0x3c21e6aa	0.009881655
182	0xbb2a2ddd	-0.0025967278
183	0xbbe88d5f	-0.007096931
184	0xbabf2ce1	-0.0014585519
185	0x3b4e7560	0.0031503066
186	0x345ccbae	2.0563195e-07
187	0x35f7eb47	1.8471409e-06
188	0xbc393618	-0.011304401
189	0x33f0bd1c	1.121027e-07
190	0xb518b21c	-5.6883596e-07
191	0xbb1c61ef	-0.0023862084
192	0xb8d77236	-0.00010273272
193	0xbbdc76ff	-0.0067280526
194	0x39cd01d6	0.00039102015
195	0xbc372aad	-0.011179608
196	0x3611a318	2.1701617e-06
197	0xb95f8ec4	-0.00021320122
198	0x38f13504	0.000115016504
199	0x3bfeebf7	0.007779594
200	0xba8dd97b	-0.001082226
201	0xbbd47e29	-0.006484766
202	0xba574696	-0.0008212117
203	0x3c1e4df7	0.009662143
204	0xbc3aee63	-0.011409375
205	0xba8f3c8b	-0.0010928077
206	0x3a405826	0.0007337354
207	0xba0f88d6	-0.0005475407
208	0x3bc2eb09	0.0059484285
209	0xbbc07cfd	-0.0058742748
210	0x373d659b	1.1288935e-05
211	0x3ab9dabd	0.0014179569
212	0xbc1b39f4	-0.009474266
213	0x3bbdbcd1	0.005790331
214	0xb8c91316	-9.587982e-05
215	0x388f67c2	6.838098e-05
216	0x3956bc3d	0.00020478755
217	0xbc244322	-0.010025771
218	0x3b942163	0.0045205816
219	0x3846e35c	4.7418624e-05
220	0x3b8f27a2	0.0043687383
221	0x37836841	1.5664964e-05
222	0xbb5463f5	-0.0032408212
223	0x3c1939bb	0.009352143
224	0xbb3f75d5	-0.002921452
225	0xbaf2adcc	-0.001851493
226	0xba2f9141	-0.0006697365
227	0xbc283470	-0.010266408
228	0x3c34571c	0.011007097
229	0xbb170479	-0.0023043437
230	0xb8af668f	-8.363753e-05
231	0xb9a23289	-0.000309367
232	0x37faf084	2.9914321e-05
233	0x3bb0a3f9	0.005390641
234	0x3854250c	5.057924e-05
235	0xbb43dccf	-0.002988625
236	0x39c12513	0.0003683945
237	0x39b2c072	0.0003409419
238	0x3a9a9de7	0.0011796326
239	0x3be89cf5	0.007098789
240	0x3bf0b495	0.007345746
241	0x3c2c088b	0.010500084
242	0x3c2606a9	0.010133424
243	0x38f1d3d9	0.00011531235
244	0xbb5505a7	-0.003250459
245	0x3b130fdc	0.0022439873
246	0xbc37b56b	-0.011212687
247	0x3a1f608c	0.0006079755
248	0xbc228a5c	-0.009920683
249	0xbc2ffcc7	-0.010741419
250	0x3b844bc9	0.0040373546
251	0xbc0d75ee	-0.008634074
252	0x3c31db33	0.010855484
253	0xbc0900ea	-0.008362034
254	0x3ba90da4	0.005159097
255	0x37f9baee	2.9770159e-05

convs.5.weight f4 [32, 32]
0	0xb982278a	-0.0002482499
1	0xbb847e14	-0.00404335
2	0xbb69571d	-0.0035604902
3	0xb86a02df	-5.579262e-05
4	0xbc269be6	-0.010169005
5	0x3c374cdb	0.011187757
6	0xb9e2e0f4	-0.00043273682
7	0xbc320e7f	-0.010867714
8	0x3c20e0c1	0.0098192105
9	0xbb9fafd5	-0.0048732557
10	0x390b0713	0.00013258708
11	0x3a86ccf1	0.0010284466
12	0x3acb23ba	0.0015498318
13	0xba84e79f	-0.0010139829
14	0xbb5b396b	-0.0033450972
15	0xbbe5626c	-0.007000258
16	0xbb1ee1a4	-0.002424338
17	0xbc0bb13e	-0.008526145
18	0xbc0da90f	-0.008646264
19	0x3bae408c	0.005317753
20	0xbb8144cf	-0.00394497
21	0x3c247070	0.010036573
22	0x398b896d	0.00026614536
23	0x392cfe48	0.00016497925
24	0x3b43b0f4	0.002986011
25	0x3afe4a6d	0.0019400843
26	0x3a49c34d	0.00076966436
27	0x39957bfa	0.00028511864
28	0xbc21b5d1	-0.009870009
29	0x3380fa6e	6.0060174e-08
30	0xb8d0c4d6	-9.9548764e-05
31	0x3c1f714a	0.0097316
32	0x3990da9a	0.0002762869
33	0x399d1865	0.0002996355
34	0xb6a8221c	-5.010761e-06
35	0xbb1d3eed	-0.0023993806
36	0x394794ef	0.00019033601
37	0xb85a78ca	-5.2087744e-05
38	0xbc323fe4	-0.0108794905
39	0xb68f9ba2	-4.27985e-06
40	0xb743fc31	-1.1681624e-05
41	0x3bc6f815	0.006072054
42	0xb717ae7e	-9.0409285e-06
43	0x3be18b68	0.0068830736
44	0xbc32f323	-0.010922226
45	0xbb6cba67	-0.0036121847
46	0xba13dfcb	-0.0005640953
47	0x3c32a30c	0.010903131
48	0x3b3a2630	0.002840411
49	0x3b9ac522	0.004723207
50	0xbb1e0fe1	-0.0024118351
51	0x3b977d09	0.0046230596
52	0xb99696f6	-0.00028722704
53	0x3bdec721	0.0067986404
54	0xbc0a1c7a	-0.008429641
55	0xbbcce0bc	-0.0062523764
56	0xbb6fb696	-0.0036577336
57	0x372d57c8	1.0332042e-05
58	0xbc24c3c3	-0.010056439
59	0x3b8db0dc	0.004324062
60	0xb4e7303b	-4.3062195e-07
61	0x399c7438	0.00029841228
62	0xbc39f038	-0.0113487765
63	0x3c206d87	0.009791738
64	0x3a198724	0.00058566243
65	0x3c36fb10	0.011168256
66	0x3c34d733	0.011037636
67	0xbb8616bf	-0.004092067
68	0x36fc4066	7.517682e-06
69	0xbb4a4126	-0.0030861585
70	0xbad343c9	-0.0016118224
71	0x3a35d6bd	0.00069366005
72	0xba96cdcb	-0.0011505423
73	0xbc231b9b	-0.009955312
74	0x3c2f111e	0.010685233
75	0x39959109	0.00028527554
76	0xbc285b0e	-0.010275615
77	0xbc34b175	-0.011028637
78	0x3bf64fdf	0.0075168456
79	0xbc086ce3	-0.008326742
80	0x3c360412	0.011109369
81	0xbc15a035	-0.009132435
82	0xbbd21cea	-0.006412138
83	0xbb1e7c0e	-0.002418283
84	0xb8d7b4f5	-0.00010285705
85	0xbaca9f03	-0.0015458766
86	0x3b480f8f	0.0030526852
87	0x3b39b03a	0.00283338
88	0xb9dd6e33	-0.0004223451
89	0x39692927	0.00022235942
90	0xbc2d5891	-0.010580198
91	0x394a89f5	0.00019315614
92	0x3ba1f12b	0.0049420795
93	0x3ae08425	0.0017129226
94	0xbb53dc66	-0.0032327413
95	0xbb731e29	-0.0037096834
96	0x3b67e587	0.0035384612
97	0x3b2c48e3	0.002628856
98	0x3ac9ec3b	0.0015405485
99	0x3aeac7ef	0.0017912368
100	0xbc1aa25b	-0.009438123
101	0x38affa0d	8.391226e-05
102	0x3b15f1f8	0.002287982
103	0x3c207ac1	0.009794892
104	0x3c3a4f76	0.011371484
105	0xbc10c36c	-0.008835655
106	0xba510ee3	-0.00079749356
107	0x3c38dc1c	0.011282947
108	0x39bb27bb	0.0003569702
109	0x3b2125f9	0.0024589284
110	0x3bbc47bb	0.0057458556
111	0x3987e501	0.00025919828
112	0x3c2c5c48	0.010520048
113	0x3bf4d4e4	0.0074716676
114	0x3c2b4e94	0.010455746
115	0xb8c00213	-9.15566e-05
116	0xbbe42aec	-0.0069631245
117	0xbc33b983	-0.010969522
118	0x3c2e83a0	0.010651499
119	0xb9bca494	-0.00035980775
120	0x3a1ea091	0.0006051148
121	0x3c14aa96	0.009073874
122	0x3ac3d121	0.0014939645
123	0x391cc97f	0.00014952382
124	0x3b2f21a4	0.0026722932
125	0x3c1bd8b9	0.00951212
126	0xbb184348	-0.0023233462
127	0x39136049	0.00014054881
128	0x38dfa0ae	0.000106633976
129	0xbb4af8a6	-0.003097096
130	0xbc38d869	-0.011282065
131	0xbc34eac9	-0.011042305
132	0xbc266553	-0.0101559935
133	0xbb635dbf	-0.0034693328
134	0xbc13e609	-0.009027013
135	0xbc383302	-0.01124263
136	0xb7d90274	-2.5869558e-05
137	0xb1732d6b	-3.5386971e-09
138	0x3c19b5c7	0.009381718
139	0x3c14c633	0.0090804575
140	0x3ae24e9e	0.0017265861
141	0x3c189ac0	0.009314239
142	0x3c39e098	0.011345051
143	0xbb4b7a05	-0.003104807
144	0x3c0cd982	0.00859678
145	0x3997185d	0.00028819116
146	0xbbf6a2ff	-0.007526755
147	0x3bb8101d	0.005617155
148	0xb2b5decb	-2.1172488e-08
149	0x3c1c48c3	0.009538832
150	0x390060ae	0.00012243047
151	0xbc37287e	-0.011179088
152	0x3b218829	0.0024647808
153	0x3bb0c0b9	0.005394068
154	0xbc386f19	-0.0112569565
155	0x3c39177c	0.011297103
156	0xb95db18f	-0.00021142348
157	0x3bb995cf	0.0056636105
158	0xbc2c6f89	-0.010524639
159	0xb99e277f	-0.00030165535
160	0x3b4a761c	0.0030893153
161	0xbc284c81	-0.010272146
162	0x3ad2081f	0.0016024149
163	0xbb72f757	-0.0037073696
164	0x3c2a7118	0.01040294
165	0xb995c6d3	-0.0002856763
166	0xbbe638c8	-0.007025812
167	0xbc21cb57	-0.00987514
168	0x3a0462d6	0.0005050128
169	0xbc36e5b9	-0.011163169
170	0x3c380771	0.011232243
171	0x397252fb	0.00023109831
172	0xbb3e5ee9	-0.002904827
173	0x389b9ccd	7.4201824e-05
174	0x3bf4309f	0.007452085
175	0x368efd35	4.261407e-06
176	0xbc2b1322	-0.010441573
177	0xbc2e24ec	-0.01062892
178	0x3c378bec	0.011202794
179	0xb8c2b39d	-9.2840964e-05
180	0x376e1d80	1.4192774e-05
181	0xb8843ce5	-6.305593e-05
182	0xb9916c64	-0.00027737312
183	0x3abd27c8	0.0014431411
184	0xba6e48a8	-0.0009089806
185	0xbbef05b1	-0.0072943796
186	0xb91ea52b	-0.00015129584
187	0xbc0037d8	-0.007825814
188	0xb751c13e	-1.25023635e-05
189	0x399b9165	0.0002967223
190	0x3996ba93	0.00028749238
191	0x3a47ba72	0.000761903
192	0xbab8b011	-0.0014090558
193	0xb71f530c	-9.496474e-06
194	0xbb0fceda	-0.0021943361
195	0x3c221518	0.009892724
196	0x3bd4b06a	0.0064907568
197	0xbb4830b2	-0.0030546603
198	0x3ba8fbbc	0.005156962
199	0xb9919264	-0.00027765625
200	0xbbdf036d	-0.0068058283
201	0xbb9ab836	-0.0047216667
202	0x3ac27034	0.0014834465
203	0xbc39cada	-0.0113398675
204	0x3c219590	0.009862319
205	0xbc361235	-0.011112739
206	0x3935fbed	0.00017355355
207	0xba57c899	-0.00082314905
208	0x380ad03b	3.3095694e-05
209	0x3c39dd19	0.011344218
210	0x3935665d	0.00017299638
211	0x3b00956c	0.0019620312
212	0x3a8b3671	0.0010621083
213	0x3b9e8255	0.004837314
214	0xbc3983de	-0.0113229435
215	0x3c395c05	0.011313443
216	0x3bb012a5	0.0053733164
217	0xbb388ad8	-0.002815893
218	0xbc37dd7c	-0.01122224
219	0xb9728177	-0.00023127148
220	0x3ba3843d	0.0049901293
221	0xb94f54cd	-0.00019772649
222	0x3c2f00ab	0.010681312
223	0xb925e6cf	-0.00015821609
224	0x39901260	0.0002747951
225	0xbc2e752a	-0.010648051
226	0x3bbdd9c8	0.005793784
227	0x3bdaeaa1	0.006680802
228	0xbbfa6cd5	-0.0076423683
229	0xbc2ea0fa	-0.010658497
230	0x35b157b2	1.321305e-06
231	0xbb8b1f34	-0.004245663
232	0x3c2f62a3	0.010704669
233	0xbbaba209	-0.005237822
234	0xbc19ebe1	-0.009394617
235	0xbc1f8b27	-0.009737766
236	0x38b1114f	8.443242e-05
237	0x3c370270	0.011170015
238	0x3b49937b	0.0030758071
239	0x3c2d63fc	0.01058292
240	0xb68fd7ca	-4.2868533e-06
241	0xb9a849e4	-0.0003209851
242	0xbc0d43ed	-0.008622152
243	0x3c23e221	0.010002644
244	0xbc192340	-0.009346783
245	0xbb9d527c	-0.0048010927
246	0x3ac08a86	0.0014689721
247	0x3c1e6c11	0.00966932
248	0xb90a6dcf	-0.00013201612
249	0x39efb658	0.0004572149
250	0xbb032e24	-0.0020016516
251	0x39a3d7e7	0.00031250642
252	0xbc339c7b	-0.010962601
253	0xbbdeee5e	-0.006803318
254	0xbc00bf72	-0.007858144
255	0x3a85a6b7	0.001019678

convs.6.weight f4 [32, 32]
0	0x3bf8563e	0.0075786402
1	0x38f92cab	0.00011881565
2	0xb9302911	-0.00016799966
3	0xbc125e1e	-0.008933572
4	0xbbb13f21	-0.005409137
5	0xbab0ea7a	-0.0013497614
6	0xbbb456a6	-0.0055034934
7	0x3764af44	1.3630666e-05
8	0xb95373e3	-0.00020165699
9	0x3a72a471	0.0009256071
10	0x3c066f90	0.0082053095
11	0x39eda307	0.00045325627
12	0x39647062	0.0002178564
13	0xbbf0f6f3	-0.0073536574
14	0xbc2aeb18	-0.010432027
15	0x37d423dc	2.5289068e-05
16	0x32d78373	2.508907e-08
17	0xb91eea1c	-0.00015155267
18	0x3aa32444	0.0012446721
19	0xbb9091b0	-0.0044118986
20	0xbc173945	-0.009229963
21	0xbb89eba1	-0.0042089974
22	0xb6e02e88	-6.681137e-06
23	0x3b05abf5	0.0020396684
24	0xb992dd65	-0.00028012242
25	0x3990bbc5	0.0002760572
26	0x3c023e14	0.007949371
27	0xbb9aec3f	-0.0047278698
28	0xb9b08832	-0.0003367081
29	0x39554a56	0.00020340955
30	0xbb3b9be5	-0.0028626856
31	0xbba85647	-0.005137238
32	0x3c23c18e	0.0099948775
33	0xbaea7989	-0.0017889004
34	0xbc353a42	-0.011061253
35	0xbc095387	-0.008381731
36	0x3be68c8f	0.007035799
37	0x3831bfb3	4.2378622e-05
38	0x3c256035	0.010093738
39	0x36a2ff29	4.857681e-06
40	0x3c2ec514	0.010667104
41	0xbc30922a	-0.010777036
42	0x3b86addc	0.004110081
43	0xbb584215	-0.0032998372
44	0x3be21be7	0.006900299
45	0x3b93f666	0.004515457
46	0x3c2c9b2b	0.010535042
47	0xba8964af	-0.0010482277
48	0x3c08e168	0.008354522
49	0x3c195a88	0.009359963
50	0x3bbcbb90	0.005759664
51	0xb8915eff	-6.931833e-05
52	0x3c1b4808	0.009477623
53	0x3c34afd9	0.0110282535
54	0x3bb2e13c	0.005458979
55	0xbbbf1ceb	-0.0058323047
56	0xbb95efae	-0.004575691
57	0xbc2942a1	-0.010330827
58	0x3839f9e6	4.4340173e-05
59	0x37ae375f	2.07682e-05
60	0x3c157c85	0.009123926
61	0x39229440	0.00015504751
62	0x3c0331e3	0.008007499
63	0xb92d618e	-0.00016534908
64	0x3c2323ed	0.009957296
65	0x3c2ed991	0.010671989
66	0x3c34c000	0.0110321045
67	0x3bfde8c7	0.0077486965
68	0x3c36d4c2	0.011159124
69	0x3c25f16f	0.010128363
70	0x3ad6682b	0.0016357949
71	0x3a5c0709	0.00083933823
72	0xbbea97b5	-0.007159198
73	0xba3f1e04	-0.00072905445
74	0xbbb3f6b3	-0.0054920553
75	0xbbc0bacd	-0.0058816434
76	0x3c0a75bd	0.008450923
77	0xbb2c5dfd	-0.0026301139
78	0xba35f3f3	-0.00069409533
79	0xb9a58f9b	-0.00031578247
80	0xbc36b18f	-0.011150732
81	0x3c24f6cf	0.010068609
82	0xb96f29b1	-0.00022808347
83	0x3881dff0	6.192911e-05
84	0xbb73a4af	-0.0037177016
85	0x397304fc	0.00023176143
86	0x397e0499	0.0002422504
87	0xbc39b501	-0.011334659
88	0x3c080309	0.008301505
89	0x39dbfcb8	0.00041959225
90	0x3945c664	0.0001886129
91	0x39545cf0	0.00020252517
92	0x37c1ce8c	2.3103574e-05
93	0x3c19ef6e	0.009395463
94	0xbc06bb7c	-0.008223411
95	0x3ade1dbd	0.0016946119
96	0x3a0e0b79	0.00054185797
97	0xbc08ee5e	-0.008357612
98	0xb9a04d93	-0.00030575375
99	0x3bfae0b4	0.007656181
100	0xbb9cbbd7	-0.0047831344
101	0xbc30a1f9	-0.010780805
102	0xb9dd901b	-0.00042259772
103	0xbbfafee6	-0.007659781
104	0x387be24a	6.005381e-05
105	0x3c197188	0.009365447
106	0x3aa5945f	0.0012632719
107	0xbc27a0f3	-0.010231244
108	0x3c01b12c	0.007915776
109	0x3bd61921	0.0065337573
110	0xbc26e46e	-0.010186298
111	0x3ba3fb67	0.0050043347
112	0x379aeaeb	1.8467623e-05
113	0x3c0214ee	0.00793956
114	0xb9406518	-0.00018348207
115	0x3ab11e3b	0.0013513038
116	0x3bf570d7	0.007490258
117	0x3c123c17	0.008925459
118	0xbae3e7c6	-0.00173878
119	0x39be1d92	0.00036261656
120	0xbc26946c	-0.0101672225
121	0xbb027b0f	-0.0019909774
122	0x3a5be5c0	0.00083884224
123	0x39869e0f	0.00025676235
124	0x3bcefd21	0.0063167964
125	0xbc0568d8	-0.0081426725
126	0xbbf67eef	-0.007522456
127	0x3a543356	0.0008094808
128	0x3c3926ab	0.011300723
129	0xbc2556b5	-0.010091473
130	0xbbd7ffe6	-0.006591785
131	0xbc326914	-0.01088931
132	0x3a048e91	0.00050566444
133	0x399ae37c	0.00029542658
134	0xb5557d90	-7.95314e-07
135	0x3b14e64e	0.002272028
136	0xbba7043e	-0.0050969413
137	0x32d55b2a	2.483792e-08
138	0xbba4bde1	-0.005027518
139	0xbc33f827	-0.010984457
140	0x399a2701	0.0002940223
141	0xbbcf4d23	-0.006326334
142	0xbc39f598	-0.011350058
143	0xb91d58fb	-0.00015005835
144	0xbc384091	-0.011245863
145	0x39898a45	0.00026233695
146	0x3aa19d22	0.0012330154
147	0x3b2fbb72	0.0026814607
148	0x3c33f5f5	0.010983934
149	0x3c0a4d17	0.008441231
150	0x399891f9	0.00029100457
151	0xb89f9e98	-7.611251e-05
152	0x35116191	5.4158687e-07
153	0x31beffdf	5.558817e-09
154	0x3b069911	0.0020538012
155	0x3b429954	0.0029693441
156	0x39564653	0.00020434828
157	0xba7d253a	-0.0009656731
158	0x38345ab6	4.2999825e-05
159	0x3ae260c3	0.0017271269
160	0x39009f9d	0.00012266492
161	0xb8419111	-4.614989e-05
162	0xb51db352	-5.8748003e-07
163	0xbc293bf9	-0.01032924
164	0x3b8887e9	0.0041665924
165	0x3a13b4e4	0.000563456
166	0x3c26545c	0.010151949
167	0x38ce9029	9.8496974e-05
168	0xbb081935	-0.0020766978
169	0xbb5cac17	-0.003367191
170	0xb98fd76e	-0.00027435593
171	0xb9568695	-0.00020458766
172	0x3c1f8da8	0.009738363
173	0xbb2717ab	-0.0025496285
174	0xbc2ca34c	-0.01053698
175	0x3b617c77	0.0034406462
176	0x38e8c8d9	0.00011100033
177	0x3b38d8b3	0.0028205335
178	0x398d58ed	0.0002695987
179	0xb9821331	-0.0002480983
180	0x3b80ba21	0.0039284383
181	0x3bebc155	0.007194678
182	0xba82e6d2	-0.0009987003
183	0xb89dd470	-7.525913e-05
184	0xb99c0321	-0.0002975697
185	0x3c3826ab	0.011239688
186	0xbbb46368	-0.005505014
187	0x3c0d4df5	0.008624543
188	0x39a3c5d3	0.00031237173
189	0xbc20296e	-0.009775503
190	0x3b32a4cf	0.0027258878
191	0xbb13f492	-0.0022576195
192	0xbb56d62a	-0.003278146
193	0xba52ca5b	-0.00080410176
194	0xbc151f9c	-0.009101775
195	0xbb32672f	-0.0027222147
196	0xbbc28ad5	-0.00593696
197	0xb97b815d	-0.00023985417
198	0x39a3d607	0.00031249246
199	0x38780c05	5.9139e-05
200	0xbc367999	-0.01113739
201	0x3927da30	0.00016007642
202	0x3ba73200	0.005102396
203	0x3c35e17a	0.011101121
204	0x3a956fee	0.0011401155
205	0xb93815a2	-0.00017555666
206	0xb94c6902	-0.00019494075
207	0x3b84d4be	0.004053681
208	0x39caa289	0.0003864954
209	0x3c3a0b83	0.011355284
210	0xbb979d01	-0.0046268706
211	0x397815ac	0.00023659196
212	0xb7f14c90	-2.8765091e-05
213	0xb8134df9	-3.512015e-05
214	0xb97d0c41	-0.00024132525
215	0x3c24a233	0.010048437
216	0x3bd463ae	0.0064816093
217	0x3b778b40	0.0037772208
218	0xba4f565c	-0.0007909292
219	0x39474ade	0.00019006009
220	0x3b12a931	0.0022378678
221	0xbb06f807	-0.0020594613
222	0x3b854035	0.004066492
223	0xba951d6f	-0.001137657
224	0xbc31d20a	-0.0108533
225	0xba1a2979	-0.00058808137
226	0x3bf204d1	0.007385828
227	0x3c0adda6	0.008475697
228	0xb94ee811	-0.00019732142
229	0x3bc6d314	0.006067643
230	0xb69d8468	-4.6943787e-06
231	0x3991bb46	0.00027796085
232	0x3c04e541	0.008111299
233	0xb95fa80f	-0.00021329544
234	0x3b3be25a	0.0028668852
235	0x3bb779ff	0.00559926
236	0xbc36eb1f	-0.011164456
237	0x3b0a998e	0.0021148655
238	0xbb898b98	-0.004197549
239	0x3c382c2a	0.011240998
240	0xbbaab52f	-0.005209587
241	0x3b247039	0.0025091304
242	0xb76591f2	-1.3683444e-05
243	0xbc2eee92	-0.010676997
244	0xbbdf6f5f	-0.0068186964
245	0x39612ab8	0.00021473586
246	0x32b12cab	2.0625825e-08
247	0xb7d05c14	-2.483841e-05
248	0xbb9430b6	-0.0045224084
249	0x3a390256	0.0007057538
250	0x39d74180	0.00041056797
251	0x3967b527	0.00022097361
252	0x3bfe76fd	0.0077656494
253	0x3b0f5d67	0.002187574
254	0xb4b1bf05	-3.3107804e-07
255	0xbc135073	-0.008991349
