Comparisons/GCNII-master/pretrained/8ba44f24121443e69e883b08345b377b.pt (torch_old, 85412 bytes, 68 tensors)

convs.0.weight f4 [16, 16]
0	0xbdb4e05e	-0.08831857
1	0xbdb41cbc	-0.08794543
2	0xbba3337d	-0.004980503
3	0xbda68a9c	-0.081319064
4	0xbbe1f898	-0.0068960898
5	0x3c255d35	0.010093023
6	0x3d58e27c	0.052950367
7	0xbd8a5f1e	-0.067564234
8	0xbdacff43	-0.08447125
9	0x3db0df21	0.086363085
10	0xbdaefeaf	-0.08544671
11	0x3c4b43a4	0.0124062635
12	0xbdb1f189	-0.08688647
13	0x3c95fdd4	0.018309511
14	0xbd542dcf	-0.0518015
15	0xbc9068c2	-0.017628077
16	0xbdb54fdd	-0.08853123
17	0x3c8ad094	0.01694516
18	0x3d43433e	0.04767155
19	0x3b699f0b	0.0035647776
20	0x3d3be39e	0.04587137
21	0xbcb00602	-0.02148724
22	0x3cf266bb	0.029590001
23	0xbd9f26d7	-0.0777108
24	0x3db5eba0	0.088828325
25	0x3d3c0a13	0.045908045
26	0xb851b8b9	-5.000152e-05
27	0x3d8da4b6	0.06916182
28	0x3ce8aa9b	0.028401664
29	0x3d9a02a8	0.07520038
30	0xbda93f80	-0.08264065
31	0x3db207a4	0.086928636
32	0xbdb560e0	-0.08856368
33	0x3c75a352	0.014992552
34	0x3c5d344d	0.013501239
35	0xbd92ca47	-0.071674876
36	0x3c843651	0.016139181
37	0xbdb597d2	-0.08866848
38	0x3cc016fd	0.023448462
39	0x3c2d6675	0.01058351
40	0x3b2de546	0.0026534363
41	0xbb146f8e	-0.00226495
42	0xbd09d82b	-0.03365342
43	0xbdab22d2	-0.08356251
44	0xbd88684c	-0.06660518
45	0x3d1db8f9	0.03850648
46	0xbd88201f	-0.066467516
47	0x3c6327fb	0.013864513
48	0xbd6ba383	-0.057528984
49	0x3d8f70ac	0.07003912
50	0x3d995472	0.0748681
51	0x3cc9927c	0.024605982
52	0x3db48c10	0.08815777
53	0xbdb4b8ab	-0.08824285
54	0xbac8f82c	-0.001533275
55	0xbd01b147	-0.031663205
56	0xbc322a8d	-0.010874403
57	0xbd2d78a8	-0.042351395
58	0xbdb5bd46	-0.08873992
59	0x3dabf11d	0.08395598
60	0x3d12df56	0.03585752
61	0x3da4d81b	0.08049031
62	0xbc0723ea	-0.008248309
63	0x3c968faa	0.018379051
64	0xbbfcfd52	-0.007720628
65	0xbc14b499	-0.009076261
66	0xbdb42192	-0.087954655
67	0x3d8b4919	0.06801052
68	0x3d8cdec1	0.068784244
69	0x3d8c7fd2	0.06860317
70	0xbda9f04e	-0.082977876
71	0xbc7f42f7	-0.0155799305
72	0xbd9e7c27	-0.07738524
73	0x3db469b9	0.088092275
74	0x3d994d68	0.07485467
75	0x3db5c019	0.0887453
76	0x3da198c2	0.07890464
77	0xbcf01846	-0.02930845
78	0xbca6e5bf	-0.020373223
79	0xbdb32a1c	-0.08748266
80	0x3d71716b	0.058946054
81	0x3da48ae9	0.080343075
82	0xbd7a3023	-0.061081063
83	0x3cee5f98	0.029098317
84	0xbd8f1667	-0.06986695
85	0xbb97a0ed	-0.004627338
86	0xbd86f8e1	-0.06590439
87	0x3db5a097	0.08868521
88	0x3d68c524	0.056828633
89	0xbbe742d2	-0.007057526
90	0x3c08fc10	0.008360878
91	0xbb777b6d	-0.0037762776
92	0xbd8c701b	-0.0685732
93	0xbda400df	-0.08007979
94	0x3daf4fd5	0.085601486
95	0x3d7c0818	0.061531156
96	0xbda6fdfe	-0.08153914
97	0x3c86eee7	0.01647134
98	0x3ca160b6	0.019699436
99	0x3d9d35fa	0.07676311
100	0x3d87170f	0.06596195
101	0x3b8af6db	0.0042408532
102	0xbc9a9009	-0.01886751
103	0x3daf7e83	0.08569052
104	0x3d28be9d	0.041197408
105	0x3da4f2e9	0.08054144
106	0x3db1ebd6	0.0868756
107	0x3d821d13	0.06353202
108	0x3dadf849	0.08494622
109	0x3d974488	0.07386118
110	0xbd97f9df	-0.07420706
111	0x3c4a7d4f	0.012358977
112	0xbc0bfabb	-0.0085436655
113	0x3da3aa66	0.07991485
114	0x3d9d3d37	0.076776914
115	0x3c78df2c	0.015189927
116	0x3c86f114	0.016472377
117	0x3dad3c98	0.08458823
118	0x3d15dfb5	0.036590297
119	0x3d8d222f	0.06891286
120	0x3d327ea7	0.043577816
121	0x3cb8e389	0.022569435
122	0xbd114f90	-0.035476267
123	0x3da3441d	0.07971976
124	0x3da56d2c	0.080774635
125	0x3d898133	0.06714096
126	0x3c8fdd18	0.01756148
127	0x3db6d54a	0.089274004
128	0xbdb32577	-0.0874738
129	0xbc2e4879	-0.010637396
130	0xbdb04ec4	-0.08608773
131	0xbc18b0b0	-0.009319469
132	0x3db221ac	0.08697829
133	0xbda76c20	-0.0817492
134	0xbad36cca	-0.0016130444
135	0x3cc9947b	0.024606934
136	0x3db3ff29	0.08788902
137	0x3d98e6fa	0.0746593
138	0xba809fb8	-0.0009813225
139	0xbbe9f886	-0.007140222
140	0xbcd2fda8	-0.025755718
141	0x3db4cfff	0.088287346
142	0xbdb2508f	-0.087067716
143	0x3db0f881	0.08641148
144	0xbc6d362e	-0.0144782495
145	0x3c0e0675	0.008668532
146	0xbd7048a1	-0.058663014
147	0xbdb6146d	-0.08890615
148	0xbda81011	-0.082061894
149	0x3db60d80	0.08889294
150	0x3b7891f4	0.0037928792
151	0x3d15579d	0.036460508
152	0xbcc0dad9	-0.023541855
153	0x3db2fc3f	0.087395184
154	0xbda79c00	-0.081840515
155	0x3db0dccf	0.08635866
156	0xbd7c8b43	-0.061656248
157	0xbc9df37c	-0.019281141
158	0xbc5c4236	-0.01344352
159	0x3d8070f1	0.06271542
160	0xbda833dd	-0.08213017
161	0x3be1c547	0.0068899724
162	0x3c9ddf4b	0.019271513
163	0x3dacddc3	0.08440735
164	0xbd084793	-0.033271383
165	0xbc881c77	-0.016615136
166	0x3d387f3f	0.045043226
167	0xbdb08771	-0.086195834
168	0x3bd1e196	0.006405066
169	0x3d82cd82	0.06386854
170	0x3d69ef28	0.057112843
171	0xbd1bc694	-0.038031176
172	0xbd83f7e0	-0.06443763
173	0xbb7544e5	-0.0037425098
174	0x3d86a558	0.065745056
175	0x3c90383f	0.017604945
176	0x3db2fcb4	0.087396055
177	0xbca51658	-0.020152256
178	0xbdb57d71	-0.08861817
179	0x3da21f7e	0.07916163
180	0x3ba9c87f	0.0051813717
181	0xbd718f84	-0.058974758
182	0x3c58b8a3	0.013227615
183	0x3ca45441	0.020059707
184	0xbd750d43	-0.0598271
185	0xbd7740c6	-0.060364507
186	0xbcbbe8a9	-0.02293809
187	0xbc64da6e	-0.013968093
188	0xbb4ac1a2	-0.0030938168
189	0x3cc74481	0.024324657
190	0xbc62c2ec	-0.013840418
191	0x3b99e1c8	0.0046961047
192	0xbd97fde3	-0.07421472
193	0xbdb0751f	-0.08616089
194	0xbcdc74b5	-0.026911119
195	0xbbcd2ce2	-0.006261454
196	0x3d302b0e	0.04300981
197	0xbd16b412	-0.036792822
198	0x3b928c47	0.004472289
199	0x3a1141be	0.00055411074
200	0x3da852f2	0.082189456
201	0x3cb54016	0.022125285
202	0xbdb2b8c1	-0.08726645
203	0xbcd36039	-0.025802718
204	0xbd1b0ab8	-0.03785202
205	0x3d8e1c8b	0.06939038
206	0x3d905e45	0.070492305
207	0x3daa8e32	0.08327903
208	0x3c5d99f1	0.013525472
209	0xbc8977a3	-0.01678068
210	0xbd975845	-0.07389883
211	0xbd3ce43d	-0.046116102
212	0x3dac7e9c	0.08422586
213	0x3d8dc5da	0.06922503
214	0xbc80e213	-0.0157328
215	0xbd9d97ff	-0.076950066
216	0x3c8df46a	0.01732846
217	0xbb6e4f2b	-0.0036363106
218	0xbd0191df	-0.031633254
219	0x3cc5efd1	0.024162205
220	0x3d99f667	0.07517701
221	0xbdb02599	-0.08600921
222	0x3d34317a	0.043992497
223	0xbc29c4ac	-0.010361832
224	0x3d98cb1a	0.074606135
225	0xbda0f071	-0.078583606
226	0xbdb43953	-0.08799996
227	0xbcaf0b89	-0.021367805
228	0x3da8d380	0.082434654
229	0x3d9a2430	0.075264335
230	0x3db55ad8	0.08855218
231	0xbdb2c86f	-0.08729636
232	0xbd51e5a1	-0.05124438
233	0xbdb2cb6d	-0.08730207
234	0xbd764437	-0.06012365
235	0x3b7cd866	0.0038581132
236	0xbd341f9d	-0.04397546
237	0x3db480ff	0.088136666
238	0x3db0d408	0.08634192
239	0x3da3634e	0.07977925
240	0xbcfb5021	-0.030677857
241	0x3d5c27a5	0.053748745
242	0xbc21c3a7	-0.009873307
243	0x3d87512c	0.06607279
244	0xbc53f23c	-0.012936171
245	0x3daa9c2f	0.08330571
246	0x3d9c1864	0.0762184
247	0xbc797c4f	-0.015227391
248	0x3b912737	0.0044297236
249	0xbd91c341	-0.0711732
250	0x3c479a6e	0.012182815
251	0x3db0e98a	0.08638294
252	0xbc61adb7	-0.013774327
253	0x3d56fd86	0.052487873
254	0x3bf31ad9	0.007418972
255	0x3da0dc29	0.07854492

convs.1.weight f4 [16, 16]
0	0xbd843837	-0.06456035
1	0x3da86b5d	0.08223603
2	0xbd6726c6	-0.05643346
3	0xbd33062a	-0.04370705
4	0xbdad0487	-0.08448129
5	0x3db50c83	0.08840277
6	0xbdae1434	-0.08499947
7	0x3d49e416	0.049289785
8	0xbcb7ef0b	-0.022452852
9	0xbda2af1d	-0.079435565
10	0xbc90b88a	-0.01766612
11	0xbd356b64	-0.04429187
12	0xbbb05608	-0.0053813495
13	0x3db383bc	0.08765361
14	0xbd51c528	-0.051213413
15	0x3d992649	0.074780054
16	0xbd92c82d	-0.07167087
17	0xbdb3348c	-0.08750257
18	0xbda17cd5	-0.07885138
19	0xbba12e3a	-0.0049188407
20	0x3db4ba63	0.08824613
21	0x3bca7d5a	0.006179494
22	0xbd82a31e	-0.063787684
23	0x3d98b510	0.0745641
24	0xbbbe8e04	-0.0058152694
25	0x3d8d3f54	0.068968445
26	0xbcfbda95	-0.030743876
27	0x3d5e0024	0.054199353
28	0x3cf7cdf6	0.030249577
29	0x3c37d2bc	0.011219677
30	0x3da0a396	0.078437015
31	0xbdb49818	-0.08818072
32	0xbdb3286b	-0.087479435
33	0xbc83da1f	-0.01609522
34	0xbcb734b9	-0.022364007
35	0x3cf4f528	0.029902056
36	0x3da93f3f	0.08264016
37	0x3d9c8d71	0.07644165
38	0xbcb908eb	-0.02258726
39	0x3d81d64f	0.06339704
40	0x3d990f28	0.07473594
41	0xbd08e783	-0.03342391
42	0x3c7e34bb	0.015515502
43	0x3c556b03	0.013026002
44	0x3d22d3c7	0.039752748
45	0xbc06ed51	-0.008235292
46	0x3c9325b9	0.017962324
47	0x3d519ff0	0.05117792
48	0x3db5313d	0.08847282
49	0xbdb33964	-0.08751181
50	0x3ce6bacd	0.028165245
51	0x3b3a5dbb	0.0028437215
52	0x3c9468b2	0.018116329
53	0x3d174915	0.03693493
54	0xbda3c94e	-0.0799738
55	0xbd3b6512	-0.045750685
56	0x3daf17de	0.08549474
57	0xbce03982	-0.027371172
58	0xbda0c6ff	-0.078504555
59	0x3b52a43a	0.0032141344
60	0xbda1a391	-0.07892526
61	0xbd9a4212	-0.07532133
62	0xbc86afab	-0.016441187
63	0x3c15676e	0.009118898
64	0x3da8457e	0.082163796
65	0xbc19e5ac	-0.009393137
66	0xbdb2157e	-0.086955056
67	0xbd6f2ecf	-0.05839425
68	0x3d9629c8	0.07332188
69	0x3db5be33	0.08874168
70	0x3da50565	0.080576696
71	0x3d9a26ad	0.07526908
72	0x3db5573e	0.08854531
73	0xbb85ae7f	-0.0040796394
74	0xbda2a407	-0.07941442
75	0x3c74d48a	0.014943251
76	0x3db45ca2	0.08806731
77	0x3db5c703	0.08875849
78	0xbd62caca	-0.055369176
79	0x3db3345c	0.08750221
80	0xbca5c467	-0.020235253
81	0xbd518e46	-0.051161073
82	0x3d3e4ccf	0.04645997
83	0xbcc24b2a	-0.023717482
84	0xbcfcddd8	-0.030867502
85	0xbb9aed2c	-0.00472798
86	0x3d6aa2b1	0.05728406
87	0x3dab4f4f	0.08364736
88	0x3db58a33	0.0886425
89	0x3d7ce01b	0.06173716
90	0xbd9dd7e8	-0.077071965
91	0x3d55057b	0.05200718
92	0x3da1940e	0.07889567
93	0x3b8ed9f9	0.0043594805
94	0x3ac8e900	0.0015328228
95	0xbd8180f6	-0.063234255
96	0xbdb47ce2	-0.08812882
97	0xbd83a8d3	-0.06428685
98	0x3d994c64	0.074852735
99	0x3cf62fe1	0.030052127
100	0xbd8ed3bc	-0.06973979
101	0xbcea54c7	-0.028604878
102	0x3d8ac56a	0.06775935
103	0xbda01065	-0.07815627
104	0x3cbb82ad	0.02288946
105	0x3d865fb6	0.06561224
106	0x3da983b3	0.08277073
107	0x3d1ce1df	0.038301345
108	0xbd259c96	-0.040432535
109	0x3bda2ee6	0.0066584228
110	0x3c302d01	0.010752917
111	0x3db5107b	0.08841034
112	0x3da3a06d	0.07989583
113	0x3d2d57b9	0.042319987
114	0xbda7b2cf	-0.08188402
115	0xbd886af5	-0.066610254
116	0x3d896fc6	0.06710772
117	0xbc9ba152	-0.018997822
118	0x3db180dd	0.08667157
119	0x3d54944a	0.051899232
120	0x3c59a390	0.013283625
121	0xbd80b60f	-0.06284725
122	0xbdb435bb	-0.08799311
123	0x3da68085	0.08129982
124	0xbda0e579	-0.078562684
125	0x3daad2aa	0.08340962
126	0xbcbca9eb	-0.023030242
127	0xbdb1d74d	-0.086836435
128	0x3d30a586	0.043126605
129	0xbda80b3d	-0.082052685
130	0x3db178df	0.086656325
131	0x3cc76002	0.024337772
132	0xbd89777d	-0.06712244
133	0xbbeab5f0	-0.007162802
134	0xbc1c5e88	-0.009544022
135	0x3d04e3a3	0.032443654
136	0xbda6aeb4	-0.08138791
137	0xbd5c6a1e	-0.05381214
138	0xbc4711f0	-0.012150273
139	0x3d84bed3	0.06481709
140	0x3db55f8d	0.088561155
141	0x3cc46ec4	0.023978598
142	0xbb8736d1	-0.0041264077
143	0x3d3ce51c	0.046116933
144	0xba381319	-0.0007021889
145	0xbda2ce68	-0.07949525
146	0x3d06c230	0.032900035
147	0x3d1c2600	0.038122177
148	0xbb8d5334	-0.004312897
149	0x3da96482	0.082711235
150	0x3da2ab5c	0.079428405
151	0x3d501f19	0.050810907
152	0x3d6a6c38	0.05723211
153	0xbc1747e7	-0.009233451
154	0x3b140444	0.002258555
155	0x3cd5ffa4	0.026122876
156	0xbda015d5	-0.07816664
157	0xbc97f686	-0.018550169
158	0xbdacaff0	-0.08431995
159	0x3d56eae6	0.05247011
160	0x3cf72f7d	0.030174011
161	0xbcb369ff	-0.021901129
162	0x3da00b7a	0.07814689
163	0x3d9c287d	0.0762491
164	0xbd1b9a64	-0.037989035
165	0x3cb10e2a	0.0216132
166	0x3db351ff	0.08755874
167	0xbd8bbfb4	-0.06823674
168	0xbdb5b7ab	-0.088729225
169	0x3c7e280f	0.01551248
170	0xbc680b75	-0.014162888
171	0x3da506ae	0.08057915
172	0x3caf026e	0.021363463
173	0x3b788347	0.0037920044
174	0xbd488566	-0.048955344
175	0xbca0d56a	-0.019633014
176	0x3cdd6ea8	0.027030304
177	0xbd83b736	-0.06431429
178	0x3db5e36c	0.08881268
179	0xbd962412	-0.073310986
180	0x3cd0b2b2	0.025475834
181	0x3d2fa479	0.042881463
182	0xbc30785a	-0.010770882
183	0x3ca912c7	0.020638837
184	0x3bc8e83b	0.0061311997
185	0xbdafb384	-0.08579162
186	0xbd270cc0	-0.040783644
187	0xbdb5c654	-0.08875719
188	0xbd9ea2aa	-0.077458695
189	0x3d59385c	0.053032264
190	0x3db02521	0.08600832
191	0xbdb5a229	-0.0886882
192	0xbdb5d90c	-0.08879289
193	0x3db4c4aa	0.08826573
194	0xbd09a31b	-0.033602815
195	0x3d9a47bb	0.07533213
196	0x3db4eee5	0.08834628
197	0x3c3c98d1	0.011511044
198	0x3b411854	0.0029463964
199	0x3c075330	0.00825958
200	0xbb0c3f97	-0.0021400207
201	0xbda5b6b6	-0.0809149
202	0x3c8ef92e	0.017452803
203	0x3d8b05e9	0.06788237
204	0xbd1834b7	-0.037159648
205	0x3b937ffc	0.004501341
206	0xbc9c0960	-0.01904744
207	0x3dab5add	0.0836694
208	0xbcbcfc82	-0.023069624
209	0x3d6d77e5	0.05797567
210	0x3db3b798	0.08775252
211	0x3d814823	0.06312587
212	0xbd9e264e	-0.0772215
213	0xbdb10ca6	-0.086449906
214	0xbdaa729e	-0.08322643
215	0xbd8a4e55	-0.06753222
216	0xbdb40782	-0.087904945
217	0xbc97680f	-0.018482236
218	0x3d821efc	0.06353566
219	0xbd64807c	-0.055786595
220	0x3d725785	0.059165496
221	0x3da2a294	0.079411656
222	0x3c417d17	0.011809609
223	0x3c0de023	0.008659395
224	0xbd7057ef	-0.05867761
225	0x3cd16938	0.025562868
226	0x3d8aac07	0.06771093
227	0x3c969b1c	0.018384509
228	0x3d8adf7b	0.06780907
229	0x3d9b7fb2	0.07592715
230	0xbd749ddf	-0.05972087
231	0xbc73c503	-0.014878514
232	0xbda75347	-0.08170181
233	0xbd9c9d2d	-0.076471664
234	0xbba68b5a	-0.00508253
235	0xbc92f3c6	-0.017938506
236	0x3bb0e260	0.0053980798
237	0x3d2f4472	0.042789884
238	0xbd0defef	-0.034652647
239	0x3d30f1e2	0.043199427
240	0xbcbaa1e3	-0.022782272
241	0xbda46ac6	-0.08028178
242	0xbb782a33	-0.003786695
243	0x3d0b19fb	0.033960324
244	0xbb8e5d04	-0.0043445844
245	0x3d556140	0.052094698
246	0x3c713396	0.014721772
247	0xbdb2e604	-0.08735278
248	0xbdb5d35f	-0.088782065
249	0xbd390729	-0.045172844
250	0x3db143f7	0.086555414
251	0x3d7d82e2	0.061892398
252	0xbbe600f4	-0.0070191566
253	0xbc513c9e	-0.0127708
254	0x3d043e1e	0.032285802
255	0x3da6d5e6	0.08146267

convs.2.weight f4 [16, 16]
0	0xbc179344	-0.009251419
1	0x3db4a446	0.08820395
2	0x3d961da6	0.07329874
3	0x3db3dafd	0.08782003
4	0xbdaea82d	-0.08528171
5	0x3da14029	0.07873566
6	0xbdb3dee6	-0.08782749
7	0xbd222927	-0.039590027
8	0xbcb21070	-0.021736354
9	0xbd941204	-0.07229999
10	0xbcee8d1c	-0.02912002
11	0xbd9486c0	-0.07252264
12	0xbdaeefa8	-0.085418046
13	0x3daf239f	0.08551716
14	0xbccbb3de	-0.02486604
15	0x3c475b69	0.01216779
16	0x3bfcc671	0.0077140857
17	0x3c8c690d	0.017139936
18	0x3af8b33a	0.0018974312
19	0x3d52d01c	0.051468
20	0xbc9ebaf2	-0.019376252
21	0xbda0ab68	-0.07845193
22	0xbda1b340	-0.07895517
23	0xbd2010e2	-0.0390786
24	0x3da269d6	0.07930343
25	0x3d1d4cd7	0.03840336
26	0x3da44e8b	0.080227934
27	0xbdb54f6c	-0.08853039
28	0x3d8f1ea0	0.06988263
29	0xbd0e63ab	-0.03476302
30	0xbbd72623	-0.0065658255
31	0x3c609d69	0.0137094045
32	0xbda25586	-0.079264686
33	0x3ce6b5d5	0.028162876
34	0xbd8894c4	-0.06669
35	0xbdb5e525	-0.088815965
36	0xbdb595d4	-0.08866468
37	0x3c94e1c7	0.018174065
38	0xbbcef840	-0.006316215
39	0xbd53e000	-0.051727295
40	0xbb044ffd	-0.0020189278
41	0xbd44c0a6	-0.048035286
42	0xbbea0061	-0.0071411585
43	0x3da381c7	0.079837374
44	0xbcf4b00d	-0.029869104
45	0x3c868fc3	0.016425973
46	0xbd2902ea	-0.041262545
47	0xbd98b1ac	-0.07455763
48	0xbda4e08e	-0.08050643
49	0xbda11d64	-0.07866934
50	0x3d18e2b5	0.03732558
51	0x3db008e5	0.085954465
52	0x3da9bc97	0.08287924
53	0x3d93cf07	0.07217222
54	0x3dad2ec9	0.08456189
55	0x3d660a9f	0.056162473
56	0x3da5de32	0.08099021
57	0x3da5b476	0.08091061
58	0x3d8cc617	0.0687372
59	0x3d9a4a02	0.07533647
60	0x3d909f0d	0.070615865
61	0xbcc57b30	-0.024106592
62	0xbdb39c94	-0.08770099
63	0x3b935382	0.004496039
64	0x3b19a5d4	0.0023444789
65	0xbd7c3091	-0.061569754
66	0x3d5f26ad	0.054480243
67	0x3d499f38	0.04922411
68	0xbd916dd5	-0.07101027
69	0x3daea342	0.08527233
70	0x3ca6a9df	0.020344673
71	0xbdacb01b	-0.08432027
72	0x3c6d2b34	0.014475632
73	0x3b0e5433	0.0021717667
74	0x3d894261	0.06702114
75	0xbd30e9ec	-0.043191835
76	0x3d187fee	0.03723138
77	0x3b899ad3	0.0041993647
78	0xbcd1b677	-0.025599701
79	0xbdaeb830	-0.08531225
80	0x3db4c124	0.08825901
81	0x3d24521f	0.04011738
82	0x3d64ad12	0.055829115
83	0x3db5edbd	0.088832356
84	0xbd06bdfd	-0.03289603
85	0x3dad36f2	0.084577456
86	0xbda8fdfb	-0.08251568
87	0x3cb31393	0.02185992
88	0x3d7eb120	0.06218064
89	0xbd7573a2	-0.05992473
90	0x3da157d4	0.0787808
91	0x3ccedc8b	0.025251647
92	0xbc385612	-0.0112509895
93	0x3db1c6f5	0.08680526
94	0x3d9704cf	0.07373964
95	0xbc7c3760	-0.015394062
96	0xbdb45b03	-0.088064216
97	0xbd9de443	-0.07709553
98	0xbd972ccd	-0.07381592
99	0x3d8c89a9	0.06862194
100	0x3d9c6e33	0.07638206
101	0xbdae668d	-0.08515654
102	0xbca14d5a	-0.019690204
103	0x3d26b796	0.040702425
104	0x3c96db5b	0.018415144
105	0x3db5ba10	0.08873379
106	0x3c80e474	0.015733935
107	0xbd9e6ef2	-0.07736005
108	0xbb8a7db0	-0.004226409
109	0xbd1abca7	-0.03777757
110	0x3db3fab8	0.08788055
111	0x3d84a330	0.06476438
112	0xbd2b5e62	-0.041838057
113	0x3d92b836	0.07164042
114	0xbca488a6	-0.02008469
115	0xbcf51137	-0.029915435
116	0x3d9b9c26	0.07598142
117	0xbb8d15ae	-0.004305563
118	0x3d9e87ed	0.077407695
119	0x3d5a2f60	0.053267837
120	0xbcca4038	-0.024688825
121	0xbdb5f8e6	-0.08885364
122	0xbb00e477	-0.0019667426
123	0x3cfb9827	0.0307122
124	0x3da8f9b0	0.08250749
125	0x3d70e905	0.058815975
126	0x3dadf783	0.08494475
127	0xbbb08490	-0.0053868964
128	0x3c1e49bf	0.009661137
129	0x3da316b2	0.07963313
130	0xbdae5f5e	-0.085142836
131	0xbd949881	-0.0725565
132	0x3d9b8509	0.07593734
133	0x3d4f5d05	0.05062582
134	0xbc61b3e8	-0.013775803
135	0xbc1a1830	-0.009405181
136	0xbcc2562f	-0.023722736
137	0x3d303a9a	0.043024637
138	0xbdb5be76	-0.08874218
139	0x3d8414f3	0.06449308
140	0xbdb41586	-0.08793168
141	0x3d13f92b	0.036126297
142	0x3c271686	0.010198241
143	0xbdb5b614	-0.08872619
144	0xbc79a87a	-0.015237922
145	0x3d864367	0.06555825
146	0xbc7e732a	-0.015530387
147	0xbdb59352	-0.0886599
148	0x3db225b5	0.08698598
149	0x3c2806d9	0.010255539
150	0x3d9afef8	0.07568163
151	0xbd768c66	-0.060192488
152	0xbcb6fb2d	-0.022336567
153	0x3d1df5b7	0.03856441
154	0xbd13f322	-0.03612054
155	0x3d28dd89	0.041226897
156	0xbd82ff52	-0.06396355
157	0x3db62db7	0.08895438
158	0xbc8bd405	-0.017068872
159	0xbd25c869	-0.04047433
160	0xbd989fcf	-0.07452356
161	0xbd6c93c5	-0.05775811
162	0x3dafb4a7	0.085793786
163	0xbdb544ec	-0.088510364
164	0xbbd0f3a0	-0.0063766986
165	0xbc01cd28	-0.007922448
166	0x3da83681	0.08213521
167	0xbc831f2d	-0.016006077
168	0xbdab5e15	-0.08367554
169	0x3c921cd9	0.017836021
170	0x3d8944bd	0.06702564
171	0xbc04361a	-0.008069539
172	0x3c480519	0.012208247
173	0xbda776ba	-0.08176942
174	0x3daf2da4	0.08553627
175	0x3c2fd2cb	0.010731409
176	0x3d9de398	0.07709426
177	0x3cdaa82b	0.026691517
178	0xbc2be873	-0.010492432
179	0xbd9e7c47	-0.07738548
180	0x3c73bf7d	0.014877197
181	0xbd9b4849	-0.07582147
182	0x3c35f512	0.011105793
183	0xbd882e31	-0.06649435
184	0xbdb5cac3	-0.08876564
185	0xbdb36a56	-0.08760516
186	0x3d843e36	0.06457178
187	0xbda64f14	-0.08120552
188	0xbd8edc5a	-0.069756225
189	0x3d43ec72	0.047832914
190	0x3d4ed808	0.050498992
191	0x3db330b3	0.08749523
192	0x3b8185a7	0.0039527
193	0x3db56ef6	0.08859055
194	0xbd0b8118	-0.03405866
195	0xbc2f5410	-0.010701194
196	0x3daf08ec	0.085466236
197	0x3b0893b3	0.0020839989
198	0xbd05568e	-0.032553248
199	0xbd36da95	-0.04464205
200	0xbd875a38	-0.06609005
201	0x3d98e7b4	0.07466069
202	0xbda6b772	-0.08140458
203	0xbdb31e8f	-0.08746063
204	0xbce1fdb1	-0.02758679
205	0x3da74a14	0.08168426
206	0x3ca5baf2	0.020230744
207	0x3b066e7c	0.002051263
208	0xbb67f176	-0.0035391725
209	0xbd854481	-0.06507207
210	0xbcaeb51a	-0.02132659
211	0xbdb600fb	-0.08886906
212	0x3cbc56c5	0.022990594
213	0xbc84ded5	-0.016219536
214	0xbca47907	-0.020077242
215	0x3db3bc16	0.08776109
216	0x3d9d11c4	0.07669404
217	0x3d734c4f	0.059398945
218	0xbda56386	-0.08075623
219	0x3da231cd	0.07919655
220	0x3daed126	0.08535986
221	0xbd843a59	-0.064564414
222	0xbd7effb4	-0.062255576
223	0xbdb48cdb	-0.088159285
224	0x3db3efa6	0.08785944
225	0x3db092c1	0.08621741
226	0xbd6f0d72	-0.05836243
227	0xbdaeeeda	-0.08541651
228	0xbd8cfaca	-0.06883772
229	0x3c83e8cd	0.016102219
230	0xbc70a33e	-0.0146873575
231	0xbda0da36	-0.078541204
232	0x3d99c11b	0.07507535
233	0x3d335f41	0.043792013
234	0xbda966fc	-0.08271596
235	0x3da5449b	0.08069726
236	0x3d825efe	0.063657746
237	0xbdb03cdd	-0.08605359
238	0xbc2e1e27	-0.010627306
239	0xbc53aa2e	-0.012918992
240	0x3d0cb209	0.034349475
241	0xbd310099	-0.04321346
242	0xbda723e9	-0.08161146
243	0x3d8d4bf4	0.068992525
244	0x3d3549fe	0.044260018
245	0xbd4cf7a5	-0.05004086
246	0x3da6ec86	0.08150582
247	0xbd9ce3c0	-0.07660627
248	0x3d649fb7	0.05581638
249	0xbb8fb4ab	-0.004385551
250	0xbb1e3f38	-0.0024146568
251	0x3d9be2be	0.07611607
252	0x3d9b1f42	0.07574321
253	0xbd8515c9	-0.06498296
254	0x3b449ee7	0.003000194
255	0x3da35d33	0.07976761

convs.3.weight f4 [16, 16]
0	0x3d99464a	0.0748411
1	0xbd99ef4b	-0.07516345
2	0xbcc7ca8d	-0.024388576
3	0xbce86ed3	-0.028373158
4	0x3d8cffff	0.06884765
5	0x3d1f67b0	0.038917243
6	0xbc886e04	-0.016654022
7	0xbc553a50	-0.013014391
8	0x3da58e57	0.0808379
9	0x3d041413	0.032245707
10	0x3cdb45bf	0.026766656
11	0xbca09031	-0.019600006
12	0x3c92fe7b	0.017943611
13	0x3cdf3982	0.027249102
14	0x3b634216	0.0034676841
15	0xbcc04fee	-0.023475613
16	0x3d77f5b3	0.06053705
17	0x3d99504c	0.074860185
18	0xbd760446	-0.06006267
19	0x3b94f53c	0.004545836
20	0x3d6be0bc	0.05758737
21	0xbd9e3924	-0.077257425
22	0x3d312036	0.04324361
23	0xbda2d412	-0.079506055
24	0xbd6adac5	-0.05733754
25	0x3db32436	0.08747141
26	0xbd99b321	-0.07504869
27	0x3da645a4	0.08118752
28	0x3d82f0d6	0.06393592
29	0xbc76378f	-0.015027895
30	0x3da25304	0.0792599
31	0xbd9bccea	-0.07607444
32	0xbc2876d4	-0.010282237
33	0xbce146e5	-0.027499625
34	0x3dab060b	0.08350762
35	0xbd881a1f	-0.06645607
36	0x3c14c498	0.009080075
37	0x3db4875b	0.088148795
38	0x3c8c2bdf	0.017110763
39	0xbd567855	-0.05236085
40	0xbdaf91f0	-0.08572757
41	0x3d901aa8	0.07036334
42	0x3d5dd226	0.05415549
43	0x3c3e9557	0.011632285
44	0x3b10e4f3	0.002210912
45	0xbccb3322	-0.024804655
46	0xbd81c9a1	-0.06337286
47	0xbbbae33e	-0.005703359
48	0xbd837098	-0.0641796
49	0xbdb19fe0	-0.08673072
50	0xbb68a57a	-0.0035499022
51	0xbdacc8be	-0.08436726
52	0xbd5a65d7	-0.05331978
53	0xbdacb058	-0.084320724
54	0x3d8627db	0.065505706
55	0x3d5fa8db	0.054604392
56	0x3af40512	0.0018617234
57	0x3d1a9aeb	0.037745398
58	0xbd8d7183	-0.06906416
59	0x3d86a6f6	0.06574814
60	0xbd655bbf	-0.0559957
61	0x3ca88eeb	0.020575961
62	0xbd8e67ea	-0.06953414
63	0xbd1ad161	-0.037797336
64	0x3dade374	0.08490649
65	0x3d820be4	0.06349924
66	0x3daefa3f	0.085438244
67	0xbd61c4f6	-0.055119477
68	0x3da13f2d	0.07873378
69	0xbd02cfcc	-0.03193645
70	0x3bfad222	0.0076544443
71	0x3d81b250	0.063328385
72	0xbad8dde5	-0.0016545622
73	0x3d9bf93d	0.07615898
74	0x3dad322b	0.084568344
75	0x3da8b118	0.08236903
76	0x3bca9776	0.0061826063
77	0x3caf0c26	0.021368098
78	0x3c8ecf36	0.01743279
79	0xbc4f4a66	-0.012652015
80	0xbd46d82e	-0.04854601
81	0xbda6c5f9	-0.08143229
82	0xbca7de81	-0.02049184
83	0x3cdaf1c5	0.026726613
84	0x3da32ba4	0.07967308
85	0xbcac3bd1	-0.021024616
86	0x3d61000a	0.054931678
87	0xbd6c0b0a	-0.057627715
88	0xbda0b232	-0.07846488
89	0xbccd231b	-0.025041154
90	0xbda2d3b0	-0.079505324
91	0xbda0bb26	-0.07848196
92	0x3c07afd6	0.008281669
93	0x3daffc1c	0.08593008
94	0xbdaaf617	-0.08347719
95	0x3d4be860	0.049782157
96	0x3d496edd	0.049177993
97	0xbdb35730	-0.08756864
98	0xbdb59dbf	-0.08867978
99	0xbbc9e5a0	-0.0061614066
100	0x3d14f756	0.03636869
101	0x3db2df9b	0.087340556
102	0xbcd03da6	-0.025420021
103	0xbd9f0733	-0.07765045
104	0x3b7c1cba	0.003846927
105	0x3d003188	0.031297237
106	0xbc141565	-0.009038304
107	0x3c99eb16	0.018788856
108	0xbd8c7e6a	-0.06860049
109	0x3d15aa1a	0.036539175
110	0xbd9b5841	-0.075851925
111	0xbc604c12	-0.013690012
112	0xbd1dbd30	-0.0385105
113	0xbd00c5c5	-0.031438608
114	0x3c81206f	0.015762536
115	0xbd9522cb	-0.07282027
116	0xbd9451ee	-0.07242189
117	0xbda4eab4	-0.080525786
118	0xbdb5249b	-0.088448726
119	0xbb712caf	-0.0036800315
120	0x3db22a78	0.086995065
121	0x3c54cef5	0.0129887955
122	0xbd34f4e1	-0.044178847
123	0xbb51c85b	-0.003201029
124	0xbc7399fc	-0.014868256
125	0x3d1c0b7c	0.03809689
126	0xbdb02db1	-0.08602465
127	0xbc196d17	-0.009364388
128	0x3ca2dd69	0.019880967
129	0x3cfd3649	0.030909674
130	0xbb8670e7	-0.0041028145
131	0x3cce6c99	0.025198268
132	0xbda9f3eb	-0.08298477
133	0xbd79a63d	-0.060949553
134	0xbda944db	-0.08265086
135	0x3d345cd1	0.04403383
136	0x3c255be5	0.01009271
137	0xbc96f851	-0.018428953
138	0x3da15272	0.07877053
139	0x3cf71387	0.030160679
140	0xbd1274cb	-0.035755914
141	0x3d8478ba	0.06468339
142	0x3db5949a	0.08866234
143	0xbdac594d	-0.0841547
144	0xbdb56658	-0.08857411
145	0xbd3f4543	-0.046696912
146	0xbd9ffea9	-0.078122444
147	0x3cf0e850	0.02940765
148	0xbc6c6db5	-0.014430453
149	0xbcb6f898	-0.022335336
150	0xbc76b4d2	-0.015057759
151	0xbc1dbd85	-0.0096277045
152	0x3db40130	0.08789289
153	0x3b2cfc2a	0.0026395419
154	0x3d8e7e41	0.06957675
155	0x3d20847b	0.039188843
156	0xbd9c3752	-0.07627739
157	0x3c0760c1	0.008262814
158	0x3c2c2ca7	0.010508693
159	0xbd8dff20	-0.06933427
160	0x3cb367fb	0.021900168
161	0xbcfff4fc	-0.031244747
162	0xbda3aaca	-0.0799156
163	0x3cfa3639	0.030543434
164	0x3dad3fb2	0.084594145
165	0x3d843d73	0.06457033
166	0xba9e4bcd	-0.0012077034
167	0x3d4bdb2b	0.04976956
168	0x3d731d90	0.059354365
169	0xbcede819	-0.029041337
170	0x3c700588	0.014649756
171	0x3c450019	0.012023949
172	0x3db59e4e	0.08868085
173	0x3c2a9619	0.010411763
174	0x3d0b07e0	0.033943057
175	0x3c5e92d7	0.013584814
176	0x3da96ced	0.08272729
177	0x3bfa5a4b	0.0076401583
178	0x3db110eb	0.08645805
179	0x3db59578	0.088663995
180	0x3db50f26	0.0884078
181	0xbd057ea1	-0.032591466
182	0x3d8de039	0.06927533
183	0x3d00500f	0.03132635
184	0xbdb5d930	-0.08879316
185	0xbd7a694c	-0.061135575
186	0xbd8746d7	-0.066053085
187	0x3da0c617	0.07850283
188	0x3dad9909	0.08476455
189	0x3cc0dadf	0.023541866
190	0xbdb45d6a	-0.0880688
191	0x3cd4d42f	0.025980083
192	0x3db314dc	0.08744213
193	0x3d36025c	0.044435844
194	0x3db59c1c	0.08867666
195	0xbbe606ba	-0.007019845
196	0xbad89b8b	-0.0016525848
197	0xbdaf8733	-0.08570709
198	0xbc0ed173	-0.008716929
199	0xbc675c3c	-0.0141211115
200	0x3c720b0d	0.0147731425
201	0x3adfa5f7	0.0017063011
202	0xbcd9180e	-0.026500728
203	0xbcddd7a9	-0.027080374
204	0x3b2c2bb8	0.0026271176
205	0x3cd3bed9	0.02584784
206	0xbdb15303	-0.08658411
207	0xbc8dc3ab	-0.017305216
208	0x3cd30bcb	0.02576246
209	0xbd944d26	-0.072412774
210	0xbdb549ef	-0.08851992
211	0xbd98d80b	-0.07463082
212	0xbb86ec3b	-0.0041175163
213	0x3c8e0afd	0.017339224
214	0xbd6b6e88	-0.057478458
215	0xbdb0ad0d	-0.08626757
216	0x3d9b2e09	0.0757714
217	0xbca35d70	-0.019942015
218	0x3da495ca	0.080363825
219	0x3c4c76e1	0.012479515
220	0xbd013710	-0.031546652
221	0xbc1682cc	-0.009186458
222	0xbd028b7a	-0.031871296
223	0xbd2e47dd	-0.042549003
224	0xbc73af89	-0.014873394
225	0x3db2fc96	0.08739583
226	0xbdb5d4aa	-0.08878453
227	0x3d67cb38	0.05659029
228	0xbcc03b87	-0.023465885
229	0x3ce95c9a	0.028486539
230	0xbd16718e	-0.036729388
231	0x3da26428	0.079292595
232	0xbd394b9d	-0.045238126
233	0x3d33a43a	0.04385779
234	0x3d72eecc	0.059309766
235	0x3b965835	0.004588152
236	0x3d74ff5d	0.059813846
237	0x3d3d6c30	0.046245754
238	0x3c86b2ab	0.016442617
239	0x3cbe45e6	0.02322669
240	0x3d05834e	0.032595925
241	0xbb238e21	-0.0024956542
242	0x3b5b8f26	0.0033502071
243	0x3db55fa9	0.08856136
244	0x3d8eb78f	0.06968605
245	0x3d303590	0.04301983
246	0x3c929130	0.017891496
247	0xbd829288	-0.06375605
248	0x3daa2a7d	0.08308885
249	0xbc3fa12c	-0.011696141
250	0xbd862c18	-0.06551379
251	0xbd836641	-0.06415988
252	0x3da40bb2	0.08010043
253	0x3cc6b2da	0.024255205
254	0x3db06dc6	0.086146876
255	0x3d9676be	0.07346867

convs.4.weight f4 [16, 16]
0	0xbd83a6c0	-0.064282894
1	0xbc89bc78	-0.016813502
2	0xbd0e458e	-0.0347343
3	0x3d8a4c14	0.06752792
4	0x3c87bfa3	0.016570872
5	0x3d8e9641	0.069622524
6	0xbd64de2e	-0.05587595
7	0x3d1e1dd2	0.038602658
8	0xbb81c1a9	-0.0039598537
9	0x3daf3963	0.085558675
10	0x3d348b91	0.044078413
11	0xbda0cab4	-0.078511626
12	0xbd57447c	-0.052555546
13	0x3d7bd709	0.06148437
14	0x3d312889	0.043251548
15	0xbcc0a2b3	-0.023515081
16	0x3db5ae36	0.08871119
17	0xbdb5e770	-0.08882034
18	0x3d2edbc5	0.042690057
19	0x3c0c06ea	0.00854657
20	0x3cedbf00	0.02902174
21	0x3d445fb1	0.04794282
22	0x3c798770	0.015230045
23	0xbcb623ff	-0.022233961
24	0x3bcb6cca	0.006208037
25	0x3d53e8eb	0.0517358
26	0xbd9cf464	-0.07663801
27	0xbc8b8acc	-0.017033957
28	0x3d908116	0.07055871
29	0x3d441223	0.04786886
30	0xbd9a93af	-0.075477
31	0xbb102de6	-0.0022000014
32	0xbc95b086	-0.01827265
33	0x3d03dc99	0.0321928
34	0xbb5fb5f6	-0.0034135557
35	0x3db284fc	0.08716771
36	0x3db5ecb7	0.088830404
37	0xbd89eacc	-0.06734237
38	0xbdb1098e	-0.086444005
39	0xbd9fe807	-0.078079276
40	0x3daeaa27	0.08528548
41	0xbd7fa838	-0.062416285
42	0x3d923673	0.071392916
43	0xbd8c9741	-0.06864787
44	0xbdaea15a	-0.08526869
45	0xbdb5799d	-0.088610865
46	0xbdae4404	-0.08509067
47	0xbd93da5c	-0.07219383
48	0x3d2bee37	0.041975226
49	0xbd3a9793	-0.04555471
50	0x3ca5c7d8	0.020236894
51	0xbd1c72e3	-0.038195502
52	0x3c475876	0.012167087
53	0xbd2b656c	-0.04184477
54	0x3daee8f2	0.085405245
55	0xbb1c32bb	-0.0023833949
56	0x3d76f5d8	0.06029305
57	0x3c878676	0.016543608
58	0x3d97c497	0.074105434
59	0x3da9d9c3	0.08293488
60	0x3d1274d9	0.035755966
61	0xbd9a934c	-0.07547626
62	0xbda7df2d	-0.08196864
63	0xbd894b69	-0.067038365
64	0x3d72be35	0.059263427
65	0x3d99c231	0.07507742
66	0xbcc3d18a	-0.023903627
67	0xbd8470d8	-0.06466836
68	0x3db072a6	0.086156175
69	0xbca7bbd0	-0.020475298
70	0xbdb25057	-0.0870673
71	0x3d164355	0.036685307
72	0x3d8dfd02	0.06933023
73	0xbdb4dece	-0.08831559
74	0xbd110f13	-0.035414767
75	0xbd9ecc5c	-0.07753822
76	0x3da2e7ba	0.079543546
77	0xbd8924c2	-0.06696464
78	0x3da4f03f	0.08053636
79	0xbd997e10	-0.07494748
80	0x3d0d09f2	0.034433313
81	0xbd8e0643	-0.06934788
82	0x3c295414	0.010334987
83	0x3b490ae8	0.0030676667
84	0xbc867bd5	-0.01641647
85	0xbcfc15f5	-0.030772189
86	0x3d04d8d7	0.032433357
87	0x3da20b97	0.07912367
88	0x3ccac545	0.024752269
89	0xbdb5d7a8	-0.08879024
90	0xbb53ade9	-0.0032299703
91	0xbc27a43a	-0.010232026
92	0x3cb61a30	0.022229284
93	0xbdb35f36	-0.087583944
94	0xbd8d04af	-0.06885659
95	0xbc9ff555	-0.019526163
96	0x3d6db691	0.058035437
97	0x3db50859	0.08839483
98	0x3d1fd9ef	0.039026197
99	0x3d8a1e10	0.06744015
100	0xbdb4b29f	-0.08823132
101	0x3d9ebb83	0.07750609
102	0xbd2a4efb	-0.041579228
103	0xbd986b11	-0.07442296
104	0xbd65dfd1	-0.05612165
105	0xbc8dbc70	-0.017301768
106	0x3d9e7cf4	0.07738677
107	0xbd9e8ec3	-0.077420734
108	0xbc6f396b	-0.014601092
109	0x3da39089	0.07986552
110	0xbd9a1a4a	-0.075245455
111	0x3cf4d985	0.029888878
112	0xbd0fb39d	-0.035083402
113	0xbda71866	-0.081589505
114	0x3da7c290	0.08191407
115	0x3dab219d	0.083560206
116	0x3c7e7b91	0.01553239
117	0xbc97439c	-0.018464856
118	0x3bb04830	0.005379699
119	0x3db31b54	0.08745447
120	0x3d24668b	0.040136855
121	0x3d27dfae	0.040984802
122	0x3d5d6ec3	0.05406071
123	0x3da6f33d	0.08151863
124	0xbd7a1b6d	-0.06106131
125	0x3c3dbbb4	0.011580396
126	0x3db25290	0.08707154
127	0xbdb5b947	-0.088732295
128	0xbbc3cdd7	-0.0059754658
129	0x3c4f1034	0.0126381405
130	0x3d8a56fb	0.067548715
131	0x3c889ef0	0.01667735
132	0xbd9e4373	-0.07727709
133	0xbda5b964	-0.08092001
134	0x3db5b4d5	0.088723816
135	0xbda782a4	-0.081792146
136	0x3d096ca7	0.033550885
137	0xbd52dfcd	-0.051482964
138	0xbdb59cf4	-0.08867827
139	0xbdb169cf	-0.086627595
140	0x3db5b83d	0.08873031
141	0xbdadf51a	-0.08494015
142	0x3da3d28e	0.079991445
143	0x3d0bfdab	0.034177464
144	0x3da928f7	0.082597665
145	0xbbe638f6	-0.0070258332
146	0xbd1ce8b7	-0.03830787
147	0xbcacef89	-0.021110313
148	0xbc83871b	-0.016055634
149	0x3d106435	0.035251815
150	0xbd9a186a	-0.07524188
151	0xbd892c97	-0.06697958
152	0xbd847e2c	-0.06469378
153	0xbce668ab	-0.028126081
154	0xbdb5768e	-0.08860503
155	0xbd1c94a8	-0.038227707
156	0x3d06cfb8	0.03291294
157	0x3c1ad594	0.009450335
158	0x3dae86b5	0.08521787
159	0x3db5bd55	0.08874003
160	0x3ca69a71	0.020337315
161	0x3cd60cd5	0.026129166
162	0xbd2d019f	-0.042237874
163	0xbbb4e825	-0.005520838
164	0x3c84c761	0.016208353
165	0xbd9b5a93	-0.07585635
166	0x3c791a30	0.0152039975
167	0xbdb5d16a	-0.08877833
168	0xbdb5ee95	-0.088833965
169	0x3db51447	0.08841758
170	0x3db56052	0.08856262
171	0x3db58190	0.08862603
172	0x3d8194aa	0.063271835
173	0x3cd2eca7	0.02574761
174	0xbd0ba10d	-0.034089137
175	0xbb8cf3c3	-0.0043015196
176	0x3d693fb6	0.056945525
177	0x3c390ed3	0.011295038
178	0x3cab8529	0.02093752
179	0xbd9b373b	-0.07578894
180	0x3cb755ba	0.022379745
181	0x3dad6400	0.08466339
182	0xbd039e8d	-0.032133628
183	0xbd178c57	-0.036999073
184	0xbdb4f028	-0.08834869
185	0xbd93e126	-0.07220678
186	0xbda66d0b	-0.08126267
187	0x3db0a974	0.086260706
188	0xbd99160e	-0.0747491
189	0xbdb30cc4	-0.08742669
190	0x3d5f8966	0.054574393
191	0xbda6490f	-0.081194036
192	0xbdb34ee1	-0.08755279
193	0x3d3337da	0.043754436
194	0xbd541789	-0.051780257
195	0x3c9b36b5	0.018946985
196	0x3dae81e8	0.085208714
197	0x3b7da9b1	0.003870588
198	0xbb9b838b	-0.0047459058
199	0x3d9c3c83	0.07628729
200	0xbd5709cf	-0.05249959
201	0x3db12db9	0.08651299
202	0xbdb0468b	-0.08607205
203	0xbd9d636e	-0.0768498
204	0x3b093f77	0.002094237
205	0x3d949b90	0.07256234
206	0xbd58b643	-0.052908193
207	0x3c6f3a3e	0.014601288
208	0x3b155c2c	0.0022790534
209	0xbc6f68a5	-0.014612352
210	0xbdb4aae0	-0.08821654
211	0x3d14942c	0.03627412
212	0xbbc7564f	-0.006083287
213	0x3b12ae95	0.002238189
214	0x3cc16d4d	0.023611689
215	0xbdb5a927	-0.08870154
216	0x3d77174f	0.060324963
217	0xbd2089ec	-0.039194033
218	0x3c4ad3cb	0.012379597
219	0xbb46180c	-0.0030226735
220	0xbda49a87	-0.08037286
221	0x3cc14c7c	0.02359604
222	0x3da56912	0.08076681
223	0xbcc2190d	-0.023693586
224	0x3d32c083	0.043640625
225	0x3ce16456	0.027513664
226	0xbcb233ba	-0.02175318
227	0x3d9945f1	0.074840434
228	0xbc56bc15	-0.013106366
229	0xbce53ba5	-0.027982542
230	0x3b70180b	0.0036635424
231	0xbda668a4	-0.08125427
232	0xbbeacbbf	-0.0071654017
233	0xbd98ec7f	-0.07466983
234	0x3b860d54	0.0040909443
235	0x3db27ad7	0.08714836
236	0x3ba0cf5f	0.004907533
237	0xbdb420b4	-0.087953
238	0x3d9c64e1	0.076364286
239	0x3d9a18e2	0.07524277
240	0xbd9b8a20	-0.07594705
241	0xbdb5c527	-0.088754945
242	0x3d83d3e2	0.06436898
243	0xbd8df417	-0.06931322
244	0xbc9eaa6f	-0.019368378
245	0x3d9a560f	0.075359456
246	0x3d0aeee2	0.033919223
247	0xbc538906	-0.012911087
248	0x3baefece	0.0053404337
249	0xbc98a80d	-0.01863482
250	0x3db10c4a	0.08644922
251	0xbda719e2	-0.08159234
252	0xbdb18776	-0.08668415
253	0xbd825231	-0.06363333
254	0x3c70ea4f	0.014704301
255	0xbc6dee76	-0.014522186

convs.5.weight f4 [16, 16]
0	0x3daefb66	0.08544044
1	0xbb81cb05	-0.0039609694
2	0xbce61968	-0.028088287
3	0x3d8384fc	0.06421849
4	0x3db1bbd6	0.08678405
5	0xbda1eaec	-0.07906136
6	0xbda3aaf0	-0.07991588
7	0x3da855c6	0.08219485
8	0xbc3bcec2	-0.011462869
9	0xbcf3d636	-0.02976523
10	0xbda0b4a9	-0.07846958
11	0xbd886975	-0.06660739
12	0xbda653a1	-0.0812142
13	0x3c673c2d	0.014113468
14	0xbda9a4a4	-0.08283356
15	0xbdb54614	-0.08851257
16	0x3da1b9a9	0.0789674
17	0x3db5b6a0	0.088727236
18	0x3c232ee1	0.009959907
19	0xbd812b71	-0.06307114
20	0x3d6244ec	0.05524151
21	0x3cbfbd41	0.023405673
22	0xbd2c5a88	-0.042078525
23	0x3b7d5bf6	0.003865955
24	0x3d7ddfad	0.061980892
25	0xbd853614	-0.06504455
26	0xbd9fb433	-0.07798042
27	0x3da7e99d	0.08198855
28	0x3d3415db	0.043966155
29	0x3d337b33	0.043818664
30	0xbc4a833d	-0.012360391
31	0xbda4041b	-0.080085956
32	0xbb4e5062	-0.0031481017
33	0xbbbeb2c5	-0.005819651
34	0xbdaa29df	-0.083087675
35	0x3cc4fdc9	0.024046795
36	0x3b121b0a	0.0022293949
37	0x3d11824f	0.035524663
38	0x3db48b34	0.088156134
39	0x3cc306d6	0.02380697
40	0x3da3a0c2	0.079896465
41	0x3cd22296	0.025651257
42	0x3ce4985d	0.027904684
43	0x3c92f768	0.017940238
44	0x3db27c84	0.08715156
45	0x3da0bccb	0.078485094
46	0xbd3affe1	-0.04565418
47	0xbdb083d6	-0.08618896
48	0x3dabf5db	0.083965026
49	0xbcb79ccd	-0.022413636
50	0x3db14482	0.08655645
51	0x3d14667f	0.03623056
52	0xbda46db8	-0.0802874
53	0xbdb418b1	-0.08793772
54	0x3db08783	0.08619597
55	0xbd92746e	-0.071511135
56	0xbd75d206	-0.060014747
57	0xbd2d0563	-0.042241465
58	0xbd9d54eb	-0.076822124
59	0x3ce09993	0.02741698
60	0xbbad0020	-0.005279556
61	0x3d6a347e	0.057178967
62	0x3c8e2f2f	0.017356483
63	0x3b56e13d	0.003278806
64	0x3d070c55	0.032970745
65	0x3d84d4ff	0.06485938
66	0x3d2eafc7	0.042648103
67	0xbc8ce90f	-0.017200975
68	0x3dada57f	0.084788315
69	0xbc845942	-0.016155843
70	0xbd2a21a1	-0.041535977
71	0x3cf068cd	0.029346848
72	0xbcae8b65	-0.021306703
73	0x3d141b35	0.03615876
74	0xbdaa2c4b	-0.083092295
75	0xbcf82018	-0.030288741
76	0x3d957eae	0.07299553
77	0xbdab2d8e	-0.08358298
78	0x3c91ead8	0.017812178
79	0x3a8d8ac4	0.0010798802
80	0x3d9de53a	0.07709737
81	0x3ba29fd3	0.0049629
82	0x3da00328	0.07813102
83	0x3b532f0c	0.0032224087
84	0xbd60116d	-0.05470412
85	0x3dadb652	0.084820405
86	0x3d9c9195	0.07644955
87	0x3dae050a	0.08497055
88	0xbdb2e8fc	-0.087358445
89	0xbdb1ba15	-0.086780705
90	0x3d151500	0.03639698
91	0xbda2bca6	-0.07946138
92	0x3c81af0f	0.015830545
93	0x3d9cf556	0.076639816
94	0xbc9abd20	-0.01888901
95	0xbca1b67e	-0.01974034
96	0xbd9b47a9	-0.075820275
97	0xbce1aadf	-0.027547298
98	0xbdb50d3b	-0.08840414
99	0xbd90ca16	-0.07069795
100	0xbdaf0b93	-0.085471295
101	0x3d993b3d	0.07482002
102	0xbdb49f16	-0.08819406
103	0x3db16dc3	0.086635135
104	0xbdaa8191	-0.08325494
105	0xbd1e443c	-0.038639292
106	0x3dac301d	0.084076144
107	0x3a86070f	0.0010225492
108	0xbc2273b7	-0.009915284
109	0x3daa251e	0.08307861
110	0x3cacba19	0.021084832
111	0x3cd50387	0.026002659
112	0xbdb5af25	-0.08871297
113	0x3bfac6ac	0.007653078
114	0xbd8bf248	-0.06833321
115	0x3ca1a6da	0.019732881
116	0x3d21dd3f	0.039517637
117	0x3c4196a9	0.011815705
118	0x3d9d02b4	0.07666531
119	0x3db3e404	0.08783725
120	0x3c272e0c	0.0102038495
121	0x3da4049e	0.08008693
122	0x3d42684b	0.047462743
123	0x3d1c3b27	0.03814235
124	0x3d9d8a0e	0.076923475
125	0x3d0299ef	0.031885084
126	0xbc5c8be6	-0.013461089
127	0xbcb1bcf8	-0.021696553
128	0x3d82811f	0.06372284
129	0x3d1b974e	0.037986092
130	0xbc914b71	-0.017736169
131	0xba72e7b7	-0.00092660956
132	0x3d1cb27e	0.03825616
133	0x3d64753c	0.055775866
134	0x3c932dd3	0.017966187
135	0xbd32c27d	-0.04364251
136	0x3d93a50b	0.07209214
137	0x3d089ff5	0.033355672
138	0xbd0fb2a8	-0.03508249
139	0xbcd0c933	-0.025486564
140	0x3b9afa33	0.004729533
141	0xbdb32578	-0.08747381
142	0xbd2287a6	-0.039680146
143	0x3db1c996	0.086810276
144	0xbd2ac529	-0.041691933
145	0x3da2d332	0.079504386
146	0xbc9422b6	-0.018082958
147	0x3c562066	0.013069248
148	0x3cc2903b	0.023750415
149	0x3cc0e2e4	0.02354569
150	0xbda631aa	-0.081149414
151	0xbd873fe0	-0.0660398
152	0x3aab5e29	0.0013074327
153	0xbda2b4a4	-0.07944611
154	0x3da8b848	0.08238274
155	0x3c7ea58b	0.015542398
156	0xbd98698c	-0.074420065
157	0xbd9f1231	-0.077671416
158	0x3db5e7dc	0.08882114
159	0xbca349af	-0.019932596
160	0x3d867132	0.06564559
161	0xbd1f6363	-0.038913142
162	0xbc10fcfc	-0.008849379
163	0x3db37a47	0.08763557
164	0x3d9ff99d	0.07811282
165	0x3d9d893d	0.07692192
166	0xbd330954	-0.043710068
167	0xbd379fa6	-0.044829987
168	0x3daee4e6	0.08539753
169	0x3cbe1083	0.023201233
170	0x3d2eac34	0.042644694
171	0x3dafaf58	0.08578366
172	0xbd851865	-0.064987935
173	0xbda8c5cf	-0.08240854
174	0x3c624acd	0.013811779
175	0x3db2696d	0.087115146
176	0x3ba6a96d	0.005086115
177	0xbcad69a7	-0.021168543
178	0xbdb5f138	-0.088838995
179	0x3d7adeca	0.061247624
180	0x3daa8696	0.083264515
181	0xbd20984c	-0.03920774
182	0x3d153ece	0.03643685
183	0x3c606c8e	0.013697756
184	0x3d0776fc	0.033072457
185	0x3d70e5ac	0.058812782
186	0xbdb58226	-0.088627145
187	0xbc6b2dc5	-0.014354174
188	0xbdae8a6d	-0.08522496
189	0xbdab190d	-0.083543874
190	0x3ca076d0	0.019587904
191	0x3c0476f8	0.008085005
192	0xbd119590	-0.035543025
193	0xbda5fecd	-0.0810524
194	0x3da99b96	0.08281629
195	0xbce1b325	-0.027551243
196	0xbc7cc795	-0.015428443
197	0xbd36a11c	-0.04458724
198	0xbd35d769	-0.044394884
199	0x3cb6e1f7	0.022324545
200	0xbcc4dc73	-0.0240309
201	0xbd7f3a26	-0.062311314
202	0x3da81995	0.082080044
203	0x3d95ef33	0.07321014
204	0xbbccb8cc	-0.0062476154
205	0x3cacfb42	0.021115903
206	0xbcd8fb6a	-0.026487071
207	0xbda20269	-0.07910616
208	0xbcc74999	-0.024327086
209	0xbda179e2	-0.078845754
210	0x3d066828	0.032814175
211	0x3d84a39f	0.06476521
212	0x3d2b56ce	0.04183083
213	0x3da68c7f	0.08132266
214	0x3da9e7a4	0.08296135
215	0x3dab5eb9	0.08367676
216	0x3dac2e02	0.08407213
217	0x3b5fcb38	0.0034148227
218	0xbd8fe2e5	-0.070256986
219	0xbda2cb5c	-0.07948944
220	0xbdb17915	-0.08665673
221	0xbd17d8e8	-0.037072092
222	0x3c39f3ff	0.011349677
223	0x3d8d00c6	0.06884913
224	0xbcce6e89	-0.025199192
225	0x3d9f17a6	0.077681825
226	0xbd48a734	-0.048987582
227	0x3c54c3d3	0.012986141
228	0xbc013cad	-0.007888001
229	0xbcb17705	-0.021663198
230	0x3d39b243	0.04533602
231	0xbdb0a309	-0.086248465
232	0xbd4ee2a3	-0.050509106
233	0xbd9d3b7a	-0.0767736
234	0x3c999dbe	0.018751975
235	0xbd94c2bc	-0.07263705
236	0xbda20782	-0.07911588
237	0xbd3260bc	-0.043549284
238	0xbdb49fae	-0.08819519
239	0xbc58a36e	-0.013222558
240	0xbd9d48aa	-0.07679875
241	0x3bb02128	0.0053750463
242	0xbd8dc488	-0.06922251
243	0xbd9c7de7	-0.076412015
244	0x3bc1cf0b	0.005914574
245	0x3cb74f8d	0.0223768
246	0xbcdd3c3d	-0.027006263
247	0x39894189	0.00026179504
248	0x3c72ae55	0.014812072
249	0xbb020e98	-0.0019845124
250	0xbdb5e1bd	-0.08880947
251	0xbd8d9045	-0.06912283
252	0x3d92953e	0.07157372
253	0xbd0512ff	-0.03248882
254	0xbce49d8f	-0.027907161
255	0x3d94ab7d	0.07259271

convs.6.weight f4 [16, 16]
0	0x3c8c9ca7	0.017164541
1	0x3bfabae5	0.007651674
2	0x3d7152fa	0.058917023
3	0x3c4d3b63	0.012526366
4	0x3ca4cdda	0.020117689
5	0xbd9f7de1	-0.07787681
6	0xbcc9cb79	-0.024633156
7	0xbd9aa1df	-0.07550406
8	0x3aeb8a4c	0.0017970293
9	0x3bc144ce	0.0058980947
10	0xbcfd04cb	-0.030886075
11	0x3c6ccbc9	0.014452883
12	0x3db5ca41	0.088764675
13	0x3d8b5248	0.06802803
14	0xbb8ef339	-0.0043624905
15	0x3d2fdff8	0.042938203
16	0xbcbfbd8d	-0.023405815
17	0xbccc72cc	-0.024957083
18	0xbdb5efd1	-0.08883632
19	0x3c212b70	0.009837016
20	0x3c8e534e	0.017373707
21	0x3db3981f	0.08769249
22	0x3db0aa40	0.086262226
23	0x3d8cbdaf	0.06872117
24	0xbbc223cc	-0.0059246775
25	0xbd7f60e7	-0.062348273
26	0xbdae1a0c	-0.08501062
27	0x3c31ef92	0.010860341
28	0xbd08217d	-0.033235062
29	0x3b8e82c6	0.0043490855
30	0xbd350163	-0.044190776
31	0xbc49a66a	-0.012307743
32	0xbd2a0ad7	-0.041514244
33	0x3d1c38e2	0.038140185
34	0x3ca0533a	0.019570936
35	0xbcba0376	-0.022706728
36	0x3bd6f915	0.0065604546
37	0x3d8c7dc8	0.06859928
38	0x3b9c41ce	0.0047685867
39	0xbcadb421	-0.021204056
40	0x3d321eb2	0.043486305
41	0xbd0894f5	-0.03334518
42	0x3d346563	0.044042002
43	0xbc8cfdeb	-0.017210921
44	0x3d55e2f7	0.052218404
45	0xbc9a3088	-0.01882197
46	0x3db1b3a1	0.086768396
47	0x3bc28f25	0.0059374743
48	0x3d2faaf1	0.04288763
49	0xbd8f344f	-0.06992399
50	0x3d13c7c5	0.036079187
51	0x3d05b53f	0.032643553
52	0x3b03977b	0.0020079303
53	0xbdb45d03	-0.08806803
54	0x3d49bc7d	0.049252022
55	0xbd8d0053	-0.068848275
56	0x3b8e306f	0.00433927
57	0x3da046c8	0.078260005
58	0xbc99e6c1	-0.01878679
59	0x3d8d4d0e	0.06899463
60	0x3c275bcf	0.01021476
61	0x3d4f8b92	0.050670214
62	0x3da424f3	0.0801486
63	0xbdb5ade9	-0.08871061
64	0x3daae3c2	0.083442226
65	0xbd65235b	-0.05594192
66	0x3da9c9b9	0.08290429
67	0xbca8ba8b	-0.020596763
68	0x3d1622b6	0.036654197
69	0xbdac42b0	-0.08411157
70	0x3cabb1f5	0.02095888
71	0xbabdc374	-0.0014477805
72	0x3c85486f	0.01626989
73	0xbd8a9d1f	-0.0676825
74	0x3d1670fe	0.03672885
75	0xbcbc93db	-0.023019722
76	0x3d8e397b	0.06944557
77	0x3da834cd	0.08213196
78	0xbdab5fa7	-0.083678536
79	0x3db04329	0.0860656
80	0xbc6f89cc	-0.014620256
81	0xbca98971	-0.02069542
82	0xbd9bb763	-0.076033376
83	0xbbf68aea	-0.007523884
84	0x3db4924d	0.08816967
85	0xbb7aa0f8	-0.0038242918
86	0xbd7108d4	-0.05884631
87	0xbcdf2775	-0.027240494
88	0xbdb442ee	-0.08801828
89	0xbc1c87de	-0.009553878
90	0xbd47f288	-0.04881528
91	0x3da25380	0.079260826
92	0xbccf282a	-0.025287706
93	0xbd3a22a7	-0.045443203
94	0xbd99b6d9	-0.075055785
95	0x3d87485a	0.06605597
96	0xbb39ff66	-0.002838099
97	0x3b8eef50	0.0043620244
98	0x3dac1eeb	0.08404335
99	0x3db5d000	0.088775635
100	0x3d9e81d6	0.07739608
101	0x3d18b399	0.037280653
102	0xbd92dcd1	-0.07171024
103	0x3b73e5bb	0.0037215787
104	0x3d15f5e9	0.03661147
105	0xbc996d5d	-0.018728906
106	0x3d94d631	0.07267416
107	0x3ccb2080	0.02479577
108	0xbb896e44	-0.004194053
109	0x3d60ce53	0.054884266
110	0xbdb00466	-0.08594589
111	0x3db5bf33	0.08874359
112	0x3c8c0876	0.017093878
113	0x3dad6ada	0.08467646
114	0xbd221248	-0.039568216
115	0x3d26c4b9	0.040714953
116	0xbc70029c	-0.01464906
117	0x3d84a899	0.0647747
118	0xbd984556	-0.074351
119	0x3db561e6	0.08856563
120	0xbd8d8b60	-0.06911349
121	0x3db37329	0.087621994
122	0xbd7d0706	-0.061774276
123	0x3d09c53b	0.03363536
124	0xbd31f284	-0.04344417
125	0xbc5620a9	-0.01306931
126	0xbd9ae68d	-0.07563505
127	0xbc679990	-0.014135733
128	0x3dad0b64	0.08449438
129	0x3cefc292	0.029267583
130	0x3da6d711	0.081464894
131	0xbdb309f1	-0.087421305
132	0x3c7a5e13	0.015281218
133	0xbb6f22cc	-0.0036489246
134	0x3d6d05da	0.05786691
135	0xbc95f904	-0.018307216
136	0x3d8d1dde	0.06890462
137	0xbd4b98cf	-0.049706277
138	0xbd810528	-0.062998116
139	0xbd90e2bc	-0.07074496
140	0x3b5d8cb9	0.00338058
141	0x3dae0322	0.08496691
142	0xbdae1afc	-0.085012406
143	0x3c115a26	0.008871591
144	0x3b7af1ae	0.0038291025
145	0xbcc754e7	-0.024332477
146	0xbdb072bc	-0.08615634
147	0xbdb54fb3	-0.08853092
148	0x3c84c159	0.016205477
149	0xbd4bd949	-0.049767766
150	0x3da42465	0.08014754
151	0x3d32f6ae	0.043692283
152	0x3dac2ceb	0.08407005
153	0xbc8c7860	-0.017147243
154	0x3dac8caa	0.08425267
155	0x3ca4a675	0.020098904
156	0xbda955fc	-0.08268353
157	0xbd9f5e81	-0.07781697
158	0x3d8d79e8	0.069080174
159	0x3d834a4f	0.064106576
160	0x3ca4a33c	0.020097367
161	0xbcd9a042	-0.026565675
162	0xbc7d17d2	-0.015447574
163	0x3c1ce355	0.009575685
164	0x3d9d3bef	0.07677447
165	0xbd10e803	-0.035377514
166	0xbd9b6223	-0.075870775
167	0x3d561a53	0.0522712
168	0xbd48ab1a	-0.0489913
169	0xbd5a6713	-0.053320955
170	0xbdb5bcec	-0.088739246
171	0xbcb73586	-0.02236439
172	0x3d236311	0.0398894
173	0xbdb1112a	-0.08645852
174	0xbd95ef9d	-0.07321093
175	0xbd9a00ca	-0.07519682
176	0x3a8f294d	0.0010922343
177	0xbcde1f99	-0.027114676
178	0xbda916ff	-0.08256339
179	0x3da39306	0.07987027
180	0x3c2d9b5d	0.0105961235
181	0xbbcd9e80	-0.006274998
182	0xbd990f17	-0.07473581
183	0x3d2d2bad	0.04227798
184	0x3d100f02	0.035170563
185	0xbd8cf8e5	-0.0688341
186	0x3da6e1a5	0.08148507
187	0x3db2718b	0.08713063
188	0x3d6e69cb	0.05820636
189	0xbd98a108	-0.07452589
190	0xbda14c3b	-0.07875868
191	0x3da4fe53	0.08056321
192	0x3c42c3bb	0.011887486
193	0x3d79cdf0	0.060987413
194	0x3d3fdfdd	0.046844352
195	0xbdb0040d	-0.085945226
196	0xbd54fbac	-0.051997826
197	0xbafc3a9d	-0.0019243542
198	0x3c8b789f	0.01702529
199	0x3c3ae3a9	0.0114068175
200	0x3ba32a0d	0.004979378
201	0x3c8fecf5	0.017569045
202	0x3d8abf38	0.06774753
203	0xbd9ec620	-0.07752633
204	0x3c970817	0.018436475
205	0xbd06e8a1	-0.032936696
206	0x3cc296d2	0.023753557
207	0xbd5661a4	-0.05233921
208	0xbdafcb34	-0.0858368
209	0xbd8f7ce1	-0.07006241
210	0x3b09583a	0.0020957128
211	0xbd9abe6a	-0.0755585
212	0xbd313888	-0.043266803
213	0x3c07fc8c	0.008299958
214	0xbda0863d	-0.07838104
215	0xbd9cc64a	-0.07655008
216	0x3d0b3e31	0.033994857
217	0xbda9a4f9	-0.08283419
218	0xbcb53466	-0.022119712
219	0xbcbbc870	-0.022922724
220	0xbdae4c26	-0.08510618
221	0x3d72bdcb	0.059263032
222	0xbd9b1b62	-0.07573582
223	0xbd996dd3	-0.074916504
224	0x3da6ca77	0.08144086
225	0x3d8b0523	0.06788089
226	0x3d99753e	0.07493065
227	0xbc5ac536	-0.013352683
228	0x3da85557	0.08219402
229	0x3c82fb3d	0.01598894
230	0xbbd8b83b	-0.006613759
231	0xbdab41ed	-0.08362184
232	0xbd83a767	-0.06428414
233	0xbd833623	-0.0640681
234	0xbd02ad10	-0.031903327
235	0x3d929df8	0.071590364
236	0x3db5ecca	0.088830546
237	0x3d1e4a6c	0.038645193
238	0xbda0c462	-0.07849957
239	0x3d183ed5	0.037169296
240	0xbd0021c7	-0.031282213
241	0x3da3ab0a	0.079916075
242	0x3d61e39c	0.055148706
243	0x3db52846	0.08845572
244	0xbdb5e0bb	-0.088807546
245	0xbc7b58a0	-0.015340954
246	0x3dacbe0c	0.08434686
247	0x3cc70192	0.024292741
248	0x3d0e058f	0.03467327
249	0xbca468f9	-0.020069586
250	0xbca6d320	-0.020364344
251	0xbd7e17c1	-0.062034372
252	0x3da26058	0.07928532
253	0x3db4fbe9	0.088371105
254	0xbd1b9ec4	-0.037993208
255	0x3da504bd	0.080575444
