Comparisons/GCNII-master/pretrained/8f90d400d2704ccc9bba15b42343e8ad.pt (torch_old, 85412 bytes, 68 tensors)

convs.0.weight f4 [16, 16]
000000 41 39 49 3d 8e c4 7b 3d 53 8e 8d b6 93 13 a2 3d
       0.049126867 0.061466746 -4.218696e-06 0.0791389
000010 0a e7 18 b7 97 37 96 36 44 f9 0c bc e5 86 a6 3c
       -9.113699e-06 4.47682e-06 -0.008604351 0.020327995
000020 27 ae 92 3d 92 64 32 bd 3a a1 8d 3d 1e da 1e b6
       0.07162123 -0.043552943 0.06915517 -2.3670796e-06
000030 f5 32 36 3d 3f b0 cc 36 93 e0 05 3c d6 9c 08 37
       0.04448219 6.1001915e-06 0.008171218 8.142748e-06
000040 f2 f9 4d 3d 3b 83 07 36 25 57 df bb 5b 65 95 b7
       0.050287195 2.0192954e-06 -0.0068158084 -1.7809381e-05
000050 b7 e4 ce bb 4e fc 0a 36 c4 9f 30 bb e0 bd 01 3d
       -0.006313886 2.0710463e-06 -0.0026950696 0.03167522
000060 4e 0c 5c bd 1c b4 cf bb 50 2f fd 37 14 71 b6 bc
       -0.053722672 -0.0063386094 3.0181982e-05 -0.022270717
000070 82 95 19 36 66 82 bf bd 63 9e 9b 3d b5 a7 85 bd
       2.2885802e-06 -0.093510434 0.07598569 -0.06526128
000080 28 d7 4e 3d 2d 46 5c b6 b1 b9 59 b9 17 28 ca 3c
       0.050498158 -3.2823402e-06 -0.00020763908 0.02467732
000090 08 4f be 34 1c 6d 6a 3d 58 57 c8 b5 12 e4 e8 b8
       3.544776e-07 0.05723296 -1.4926582e-06 -0.000111051035
0000a0 5c 81 14 b8 cd 01 10 38 65 02 66 3b 78 56 97 3d
       -3.5406425e-05 3.4333952e-05 0.0035096642 0.073895395
0000b0 d1 42 9c 3c c2 33 95 bb 4f 73 9b 3c 4d b6 8d b6
       0.01907483 -0.004553289 0.018975882 -4.22335e-06
0000c0 b9 28 2f 3c 0b 16 c0 bc a6 78 c0 bd 12 9c e8 ba
       0.010690861 -0.02344801 -0.09398012 -0.0017746708
0000d0 ff 11 4b bd c7 47 74 3d 6d 75 d3 b7 48 61 4d 3b
       -0.04957771 0.059638765 -2.520784e-05 0.0031338502
0000e0 ff b6 db 38 f7 ee 0f 38 c0 d9 56 3d 2c e2 21 bd
       0.000104768194 3.431641e-05 0.052453756 -0.039522335
0000f0 f9 eb 20 36 ba 89 0e bd 9f b3 6a 38 22 f0 06 ba
       2.3979212e-06 -0.034799315 5.5957233e-05 -0.0005147477
000100 26 b3 3f 38 f7 e5 f5 b6 a4 46 7b 3d 24 98 ac bc
       4.5704794e-05 -7.3283404e-06 0.061346665 -0.02106864
000110 9a d0 b0 bc 2d db b0 bc 62 14 9a 3d cd f2 a9 39
       -0.021583844 -0.021588886 0.07523419 0.00032415093
000120 9a 90 b4 3d 9e 04 78 bd c3 53 c1 bd fb ae 56 bd
       0.08816643 -0.06055128 -0.094398044 -0.052412968
000130 f3 ea 07 bd d7 d3 2c 3b 8a 1c 5b 3a e7 7d 7c 3d
       -0.03318305 0.0026371384 0.00083584397 0.061643507
000140 09 07 3e bc 61 fb 0d bd ab da 57 3c 3a 0d 2a bb
       -0.011598357 -0.03466356 0.013174693 -0.0025947825
000150 de 0b bd 3c 9f 83 4d b5 a7 bc 95 3c 68 94 52 bd
       0.023076948 -7.6559985e-07 0.018278433 -0.051411062
000160 16 ae 29 bc 77 21 19 38 3e 2f 03 37 df 74 9e 37
       -0.010356447 3.650921e-05 7.819208e-06 1.888949e-05
000170 0b 70 b0 3c 40 b2 0c 3d 48 4f 2c bd 0b 10 5e bc
       0.021537801 0.03434968 -0.042067796 -0.01355363
000180 d9 d6 a0 3d 66 81 cd b9 fb ab 43 ba c1 da b6 bd
       0.07853479 -0.00039197056 -0.0007464287 -0.08928443
000190 9d 68 96 bc 82 09 54 b7 4f 66 7d b6 85 d1 2c bd
       -0.01836043 -1.2638398e-05 -3.775949e-06 -0.042192
0001a0 ed e4 08 b8 f6 e7 0e bd d8 39 85 bd b4 ed 7e bc
       -3.263813e-05 -0.034889184 -0.065051734 -0.0155596025
0001b0 9a 18 90 bd 63 48 e1 bc a7 ae c4 3d 92 a0 87 b5
       -0.070359424 -0.027500337 0.09603625 -1.0105016e-06
0001c0 e3 38 92 38 ef fc a7 bd 80 d4 fa bc b6 e9 9b b9
       6.9724185e-05 -0.0820254 -0.030618906 -0.00029738032
0001d0 97 ac 0e 34 bc 06 92 bd 05 87 87 bb f0 5a b3 bc
       1.3287568e-07 -0.07130191 -0.0041359686 -0.021893948
0001e0 dd 49 67 b9 39 98 a0 ba 4c 86 9a 36 97 3a 0b bd
       -0.00022057393 -0.0012252397 4.605192e-06 -0.033991423
0001f0 97 1e 11 bd 96 1e a2 bc 8a dd fb b9 66 f4 5b bd
       -0.035429563 -0.019789975 -0.0004803951 -0.053699873
000200 d1 3f 81 3d 86 11 5e b6 1e 11 8a 3d 68 d1 ac 38
       0.06311 -3.3090778e-06 0.06741546 8.240604e-05
000210 f2 94 84 bd c2 05 15 3d b4 09 0b 38 31 79 d9 ba
       -0.064737216 0.036382444 3.314922e-05 -0.0016591904
000220 b3 d2 7b bd 1f 51 c2 bd f4 a2 f1 b7 0e 9d 1b b7
       -0.061480235 -0.09488129 -2.880532e-05 -9.275287e-06
000230 d3 c4 f9 3a b4 60 74 bd 62 d2 38 3d 84 b7 32 bd
       0.001905585 -0.059662536 0.04512251 -0.043632045
000240 2b cc 6b 37 78 5c c5 36 34 bc 3d 3c 9f ed 69 3d
       1.4054628e-05 5.8818223e-06 0.011580516 0.05711138
000250 78 df 9e 3d cb c5 5e bd 1b 4b 90 b7 d1 8b 85 bb
       0.07757467 -0.05438785 -1.7201111e-05 -0.0040755053
000260 75 7c 56 b7 85 41 3d bd c1 d1 9e 3d c4 a4 32 bd
       -1.2784371e-05 -0.046205062 0.07754851 -0.043614164
000270 16 54 5f 3c 9c 08 31 3a d2 cf 5a 39 b5 04 6b bc
       0.0136308875 0.0006753297 0.00020867519 -0.014344384
000280 2d 09 9e 3d dc 57 14 37 c8 f6 69 b4 8a 92 92 bd
       0.07716594 8.841944e-06 -2.1789594e-07 -0.07156856
000290 02 e4 61 3b a0 b1 04 b6 c6 0e c8 bb 29 7b 89 3d
       0.0034468179 -1.9772924e-06 -0.0061052768 0.06712944
0002a0 95 8a 68 b1 b1 19 82 bc 05 38 2c bc 88 a9 1f 35
       -3.3839218e-09 -0.015881391 -0.010511403 5.9478816e-07
0002b0 6e 53 87 3c 28 f6 a5 37 8d 2a 94 bc d9 f8 fb b9
       0.016519275 1.9784158e-05 -0.018086696 -0.00048059857
0002c0 ad 3b 3c bd 99 57 51 3a 91 5c 50 3d f0 b2 ab bd
       -0.04595535 0.00079857704 0.05086953 -0.08383739
0002d0 ad 9f 9d 36 16 53 3e 3c cf 0b 86 b6 78 f3 4d ba
       4.6975533e-06 0.011616489 -3.994886e-06 -0.0007856409
0002e0 e8 eb 47 3c 24 71 4e 3c 3d 6c ac 3a dc 13 98 36
       0.0122022405 0.012600217 0.0013154816 4.532265e-06
0002f0 2d 84 f6 37 aa b6 00 b3 17 82 97 36 dd 75 85 b6
       2.9387034e-05 -2.9968454e-08 4.515295e-06 -3.97743e-06
000300 3a 6d e4 3c a0 a9 89 3d 0f 3d 29 b6 6f 63 c0 36
       0.027884115 0.067218065 -2.5218503e-06 5.7336215e-06
000310 9b 04 e4 b5 d5 92 32 35 36 17 7f b6 d6 9a d1 b7
       -1.6988664e-06 6.6523836e-07 -3.8011472e-06 -2.4986843e-05
000320 10 c1 9d bd 83 27 95 ba 59 b3 82 3d cc f3 fa 3a
       -0.077028394 -0.0011379573 0.06381864 0.0019146143
000330 e4 87 ee 36 96 52 b8 bc 20 d5 c2 bc 6c 8d 98 bd
       7.1087725e-06 -0.022500318 -0.023783267 -0.07448849
000340 69 17 5e b9 73 bb ce 39 ce 6a e2 3c dd c1 d1 3b
       -0.00021180291 0.00039431042 0.027638819 0.006401284
000350 9f ad 93 bd 94 8b b6 bc ac 50 58 b6 3b c2 b6 3d
       -0.0721085 -0.022283353 -3.2233465e-06 0.08923765
000360 c7 99 04 b8 de a9 73 38 d3 e7 49 3b 41 4b cd ba
       -3.161447e-05 5.8093916e-05 0.0030808344 -0.0015662686
000370 37 84 ee bc 78 b6 2f 3d f6 1a bf bb f7 3e 1b 37
       -0.02911578 0.042898625 -0.0058320714 9.25338e-06
000380 06 99 c2 bd 52 a6 05 3d 69 0f 44 3d 05 b9 84 3a
       -0.09501843 0.03262932 0.04786626 0.0010125941
000390 b1 a2 18 bd 93 30 bf bd 1f b8 6d bd 85 37 3b 3d
       -0.03726453 -0.09335437 -0.05803692 0.045707244
0003a0 dd b1 02 3c 86 73 82 3d 76 6d 4b 3c 3b a6 8b b7
       0.007976976 0.063696906 0.012416234 -1.6647498e-05
0003b0 d8 ac 1a 36 7a 30 46 bd 3f 95 88 bd b7 1e a9 bd
       2.3048397e-06 -0.048386075 -0.066690914 -0.082578115
0003c0 a0 1f 3c 3b da 5d 13 bc d9 b0 a8 b6 17 70 99 bc
       0.0028705373 -0.008994544 -5.027378e-06 -0.018730206
0003d0 0d 27 83 36 92 32 1d bd 3f 86 f6 bc 48 04 a3 39
       3.9086503e-06 -0.038378306 -0.03009331 0.00031092972
0003e0 18 80 d3 b7 35 84 c9 3c 06 87 3d b9 a3 5d 32 bd
       -2.5212808e-05 0.024599174 -0.00018074745 -0.04354633
0003f0 49 46 c6 36 68 a9 09 bc 20 8f 3d b8 5c 2e b0 bd
       5.909042e-06 -0.008402206 -4.5194407e-05 -0.08602592

convs.1.weight f4 [16, 16]
000000 9c 82 88 3c 62 e5 17 bd 85 3c 26 3c b3 05 bd 3b
       0.016663842 -0.03708399 0.010146265 0.0057685017
000010 24 a7 24 3d af 17 4b bd 69 07 28 3d f5 d3 ef bb
       0.04019846 -0.049583133 0.041022692 -0.0073189684
000020 70 24 9e 3a 26 b6 aa 3d cc 0c 28 b7 cb c5 cc b3
       0.0012065303 0.08335523 -1.001656e-05 -9.5354686e-08
000030 1c 6a 4c b6 24 b7 7f bd 1a 66 02 3c 29 b1 c1 bd
       -3.0460133e-06 -0.062430516 0.007958913 -0.09457619
000040 a3 a0 cd 3c 35 15 3d 3d f8 82 ad 3d df 19 df b5
       0.025101012 0.046162803 0.08472246 -1.6622324e-06
000050 30 26 75 bd d0 4f 0b 37 9c 3e 81 3c 17 d1 c2 bd
       -0.05985087 8.303628e-06 0.015776925 -0.09512537
000060 09 e6 24 b7 3e 5c b4 bc 4f 06 96 34 e8 55 15 bc
       -9.828721e-06 -0.02201664 2.7944267e-07 -0.00911472
000070 2f 7d 39 bb 3f 70 08 b9 d7 74 af bd 17 40 74 3d
       -0.0028303375 -0.00013011786 -0.08567207 0.059631433
000080 92 31 81 3d 60 63 78 32 56 9c dc 35 5a 4b 37 bb
       0.06308283 1.4458095e-08 1.6436777e-06 -0.0027968497
000090 4a 95 9b bd 3f 3d b9 bd b2 5f a2 3a 5a af 7b bc
       -0.07596834 -0.09044885 0.0012388139 -0.015361631
0000a0 9d 07 e9 bc 34 46 68 35 64 0b a8 b9 45 38 4b b9
       -0.028446013 8.6528894e-07 -0.00032051944 -0.0001938055
0000b0 26 d6 08 35 5b 5e 0c b7 af b5 07 ba f2 cc 00 bc
       5.0975575e-07 -8.366619e-06 -0.0005176914 -0.007861363
0000c0 88 00 6f bd b1 43 81 3d 8a 33 1d bb 82 2d c8 b7
       -0.058350116 0.06311739 -0.0023987019 -2.386305e-05
0000d0 1d 18 16 ba 85 6b 9b b5 a3 d4 a7 3d c7 f9 ce 3b
       -0.0005725639 -1.1579692e-06 0.08194854 0.006316397
0000e0 84 97 8c bd 9a 2c 13 3b 4d 02 af 3d 62 57 e9 b7
       -0.06864837 0.0022457005 0.08545361 -2.7816455e-05
0000f0 3a 6b 06 3d 50 bc be 3d f3 86 f2 35 eb cc 2a 37
       0.032817103 0.093132615 1.806968e-06 1.0180501e-05
000100 81 16 17 bd 09 be d7 b6 fe 78 37 3d 0d 62 37 3c
       -0.036886696 -6.4296223e-06 0.04479312 0.011192811
000110 3c 5b dc bc de b2 65 bd 1f 1a 0f bd aa 29 bf bd
       -0.026898973 -0.056078784 -0.03493702 -0.09334119
000120 15 8c 4e bd ab 9b 23 37 81 61 09 3d 96 6b 66 b6
       -0.05042656 9.751801e-06 0.033540253 -3.4335294e-06
000130 94 43 46 bd 3e f6 65 bd f0 ca 1d 3c 79 db 39 bd
       -0.04840429 -0.056143038 0.009630904 -0.04537532
000140 37 e8 cb 35 5e 1f 02 3c 6c 6f d4 bb 6d b6 2d 35
       1.5192262e-06 0.007942049 -0.006483009 6.4712987e-07
000150 98 77 50 35 4f eb bb b5 1c b5 2d bc 45 c4 96 bd
       7.766007e-07 -1.400107e-06 -0.010602262 -0.07361654
000160 ad bb 6a bd 05 19 61 bc 05 1a b6 3d da 14 07 bc
       -0.057307888 -0.013738875 0.088916816 -0.0082447175
000170 eb 24 07 bd 3d 72 8d b6 db e2 10 b8 02 69 79 3c
       -0.032994192 -4.2154265e-06 -3.454355e-05 0.01522279
000180 1e e7 45 3d d3 c7 85 3c 30 2a c1 bd ff 6c 05 35
       0.048316114 0.016330635 -0.09431875 4.970497e-07
000190 d1 ab bb 3c ba 7a 41 b5 8e b9 a8 bc 40 c2 b0 3d
       0.022909077 -7.2076693e-07 -0.020596292 0.086308
0001a0 1c 40 ad ba 9d d6 92 bc 06 f5 9a bd 4d b1 41 b4
       -0.0013217959 -0.017924601 -0.07566266 -1.8039027e-07
0001b0 a0 e8 a2 3b 11 02 22 37 ea 49 9b 35 fe 9b 44 bd
       0.0049715787 9.656434e-06 1.1569912e-06 -0.04800033
0001c0 5f 7f a8 bd c8 42 74 b7 44 3d 9f 3d b0 0a 9b 3c
       -0.08227419 -1.4559082e-05 0.07775357 0.018925995
0001d0 5e d9 a0 bc 29 39 bb b4 d3 00 35 bd 29 13 06 bc
       -0.019634899 -3.4873054e-07 -0.04419024 -0.008183279
0001e0 48 6c 2a b8 84 c5 72 3c bb 70 7a 3d af dc a1 bd
       -4.0632003e-05 0.014817599 0.061142664 -0.0790342
0001f0 21 3a 05 3d 50 35 1e bd be 63 ae 3a 27 5c 84 3d
       0.03252614 -0.03862506 0.0013304872 0.06462889
000200 d0 0c 76 35 91 64 9e 3d e6 b1 86 bd 70 96 d2 ba
       9.1660786e-07 0.07734025 -0.065769 -0.0016066562
000210 21 fb a1 3c f0 a4 1b b7 8b 5c e3 b6 c1 70 56 bb
       0.019773068 -9.277122e-06 -6.7759006e-06 -0.0032721015
000220 30 25 13 3d 51 a4 12 3c da e0 26 39 9e 0d 8b bc
       0.035924137 0.008950309 0.00015914757 -0.016974267
000230 c2 61 6d bd 29 76 7d b3 55 5d 5c b6 f0 7b d1 bb
       -0.057954557 -5.901362e-08 -3.283688e-06 -0.0063929483
000240 ff b8 1c 38 40 b5 09 3d 65 90 19 b6 24 21 ba 37
       3.736559e-05 0.03362012 -2.2882825e-06 2.218836e-05
000250 78 0a 0f 37 66 a2 9c bd 23 33 ab bd 70 1a ff bb
       8.525902e-06 -0.076481625 -0.08359363 -0.007785134
000260 19 0e 30 bc 08 4b be 38 3d bd 16 37 b1 2a 02 bb
       -0.010745549 9.073882e-05 8.984757e-06 -0.0019861872
000270 d8 cc b0 3d da 2e 1e 3a cd 90 23 3d 88 b6 08 bc
       0.08632821 0.0006034203 0.039933015 -0.0083443
000280 a9 5d 38 bb b2 0f 91 3a 08 a9 03 bd 65 e2 f6 bc
       -0.0028131998 0.00110673 -0.032143623 -0.03013725
000290 0e 57 4a 35 19 fe 89 ba c0 23 3e bd 7e 1f ad 3c
       7.5377545e-07 -0.0010527998 -0.046420813 0.02113318
0002a0 f0 75 67 3d 62 99 dc 35 92 8a e5 35 b8 4a a5 bd
       0.05650896 1.6435918e-06 1.7102159e-06 -0.08070892
0002b0 0d d7 83 ba 30 ac 98 b7 5b 7f ec 3b 38 68 43 36
       -0.0010058597 -1.8199993e-05 0.0072173304 2.9117928e-06
0002c0 75 35 0e bb 00 25 86 3c 16 74 61 bd fc 65 db 3c
       -0.0021699343 0.016375065 -0.05504235 0.026782028
0002d0 38 22 f2 ba 45 e7 03 34 e8 da 1f b6 39 48 f2 b5
       -0.0018473333 1.2284461e-07 -2.3820267e-06 -1.8051425e-06
0002e0 73 d5 bb b7 cc b6 2d 3d 50 86 42 b4 d7 56 55 3d
       -2.2391532e-05 0.042410657 -1.811652e-07 0.05208477
0002f0 4a 3c b4 3d e8 77 0d bc d6 6d 2f bd ac 05 66 3d
       0.08800562 -0.008634545 -0.042829357 0.056157753
000300 17 a5 57 3d 50 77 48 bd 7b a7 bd b5 b4 d5 be bd
       0.052647676 -0.04894191 -1.413034e-06 -0.093181044
000310 da c0 72 bd 4c ba 47 34 30 94 0c b8 ab bc 3e 37
       -0.05926595 1.8601094e-07 -3.351661e-05 1.136881e-05
000320 ff ce a9 37 12 be a3 3d 0a d4 39 b6 e1 a0 a9 bc
       2.024276e-05 0.079952374 -2.7690571e-06 -0.020706596
000330 67 4f de 35 1b 8b 19 b5 30 c4 27 3a 2d 77 1f bd
       1.6563398e-06 -5.7199367e-07 0.00063997786 -0.038932014
000340 a7 08 b1 3a b2 55 34 bc b7 81 7c bd 6a f4 75 bc
       0.0013506607 -0.0110067595 -0.061647143 -0.015011886
000350 67 7d b5 3d 9f d3 87 3d a7 6f 98 3d ef 36 a6 3c
       0.08861809 0.066321604 0.07443171 0.020289866
000360 f9 65 42 3d cb b1 95 37 7f 28 7e bc dc 5c 21 3c
       0.04746053 1.7844975e-05 -0.015512585 0.0098488
000370 da 0f 41 bc 1e 5e 09 bd 89 bd 20 b9 a3 a2 5e 37
       -0.011783564 -0.033537023 -0.00015329396 1.3270098e-05
000380 6a 26 3b 3c ae 94 f4 ba 5b e8 a7 bc 41 23 17 36
       0.011422733 -0.0018660033 -0.020496538 2.2521274e-06
000390 83 e4 a8 bc b5 7a f3 bc 3b ab 46 3c ec a1 80 36
       -0.020616775 -0.029721597 0.012125785 3.8335475e-06
0003a0 60 0d a0 3d af 13 b9 3d 9d 5d 06 37 86 0d 07 3a
       0.07815051 0.090369575 8.008818e-06 0.00051518565
0003b0 15 82 cf 36 26 27 fe b4 23 ca 63 b5 d6 e7 b5 35
       6.1842243e-06 -4.733967e-07 -8.485824e-07 1.3553024e-06
0003c0 bc 9f aa 3a ad c3 a6 3d f7 65 ae 37 7c 17 6d bb
       0.0013017575 0.08142791 2.0789897e-05 -0.0036177328
0003d0 7f 2d 8a 36 60 3f 07 bc 73 ee fd b6 35 c8 3b 3d
       4.118017e-06 -0.008254856 -7.5677467e-06 0.04584523
0003e0 e6 5e 56 3d 79 cf ca 3b d6 17 34 bd 43 7a 63 bc
       0.052336596 0.0061892834 -0.043968044 -0.01388413
0003f0 01 20 f3 b6 8d ca 85 36 01 eb 24 36 cf cd a1 bd
       -7.24569e-06 3.987289e-06 2.4574695e-06 -0.07900583

convs.2.weight f4 [16, 16]
000000 94 20 aa 38 5e f5 47 bd 79 4f dc bc 57 da 7c bd
       8.1123e-05 -0.048817985 -0.026893364 -0.061731663
000010 f7 81 8e 3d 9d 08 ae bd 6f 9d 41 3d 22 c6 da 36
       0.069583826 -0.084977366 0.04726928 6.519972e-06
000020 90 b9 dc b6 45 55 d3 3c a2 ca 90 b6 a7 63 d5 3c
       -6.5781132e-06 0.025797496 -4.315124e-06 0.026048495
000030 6f c5 2a 3d 31 3d 8d bd 9d 00 e1 3a 86 50 0c 35
       0.041692194 -0.06896437 0.001716632 5.227124e-07
000040 03 36 1c 37 69 b4 26 36 ce 22 11 b8 9a 2b 04 bc
       9.3109e-06 2.484094e-06 -3.460311e-05 -0.008067036
000050 a7 79 50 34 04 63 af 3d 8a 5b 07 3d c5 ab d8 35
       1.9415766e-07 0.085638076 0.033046283 1.6143246e-06
000060 8e 50 ab bd 24 e3 42 b5 c6 7b 0d bd c0 82 6e 3d
       -0.08364974 -7.2601165e-07 -0.034541868 0.05823016
000070 3f 3d bd bc d9 e1 5a b5 b9 c3 1b b7 c2 ca 89 b6
       -0.023100493 -8.153998e-07 -9.28429e-06 -4.1065223e-06
000080 25 86 ab 3d 24 7f a4 35 a0 79 9d 3c c5 01 52 3d
       0.083751954 1.2255955e-06 0.019223034 0.05127122
000090 ea ea 69 3d a9 59 0d ba a2 20 16 b7 96 75 05 3c
       0.057108797 -0.00053920835 -8.948295e-06 0.00814571
0000a0 be bd 0a 38 8f 4d e3 3b 56 80 23 b7 bc a5 0b bd
       3.3078475e-05 0.006936736 -9.745438e-06 -0.034093603
0000b0 f6 94 33 3b 2e d7 9d 35 21 64 a9 3b 03 06 c2 3d
       0.002740202 1.1760037e-06 0.005169407 0.09473803
0000c0 29 ae 0e 3d 0a 7a ae 3d 64 d9 1a b5 2e fe 89 bd
       0.03483406 0.08519371 -5.7685816e-07 -0.06737934
0000d0 99 96 1b bd c3 14 ce bc a1 92 92 bd 6b f3 23 bc
       -0.037985418 -0.025156384 -0.071568735 -0.010006766
0000e0 2b e6 a2 bd e1 c1 a3 bd 82 2a b2 bc 22 b6 be bd
       -0.07954057 -0.07995964 -0.021748785 -0.09312083
0000f0 de 32 c5 bc 04 8a cf 3a 1d fe 7e 3d a6 e3 3c b4
       -0.024072107 0.0015833979 0.06225406 -1.7591682e-07
000100 8f 89 98 37 50 39 5e 3c ad 2d 17 bc 7a 36 f0 bb
       1.8183868e-05 0.013563469 -0.009227199 -0.007330713
000110 99 fd c7 3c 1e 80 8e bd 45 70 e4 b5 92 72 93 3d
       0.024412917 -0.0695803 -1.7019998e-06 0.07199587
000120 6b 41 9a b6 7a 9e 0d b8 d9 06 a1 bc 42 18 55 b3
       -4.5971733e-06 -3.3764612e-05 -0.019656586 -4.961499e-08
000130 9f e2 19 35 33 ca fc b6 16 5c f5 3a 5d 88 8d 3d
       5.732672e-07 -7.5337243e-06 0.001871946 0.06910775
000140 19 47 48 bd 14 f2 d9 b4 4f 54 21 bc f6 57 5d bd
       -0.04889593 -4.0595535e-07 -0.009846761 -0.054038964
000150 cd 40 7e 35 e7 27 92 bd 89 11 19 3d b2 92 04 b6
       9.471667e-07 -0.07136517 0.03737024 -1.975492e-06
000160 db d1 67 bc 1f 14 49 3c ec d0 ad bd 30 e0 eb ba
       -0.014149155 0.012272864 -0.08487114 -0.001799589
000170 79 9d 81 b5 c6 c4 85 bd de 38 e0 bc e2 ca 15 36
       -9.65708e-07 -0.06531672 -0.027370866 2.2320824e-06
000180 4b e4 44 3d df 05 b6 3d 29 b0 e0 3c 8a a5 b1 bc
       0.04806928 0.088878386 0.02742775 -0.02168538
000190 8d 8e f7 bc 76 11 8f 3d 07 0e 3e 3a 9a 6a 4c 36
       -0.03021934 0.06985752 0.0007250015 3.046042e-06
0001a0 af dc 09 b5 f0 1a 67 bd 11 71 af b9 eb b8 b4 3d
       -5.1357614e-07 -0.056422174 -0.00033462842 0.08824333
0001b0 d5 90 1e 37 3a cf b0 34 68 05 7c bd f9 64 88 bc
       9.451255e-06 3.2933332e-07 -0.061528593 -0.01664971
0001c0 d3 82 81 b7 d2 10 ce bc 8c 63 9c b6 75 b0 33 3b
       -1.5438918e-05 -0.025154505 -4.660751e-06 0.002741841
0001d0 f8 67 bb bd b5 4b 55 34 be 56 00 bd c0 b4 0e bc
       -0.0915069 1.9864713e-07 -0.031332724 -0.008710086
0001e0 3a 21 da 3a c2 73 60 3d ba d1 a1 37 8d cd 3f bb
       0.0016641982 0.054797895 1.9290357e-05 -0.0029266805
0001f0 08 11 9c bd f2 a2 3c bc ee 42 90 bd 6e dc f3 b5
       -0.07620436 -0.011513459 -0.07044016 -1.8169064e-06
000200 4d 93 c4 36 fe c3 a9 bd 72 3d 8f 3d e6 ad d5 3c
       5.8584033e-06 -0.08289336 0.06994142 0.026083898
000210 ce bc bb bd 50 1f fe bb d2 ba 6b 39 fc 5e c0 b6
       -0.09166871 -0.0077551976 0.00022480942 -5.7331035e-06
000220 fd b6 86 b5 32 29 b7 bb b8 bb 66 3d e3 f8 87 bc
       -1.0037035e-06 -0.0055896277 0.056331366 -0.01659817
000230 62 2f 7b 3d bb b3 5d b4 cb 9c 68 36 94 fb 54 3d
       0.061324485 -2.0647614e-07 3.466196e-06 0.051997736
000240 fa 59 cd 36 20 d9 92 bc de 01 b3 b5 a2 d7 6c 3d
       6.1199507e-06 -0.017925799 -1.3337083e-06 0.05782283
000250 bd 7f 38 bd 3d 3d fb 36 1e 66 bd bd f7 46 4c 3c
       -0.045043696 7.487512e-06 -0.09247993 0.012468091
000260 84 b1 97 3a f3 86 40 b7 a4 b3 83 3b aa c7 2f 33
       0.001157329 -1.1475512e-05 0.0040192176 4.0926956e-08
000270 fc 36 82 3c bc c4 5d bd aa 69 3c 35 df 12 a4 3b
       0.01589536 -0.0541427 7.018922e-07 0.0050071324
000280 78 09 c3 3d 26 be 31 3c ab bf 2d bd 38 a1 4c 3d
       0.095232904 0.010848558 -0.042419117 0.049958438
000290 7e f0 13 b7 e3 9f 13 b7 b5 04 9e bd 92 40 2d 35
       -8.817877e-06 -8.799109e-06 -0.077157415 6.4541484e-07
0002a0 ea a2 1f 3d 3b 3d a4 36 0f 1b a1 bc cf 25 63 38
       0.038973726 4.894709e-06 -0.019666223 5.415623e-05
0002b0 ff 9b 28 b9 0d b9 9f 3d 40 22 8d bd e9 44 f1 b8
       -0.00016079842 0.077989675 -0.06891298 -0.00011504611
0002c0 09 fd b5 bd 36 b3 09 bb 83 42 e7 38 8d b8 b4 3d
       -0.08886153 -0.002101136 0.00011027327 0.08824263
0002d0 79 95 6f b6 c7 58 bc 3d dc 6e bb 35 10 b0 9b 3c
       -3.570078e-06 0.091966204 1.396485e-06 0.019004852
0002e0 a3 86 65 3d c2 3b 80 3d 2f b9 88 bc 7e 66 a2 3d
       0.056036603 0.06261398 -0.016689865 0.07929705
0002f0 61 af bb 3c d6 70 e1 bb 9b db fc bb ed 5b 81 bd
       0.022910776 -0.006879906 -0.0077166087 -0.063163616
000300 38 88 3e b7 2d 72 6c bd 70 07 6c 3b 94 1e fa 38
       -1.1356598e-05 -0.057726074 0.0036015175 0.000119266246
000310 3e 7b 8d bd 11 1d 0f b8 e7 bb 4c b5 e2 be c4 3b
       -0.06908272 -3.4120927e-05 -7.6269356e-07 0.0060042003
000320 6d 94 97 3c 11 4f c2 bd be 6f a1 3d 42 51 81 3d
       0.018503392 -0.09487737 0.07882641 0.06314327
000330 c2 2a 16 3b 2c 20 a0 bd fb fa 55 ba d5 ea bb 37
       0.002291367 -0.07818636 -0.0008162704 2.240149e-05
000340 85 63 ca 37 fb 18 8d 3c 73 00 81 3a 7d 34 5e 3d
       2.4126619e-05 0.017223826 0.0009842053 0.054249275
000350 5a 19 af ba dc 4c c5 39 76 ca 4a 3a de cd 7d bd
       -0.0013358996 0.00037632033 0.00077358575 -0.06196391
000360 31 e7 b7 bd 43 61 42 bc b0 e3 0f 3d fe b4 ab bd
       -0.08979643 -0.011864009 0.03512925 -0.08384131
000370 4d 24 8e bd 99 3a 89 3c a2 e4 68 3c 19 be 75 3d
       -0.069405176 0.016751574 0.014214667 0.059995744
000380 c4 0b 42 bd b1 27 31 bd f2 fc 37 3c 9b d0 8d 3d
       -0.0473745 -0.043250743 0.01122974 0.06924554
000390 12 0c b3 3c cd 2b 0f 33 a3 9e 8d 39 8e f6 ae 3d
       0.021856342 3.333462e-08 0.0002701181 0.0854312
0003a0 75 fc eb bc e7 84 bd bb d9 27 1a 3d 42 b2 0f bd
       -0.028806904 -0.0057836655 0.037635658 -0.03508211
0003b0 92 38 80 bc 55 c7 2f 3d a7 c9 ec 38 67 b1 45 39
       -0.015651975 0.042914707 0.000112909176 0.00018853472
0003c0 32 aa 71 bb 10 1e 30 b6 4a a8 a0 3d 50 35 b5 bc
       -0.0036875126 -2.6243542e-06 0.078445986 -0.022120148
0003d0 f2 c2 d3 b5 7d 2f f8 3b 31 e0 13 bd 67 65 b8 3d
       -1.5777462e-06 0.0075740204 -0.036102477 0.09003716
0003e0 64 63 21 bc d0 08 fa 36 b2 ec e6 37 a3 3f f4 bc
       -0.009850357 7.4516065e-06 2.7528356e-05 -0.0298155
0003f0 33 bc bc bd ff 08 8d 3c 2a 73 05 b8 ff a5 a9 bd
       -0.09215584 0.017216204 -3.1816926e-05 -0.08283614

convs.3.weight f4 [16, 16]
000000 b6 f5 e9 bc 8f ce bf 3d 7c c1 d3 3a 09 b3 20 3b
       -0.028559547 0.0936557 0.0016155685 0.0024520776
000010 ac ff b2 bc b0 f8 97 bb c2 f2 0e b7 f8 9f bb 36
       -0.02185043 -0.0046378 -8.520381e-06 5.591657e-06
000020 ad 65 10 bd 70 12 cc 36 c2 1b 02 b6 c0 1d 1f 35
       -0.035253216 6.08182e-06 -1.9387667e-06 5.927541e-07
000030 9d 0e 82 36 29 22 11 bb 7f a6 e1 b7 82 72 bb 3a
       3.876003e-06 -0.0022145605 -2.6899621e-05 0.0014301094
000040 c3 b4 50 bc 84 32 c1 bd 46 a5 4a 3c 70 db eb 32
       -0.012738409 -0.09433463 0.012368506 2.745739e-08
000050 85 5d 30 bc c0 2f b5 3d 0b 03 b9 bb 89 f6 09 3d
       -0.010764484 0.08846998 -0.0056461147 0.03368238
000060 ea 32 2e 3c 8b 3a 81 bd 4a a5 eb 3c 6a 6f a2 bd
       0.010632256 -0.06309994 0.02876534 -0.07931407
000070 33 dc 82 bc 6e a5 5a 36 d5 ce 08 bd bd db ba 3d
       -0.01597414 3.2580824e-06 -0.033400375 0.09123943
000080 f0 0b 78 b6 aa c3 13 3b cf 5f 97 bd 94 a3 99 3c
       -3.6961828e-06 0.0022547045 -0.07391321 0.018754758
000090 a0 50 9c b8 24 50 46 bd 6f 00 19 36 7c 47 09 3c
       -7.453677e-05 -0.04841627 2.279903e-06 0.00837886
0000a0 65 18 8c 3d 72 a1 c1 bc 75 2a 15 bc 24 7d 82 b4
       0.068405904 -0.023636553 -0.009104361 -2.430544e-07
0000b0 8d 59 0c b8 72 92 df 3a ec 63 7b 3c a6 8d fc b6
       -3.3462e-05 0.0017057194 0.015343647 -7.5266753e-06
0000c0 a6 75 84 3c 0d 12 35 3d 35 93 c9 37 5c 8c 22 3d
       0.01616938 0.044206668 2.4029616e-05 0.03968464
0000d0 99 a0 0f 3c 60 e6 92 3d 34 bc 91 bc c4 d7 17 bc
       0.008766317 0.07172847 -0.017789938 -0.009267751
0000e0 f2 e9 6a 37 2c a0 69 b6 0c 2d b5 3c 9a 77 94 bc
       1.40019565e-05 -3.4812938e-06 0.022116207 -0.018123437
0000f0 3b 0c 23 3c 22 1f 5d ba 2f c2 b9 3c 28 a3 5c 36
       0.009951646 -0.000843512 0.022675602 3.2877524e-06
000100 a2 74 90 bd 04 17 7e bc 95 4a 2b bd ce 56 1b 3c
       -0.07053496 -0.015508417 -0.041819174 0.009481145
000110 f8 7d 06 bd 1d be a7 35 05 bf 18 37 be 60 7a bc
       -0.032834977 1.24978e-06 9.104381e-06 -0.015281854
000120 01 75 c4 b7 8f a6 ba bd 22 6a 25 bd 44 db 9c bd
       -2.3419505e-05 -0.091138 -0.04038442 -0.07659009
000130 c2 f9 c6 b7 e4 49 84 ba 22 de 40 36 ad 10 51 36
       -2.3719742e-05 -0.0010092822 2.8739528e-06 3.1153133e-06
000140 76 6c e8 3b 2d 50 a1 3d 87 24 60 3a c7 1a 0a bb
       0.0070930077 0.078766204 0.0008550365 -0.002107309
000150 f2 8e a9 bd d4 ba 78 3a 56 86 1a bc ee db 30 3c
       -0.08279218 0.0009488289 -0.009431442 0.010794623
000160 34 1f 05 3d 0f 1e e6 3a 7a 5f aa 3d a7 3f af 3d
       0.03250046 0.0017556566 0.08318992 0.085570626
000170 58 95 0c 37 2b cd 2e bd 30 98 97 3d 07 fe f4 bb
       8.379422e-06 -0.042676132 0.07402074 -0.0074765715
000180 a3 d7 ee bb 04 93 80 3d 96 f1 50 3d b0 59 bf 37
       -0.0072888895 0.06278041 0.051011644 2.2810738e-05
000190 4d 4e 35 b5 63 53 82 bd 21 32 d1 b5 9d 3a b3 3d
       -6.7541697e-07 -0.06363561 -1.5586303e-06 0.08751414
0001a0 0c 5e b0 b7 e0 1f be 33 c1 f2 05 b7 31 68 20 ba
       -2.1024629e-05 8.8533625e-08 -7.983938e-06 -0.00061190414
0001b0 1f 63 b0 3c 5a 57 11 b5 99 d9 f2 3c 02 a7 a1 36
       0.02153164 -5.414382e-07 0.029644774 4.817616e-06
0001c0 fe c2 94 3b 32 77 47 3b e9 81 c1 b6 10 e4 d6 3c
       0.0045398464 0.0030436036 -5.7669718e-06 0.026231796
0001d0 a8 c4 d4 3c 4a 90 a5 3d e6 5c 4c 3d 7a 28 d0 37
       0.02597268 0.080841616 0.049893282 2.481438e-05
0001e0 95 85 84 bd 73 1a 13 37 13 fa 20 38 f1 8a d5 37
       -0.06470791 8.768041e-06 3.8379872e-05 2.5456278e-05
0001f0 5f 73 ab 36 7a 9b a5 36 3f 8a 2f 3d 36 46 b3 38
       5.109628e-06 4.935483e-06 0.04285645 8.548463e-05
000200 79 19 47 ba 50 23 42 bb 79 65 24 37 aa 3a ea ba
       -0.0007595043 -0.0029623099 9.798788e-06 -0.0017870266
000210 17 fd 99 3d 33 1b 56 3c e4 8b 9b 3d 9a 25 0d 35
       0.07518976 0.013068008 0.075950414 5.258131e-07
000220 3b b0 b3 35 45 3b 15 3a 9f de ad bd e3 7f 39 b4
       1.3387829e-06 0.0005692731 -0.08489727 -1.7275993e-07
000230 1d 7c fb 33 35 b0 89 bc 1c ce 51 bd bd 39 94 3d
       1.17106744e-07 -0.016807655 -0.05122195 0.07237575
000240 d2 6a 6e 3d 37 26 d6 3b 2d 25 b1 3d a9 29 2f bb
       0.05820734 0.0065353173 0.08649669 -0.0026727712
000250 b8 48 92 36 28 3c c2 3a 9a a7 5c b6 52 b0 de 34
       4.3596046e-06 0.0014818953 -3.2880112e-06 4.1479012e-07
000260 df 0b 79 bd c6 72 cd b7 29 07 ba bc 35 21 de b4
       -0.060802337 -2.449135e-05 -0.022708492 -4.1374884e-07
000270 be 07 ba 3d aa 2d 5f b8 f6 1f ed b8 ef d2 b8 3c
       0.09083508 -5.320987e-05 -0.00011306994 0.022561518
000280 67 79 91 ba 54 2e 04 35 84 70 a8 3d 26 a6 3d bb
       -0.0011098803 4.924125e-07 0.08224586 -0.0028938144
000290 40 58 25 bd 2c a4 88 bc 0c 60 07 38 b9 f6 f4 bb
       -0.040367365 -0.016679846 3.227596e-05 -0.0074757007
0002a0 b8 86 42 bc a1 3a 29 3b aa f3 c9 b6 39 99 23 b9
       -0.01187294 0.00258223 -6.018633e-06 -0.00015601971
0002b0 d4 88 52 bd ae d4 df b8 12 b5 6a bb c3 3b 62 b9
       -0.05140002 -0.00010673083 -0.0035813493 -0.00021575303
0002c0 4f 31 9b bd 2c 82 18 37 4a 34 33 bd 50 f8 53 bd
       -0.07577764 9.090214e-06 -0.04375104 -0.05175048
0002d0 fb 85 71 bd 54 b3 58 3b 44 51 b7 bc f4 97 47 bb
       -0.058965664 0.0033065872 -0.022377618 -0.0030455561
0002e0 6f cf 57 3d e6 93 58 3c df 2f 97 3c 10 20 af bd
       0.05268806 0.0132188555 0.018455444 -0.08551037
0002f0 55 8b 26 bd 87 f2 bc ba f1 aa 78 3d cb 75 9d 35
       -0.04066022 -0.001441554 0.060709897 1.1731694e-06
000300 63 d5 3c bd 9f 03 fa b6 be 5b 52 bd ac 75 ab b6
       -0.04610194 -7.451002e-06 -0.051357023 -5.109896e-06
000310 13 cb 11 38 c3 33 8c 3d b5 22 81 38 f9 34 cd 36
       3.475982e-05 0.0684581 6.157664e-05 6.115643e-06
000320 69 ed 60 b7 13 58 e9 37 3f b4 06 3b f3 d6 0e 3b
       -1.3406717e-05 2.7816777e-05 0.0020554212 0.00217956
000330 79 0c f7 b7 32 13 fc ba b4 22 87 3d 48 c1 73 b4
       -2.9450503e-05 -0.0019231795 0.06598416 -2.2701454e-07
000340 fc 34 f9 ba dd 58 d4 3c 1a f8 6f 3d 65 c0 c2 3d
       -0.0019012983 0.02592128 0.058586217 0.095093526
000350 4e c3 f4 b5 1e 59 ed b9 c4 0d 2f 3c 14 15 89 3d
       -1.8236258e-06 -0.0004527056 0.010684434 0.066934735
000360 aa 8e bc bd 42 56 82 37 24 2b 0e bd 81 6b 34 b6
       -0.092068985 1.5537375e-05 -0.03470911 -2.6884666e-06
000370 0d fc 4a 3b 45 a7 d1 b6 c2 09 01 36 3f bf b3 3b
       0.0030972988 -6.248158e-06 1.9228178e-06 0.005485445
000380 8e e2 7a 36 30 c5 81 bd a3 58 64 3d cc 74 27 bc
       3.7384775e-06 -0.06336439 0.055748593 -0.010220718
000390 2b e8 58 35 64 74 a1 35 c2 81 55 35 40 61 ab bd
       8.080412e-07 1.2029309e-06 7.9537506e-07 -0.08368158
0003a0 90 c5 c9 3b e3 0f be bb 69 02 42 bc 19 3e 3c b5
       0.0061575845 -0.0058002337 -0.011841395 -7.012582e-07
0003b0 e9 c7 47 bc ca ae d2 bb 4c 98 c8 b9 fc 72 b4 ba
       -0.012193658 -0.006429528 -0.00038260443 -0.0013767178
0003c0 06 89 59 bb 9e 1c 02 38 9e 27 e3 b7 01 67 6b bd
       -0.0033193245 3.1021067e-05 -2.7078957e-05 -0.05747128
0003d0 5b 1d bb bc 4b b1 27 36 ff f2 f8 b5 3b 21 81 3c
       -0.022841146 2.4988137e-06 -1.8548161e-06 0.015762916
0003e0 cd 3d 1c bd d9 dc 1f 39 8a cd 91 3c dc 20 84 3c
       -0.038144875 0.00015245694 0.017798204 0.01612895
0003f0 73 75 a7 bd 42 d3 d0 ba 00 bb 89 bd 6e 60 dc bc
       -0.081766985 -0.00159321 -0.067251205 -0.02690145

convs.4.weight f4 [16, 16]
000000 66 e9 85 3c 7e 5c 63 b6 d3 31 75 3b e8 26 a6 bc
       0.016346645 -3.3879473e-06 0.003741373 -0.020282224
000010 e1 1b c2 35 0f a0 ba bc 21 ab 21 3c 95 90 95 bb
       1.446224e-06 -0.0227814 0.0098674605 -0.0045643547
000020 3d d0 a2 b6 35 01 8d bd 35 6c 8a b7 39 1d af 3d
       -4.8522184e-06 -0.06884996 -1.650127e-05 0.08550496
000030 a9 bb 0a 3c 57 6e 5d bc 7a 01 8a 36 3c ea 3f 36
       0.008467593 -0.013515077 4.1128924e-06 2.859756e-06
000040 62 2d 68 bd cf 00 58 3d 3f a6 5d 35 46 1f 0f 37
       -0.056683905 0.052735146 8.2570836e-07 8.530746e-06
000050 3d cf 28 bb e1 61 e2 bb 41 b2 61 b6 37 20 9a 3a
       -0.002575829 -0.0069086407 -3.363137e-06 0.0011758868
000060 0f 74 cf 36 75 7d 05 bc fb 45 b8 3d 03 8c 2b b6
       6.1825917e-06 -0.008147587 0.08997723 -2.5562483e-06
000070 f6 8c c3 bc 7f ce e1 bb bd 1b be 3d 19 af 56 36
       -0.023870926 -0.0068910713 0.092826344 3.1990405e-06
000080 a4 24 f6 b5 9a 1b 54 bb 7f c5 df 37 27 c1 82 bd
       -1.8339092e-06 -0.0032365085 2.6675638e-05 -0.06384497
000090 2a 21 60 bd 0c 3f a4 3c a1 10 88 3d e8 2a b1 3d
       -0.054719128 0.020049594 0.06643797 0.08650762
0000a0 99 ff 29 bd 4c 7e 6b 3c eb 68 cb bc 57 00 b1 3c
       -0.041503523 0.014373373 -0.024830302 0.021606607
0000b0 93 b7 29 3d f9 3b 50 3d 96 a8 28 3d e9 71 d3 3c
       0.041434836 0.050838444 0.0411764 0.025811153
0000c0 b0 56 b2 b6 bd 8d cb 3b 79 85 59 ba a7 66 91 3b
       -5.314905e-06 0.006211965 -0.0008297782 0.004437286
0000d0 4b de 31 b9 65 b7 08 36 ef 20 8e bd 65 cf ef 37
       -0.00016962846 2.037233e-06 -0.06939875 2.8587596e-05
0000e0 02 3e 4f bc fa 0a ca b9 08 a0 e3 bc 9a 14 9a bd
       -0.012649061 -0.0003853662 -0.02778627 -0.07523461
0000f0 37 48 33 36 cd ce f0 3c 91 ca 9e 3d 6b 51 a2 3c
       2.6715113e-06 0.029395485 0.0775348 0.019814214
000100 b3 6e 41 bc da 15 c0 bd ae 96 c5 3a ea 55 89 3c
       -0.011806178 -0.09379168 0.0015074813 0.0167646
000110 bc 4d 89 bd ec b5 5e 3a 5f 0d 84 3d 85 15 3c b5
       -0.0670428 0.00084957364 0.06447863 -7.006677e-07
000120 77 d2 b7 bc 40 c2 73 3d 8f ba 7e 3b 71 fa 00 3d
       -0.022439225 0.059511423 0.0038868522 0.03148884
000130 4a 53 0a bd 79 88 a0 3c 23 e7 0e bd 94 4b c0 3d
       -0.033770837 0.019596325 -0.034888398 0.093894154
000140 e4 41 71 bb 53 f2 b7 3c 4f c8 73 36 5c da f6 b7
       -0.0036812956 0.022454416 3.6326417e-06 -2.9427167e-05
000150 11 1b 97 b5 23 64 40 3b 66 69 56 bb 8b 2e ac bd
       -1.1258254e-06 0.002935656 -0.003271663 -0.08407315
000160 21 3a de ba 41 94 57 3d 34 c2 e8 37 b1 95 d6 38
       -0.001695458 0.05263162 2.7746988e-05 0.000102321974
000170 10 24 9a ba ee 7f 3e 3d 2b 39 b3 3c 03 dc 39 3a
       -0.0011760015 0.046508722 0.021877846 0.0007089974
000180 ec cb 34 bc 74 99 71 bd 36 0f 54 b5 c7 c5 a5 bc
       -0.011034947 -0.058984235 -7.899829e-07 -0.02023591
000190 ad 95 75 3d 08 05 b4 bd 8d bf ab 3b 55 83 c3 3d
       0.059957195 -0.08790022 0.0052413405 0.09546534
0001a0 e5 43 23 3c a0 94 ee 39 67 85 b4 bd 79 69 b4 3d
       0.009964918 0.00045505632 -0.08814507 0.0880918
0001b0 56 41 99 36 ff b8 a8 bd 2a 49 bf 3d 69 2d 33 bb
       4.5673614e-06 -0.0823841 0.09340127 -0.00273403
0001c0 4c bc 95 36 86 ad a0 3d cd d3 15 bd e3 c1 1f bd
       4.4624667e-06 0.07845597 -0.036578942 -0.039003264
0001d0 03 6f 03 b6 65 88 c2 b5 9b 07 72 b6 89 56 81 bd
       -1.9585138e-06 -1.4493822e-06 -3.6065237e-06 -0.063153334
0001e0 23 b2 77 b8 85 99 a6 bb 86 7c 14 bc f9 d3 a0 bd
       -5.905529e-05 -0.005084219 -0.009062892 -0.078529306
0001f0 39 40 57 3c c6 24 c4 34 6c 07 84 bd 05 42 5f 3d
       0.0131378705 3.65346e-07 -0.06446728 0.05450632
000200 b3 e0 a5 37 ce 35 4c b6 de 4f a6 bc 9b 62 20 36
       1.9774167e-05 -3.0429687e-06 -0.020301756 2.3899254e-06
000210 08 1e b5 3d a8 d0 10 3d 52 06 54 bd 96 a6 9f 3d
       0.08843619 0.03535524 -0.05176384 0.077954456
000220 26 d4 5f 35 0d 01 04 3c 92 5b 52 3d 28 e1 86 3d
       8.338269e-07 0.008056891 0.05135686 0.06585914
000230 71 87 54 bd 56 48 90 3d f0 44 0c bd 5b 86 4d 35
       -0.05188698 0.07045047 -0.03424543 7.6563964e-07
000240 74 a9 19 bd 94 9d 33 b7 70 39 87 b4 33 31 02 37
       -0.03751512 -1.070592e-05 -2.51875e-07 7.760059e-06
000250 c6 fd d1 34 da 3a 85 b3 a8 f5 be 3d 06 85 9f 3c
       3.9113928e-07 -6.204e-08 0.09324199 0.01947261
000260 8a 61 88 3c 1e 93 1d 3b 66 75 50 3d 62 2f 18 35
       0.016648073 0.0024043988 0.05089321 5.6693364e-07
000270 ba ff 9b 36 57 24 eb 36 ba d6 8e bd b2 8c 68 bd
       4.6491305e-06 7.0077763e-06 -0.069745496 -0.056774803
000280 91 e9 21 b5 ae 45 02 bb a7 3e 89 35 27 3a a8 b6
       -6.031706e-07 -0.0019877958 1.022553e-06 -5.01356e-06
000290 ae f4 be 34 96 e7 f2 3c 61 1b 9e b9 11 e8 64 3d
       3.5568286e-07 0.029651444 -0.00030156507 0.05588538
0002a0 e0 2e 5c 3d 15 6e 4b bd 21 fe 4e bd fc 4a 6b bd
       0.05375564 -0.04966553 -0.050535325 -0.057444558
0002b0 f0 9d 79 bc 87 61 f9 ba 76 38 41 b5 fe ed bb 36
       -0.015235409 -0.0019026258 -7.1980264e-07 5.60074e-06
0002c0 09 af 2a bc 17 fb 0a b9 72 58 75 ba ce a3 bc 3d
       -0.010417708 -0.00013254244 -0.00093591877 0.09210931
0002d0 87 fb 9d ba 86 c3 25 bd 9c 62 52 3b 1a 91 46 34
       -0.001205311 -0.04046967 0.0032102233 1.8492975e-07
0002e0 a2 f9 49 3d af 8a d2 3c 8b 1f a2 3d 9b 7d 31 bd
       0.049310334 0.025700895 0.079161726 -0.043332677
0002f0 b7 01 e9 3c 49 8e 81 3d 22 e9 17 bc e7 4f a2 3d
       0.0284432 0.06325967 -0.009271892 0.079253964
000300 8a 21 3e 3d c9 74 be b6 f5 bf 05 3c 90 5a 24 ba
       0.046418704 -5.676037e-06 0.008163442 -0.00062695984
000310 2a dc 8e bd aa 2f 89 b7 59 1c 2e b5 61 af f6 bc
       -0.06975587 -1.6353868e-05 -6.48613e-07 -0.030112924
000320 18 f5 09 3c 51 91 87 bd cc 27 8a 3d 59 32 b7 3d
       0.008420251 -0.06619514 0.06745872 0.0894515
000330 34 26 02 b8 3e b9 d5 bc c0 9e 0c 3c c3 78 14 b6
       -3.1029995e-05 -0.026089307 0.008582771 -2.2124011e-06
000340 74 c0 02 b8 e0 01 86 39 3e d2 46 3d fd 19 85 bb
       -3.117365e-05 0.0002555987 0.048540346 -0.004061936
000350 2c 29 02 b7 97 a3 0f b8 cc 0f ea b6 1b 33 69 3d
       -7.75819e-06 -3.424621e-05 -6.9755824e-06 0.056933504
000360 9f 1d 4e bc eb 52 6f b7 04 97 42 b7 78 e3 fb 37
       -0.012580304 -1.4264816e-05 -1.1598462e-05 3.0027455e-05
000370 46 ff 0d 3d 35 51 af 35 c1 6d a4 bd b7 cd 8c 36
       0.034667276 1.306215e-06 -0.080287464 4.1962735e-06
000380 45 4c bc bb 76 ba bf 35 1d 92 fd 35 30 5b c1 bd
       -0.0057463967 1.4284876e-06 1.8892493e-06 -0.09441221
000390 51 b4 81 36 c0 0b b8 b5 ea 59 dd 36 eb 24 a2 3d
       3.865491e-06 -1.3712488e-06 6.5967806e-06 0.07917198
0003a0 b7 e0 34 b7 cd 6c e8 3c 5e 02 32 b7 7c 83 83 bd
       -1.0781157e-05 0.028372193 -1.0610178e-05 -0.06421563
0003b0 c0 1f 45 36 89 c1 7a 3d 8e 5e f7 bc 51 7b ed bc
       2.9373768e-06 0.061219726 -0.030196454 -0.028989466
0003c0 7c b2 bb 3d 16 f5 66 3d 33 d8 86 bc 4f 00 b7 3c
       0.091649026 0.056386076 -0.016460514 0.022339014
0003d0 57 4f 1e b4 e7 c0 be bd a1 ad c6 b5 99 60 49 39
       -1.474376e-07 -0.09314137 -1.4802682e-06 0.00019204839
0003e0 16 dd fc b7 44 b3 1c 3a c3 ed 87 bd 60 b2 15 3d
       -3.0143692e-05 0.00059776404 -0.06637146 0.036547065
0003f0 6c e4 86 3d 06 47 80 3c 8e 8e cc b6 f5 33 8d 39
       0.06586537 0.015658867 -6.0962693e-06 0.00026932327

convs.5.weight f4 [16, 16]
000000 7c 23 2b bd 0e 31 3d 37 67 13 61 b6 a3 5e 85 bc
       -0.041781887 1.1276699e-05 -3.3538906e-06 -0.016280478
000010 a0 09 36 bd 61 de 07 3d aa e5 0b 3d ed b6 9d bd
       -0.044442773 0.03317106 0.03415457 -0.07700906
000020 5c 5f fc 38 c2 fc 32 3b 9f 51 af 3d 39 cd 9c 3c
       0.000120340585 0.00273113 0.0856049 0.019140827
000030 57 61 a2 3d e4 5d 7c b9 5d cb 1a 3d 50 ad 6e 3d
       0.07928722 -0.0002406757 0.0377916 0.058270752
000040 c8 ec ac bd a1 55 66 bd 14 de 93 36 bc a7 75 3c
       -0.084436 -0.056234006 4.4067947e-06 0.014993604
000050 f6 b6 1c bc 18 d1 66 b5 55 62 c0 34 22 e7 88 b7
       -0.009565106 -8.598595e-07 3.5834333e-07 -1.6320093e-05
000060 92 bc 64 bc f1 36 8d 3c d7 d2 02 3d b3 46 16 bd
       -0.013960974 0.017238112 0.031939354 -0.036688518
000070 da e4 81 35 f4 de 34 b6 14 e6 2e 39 66 87 a7 3d
       9.677854e-07 -2.6951866e-06 0.00016679644 0.08180122
000080 9d 4f 44 b7 a1 aa fc b6 9e 89 99 3d 85 a2 cb ba
       -1.1701047e-05 -7.530049e-06 0.074969515 -0.0015536105
000090 67 eb a1 37 f4 f7 4c 35 87 f0 46 bd 76 7e 80 b4
       1.9302313e-05 7.635674e-07 -0.04856923 -2.393387e-07
0000a0 bf cc 0b bd b1 ab da 35 54 ae 93 35 b7 64 29 36
       -0.034130808 1.6292234e-06 1.100309e-06 2.5241586e-06
0000b0 c5 2d 83 bd 46 3e af bd 41 4e cd 3b 9c ee 88 3d
       -0.06405214 -0.085567996 0.006265432 0.06686136
0000c0 6d 16 95 bd a8 d5 9c 3a a6 38 34 bd 84 e2 1a 37
       -0.07279668 0.001196553 -0.043999337 9.231855e-06
0000d0 56 03 a7 3d 02 c8 44 3d 8a 9e 30 bd 9f f1 ca 3c
       0.08154933 0.048042305 -0.043119945 0.024773417
0000e0 9e 79 48 3c 5f f5 47 b6 99 56 b7 3d a6 b5 13 bb
       0.012236027 -2.9796136e-06 0.08952064 -0.002253869
0000f0 81 2f 12 b6 44 f5 2a bc ef cd 8e b5 af 08 e9 b7
       -2.1783346e-06 -0.010434452 -1.0639759e-06 -2.7779808e-05
000100 78 a9 5f b5 bb c1 8b bc af d2 b3 bb 88 39 e6 39
       -8.3320583e-07 -0.017060151 -0.005487762 0.00043911883
000110 1b c2 90 bd 5e 17 c1 b4 aa 5e 76 b4 c8 3c 2d bb
       -0.07068273 -3.5966053e-07 -2.2944974e-07 -0.0026433934
000120 25 cb 82 3a ef 80 d9 b4 6a f6 1b 3d 3f b9 aa 34
       0.0009978755 -4.051321e-07 0.038076796 3.1799752e-07
000130 a6 4e da bc 43 19 1f 3d 69 83 39 36 5e 2c e0 37
       -0.02664883 0.03884245 2.764364e-06 2.6723541e-05
000140 e1 e6 fd bc 1e 60 53 36 21 ef b0 bd 64 50 eb b7
       -0.03099388 3.1497398e-06 -0.0863936 -2.8051618e-05
000150 38 e5 18 3c 5f e9 90 bd 5c 24 f8 bc de d7 27 bd
       0.009331994 -0.07075762 -0.030290775 -0.04097735
000160 e3 0f 82 3d d8 ea 85 3d 74 18 2d b5 23 95 aa 3d
       0.063506864 0.065389335 -6.4483106e-07 0.08329227
000170 92 53 b2 b9 b5 3d b8 bd 95 5d 23 3a 74 d1 41 3a
       -0.0003401307 -0.08996145 0.00062319014 0.00073935767
000180 78 5b bc 3d cb ec 04 b5 58 99 4a 3d 06 34 c4 3c
       0.09197134 -4.951841e-07 0.049462646 0.023950588
000190 c7 4d 2b 3d 4b 86 c1 bd 81 94 76 3d 39 db 86 bd
       0.04182222 -0.094494425 0.060200218 -0.06584782
0001a0 de dc 98 3d 6b 47 05 b6 3b 9d 94 bd 24 05 0f b8
       0.07464002 -1.9860115e-06 -0.07256552 -3.4098644e-05
0001b0 cc 53 a4 b6 c8 8f 99 bd 26 87 7b ba 43 e1 c6 35
       -4.897336e-06 -0.07498127 -0.0009595029 1.4817709e-06
0001c0 75 03 54 3d 86 b4 65 b8 a8 05 ae 3c d8 e2 72 37
       0.05176111 -5.476598e-05 0.021242931 1.447714e-05
0001d0 2e 18 81 b6 d0 80 9d b4 89 43 fa bc 43 b3 7c bd
       -3.8473145e-06 -2.9337252e-07 -0.030549781 -0.061694395
0001e0 66 cf 0a b9 82 a5 a7 bd a5 45 de bb 39 18 fe b4
       -0.00013237968 -0.08185865 -0.0067832046 -4.732881e-07
0001f0 d3 3b fd bc 4e fb 4e bb ee 7e ff b6 d1 15 f4 36
       -0.030912315 -0.0031582895 -7.6143688e-06 7.2743064e-06
000200 ea d3 80 bc 1a 2f 1e b5 cf 6c 4d b6 e1 fd e0 b7
       -0.015726048 -5.892813e-07 -3.0610715e-06 -2.6821102e-05
000210 92 a1 23 b4 32 e4 20 bc 0d d0 07 ba 36 07 56 36
       -1.5239337e-07 -0.009820031 -0.0005180843 3.1892682e-06
000220 b6 83 d1 bc 3d 9f 87 b3 6c 20 d8 b5 6e 43 f2 3a
       -0.0255755 -6.315393e-08 -1.610269e-06 0.001848323
000230 c3 6b d1 35 70 32 3d 3d d0 d4 75 b5 30 3f 36 bd
       1.5603076e-06 0.04619068 -9.1579295e-07 -0.044493854
000240 a8 30 ac 3b 47 07 0a bd b8 b2 a2 b6 65 1c 4a b9
       0.0052548237 -0.033698346 -4.848782e-06 -0.00019274799
000250 d7 1a c6 ba 4a 3e 9b ba c9 32 a2 3d 73 32 96 3c
       -0.00151142 -0.0011844125 0.07919843 0.018334603
000260 95 fb 65 b8 e0 a5 aa 3d c2 e6 9c bd 7c 78 ca b5
       -5.483216e-05 0.083324194 -0.07661201 -1.5085238e-06
000270 5d a1 e5 3c 32 5a 02 3d 9c 09 61 bd 60 e1 4c 3a
       0.028031046 0.0318243 -0.054940805 0.0007815566
000280 5e 34 93 bc 0a 3d d8 b3 4c aa 07 b7 08 b4 7f bd
       -0.017969307 -1.0069387e-07 -8.086277e-06 -0.06242755
000290 c5 00 b1 bd f6 54 fc bc 27 c9 bc 3b 03 42 c6 3b
       -0.08642725 -0.030802231 0.005761284 0.0060503497
0002a0 2d e0 8d bd 2f a7 b3 ba 64 92 98 36 c8 c3 8b bd
       -0.06927524 -0.0013706441 4.546995e-06 -0.06824452
0002b0 8d 9e 8c 3c 9f b1 9c 3d f6 7e ac b6 41 40 39 bd
       0.017165447 0.07651066 -5.1407796e-06 -0.045227293
0002c0 ca 22 88 36 0c cd 7e 3a 54 f1 5d 3d fe a8 5a bc
       4.057166e-06 0.00097198854 0.054185227 -0.013345955
0002d0 9e 9d 98 bd a2 22 9a 3b 03 db 60 b5 f0 21 68 b9
       -0.07451938 0.0047038356 -8.3765207e-07 -0.00022137887
0002e0 f9 ef 5e bb bb 98 3c bc 42 9f 6b 3d 2b 6f 92 36
       -0.0034017547 -0.011511023 0.057524927 4.3640807e-06
0002f0 6c 78 29 3d 57 44 97 3d 69 ea 1f b5 fc ae 11 37
       0.04137461 0.07386082 -5.957323e-07 8.683415e-06
000300 19 55 73 36 28 72 11 3d b6 c3 9a bd f2 7a 15 3b
       3.6259355e-06 0.03550926 -0.0755686 0.0022808877
000310 e2 06 1d 36 5a 1c c4 3b 60 09 33 b8 fb 07 9c ba
       2.339883e-06 0.005984825 -4.2685657e-05 -0.0011904234
000320 60 7f 54 b6 a8 dd 69 3c c0 bf 16 bd bb 7f db bc
       -3.1664604e-06 0.014274038 -0.03680396 -0.026794305
000330 13 ea da b6 b1 89 7c ba 19 7b 06 3b 0e 1c 08 3d
       -6.524156e-06 -0.0009633555 0.002052015 0.03322988
000340 c7 ca 1d 36 d1 73 ad 3d 57 8c 5a bb ca 32 8a bc
       2.3512855e-06 0.08469356 -0.003334781 -0.016869921
000350 78 bc ad bb ac ec 12 bd 1b 32 1b bd aa 96 96 bd
       -0.0053020082 -0.03587024 -0.03788958 -0.07352956
000360 6e a6 94 bd 7b d0 95 b7 49 78 c0 3c b7 99 aa 3d
       -0.072583064 -1.7859265e-05 0.023494856 0.083301
000370 b7 98 86 3d 78 bc 5b 36 cf 5a ad b6 e6 03 b3 bc
       0.06572097 3.2743246e-06 -5.1663733e-06 -0.021852445
000380 79 5f ea 3a f1 1a b3 bd 07 ef ec 3b b8 5a 5f b6
       0.0017881236 -0.08745373 0.0072306427 -3.3282395e-06
000390 55 f2 55 38 c8 87 8b 3a 4c 99 ca bb 78 23 89 3d
       5.1008847e-05 0.0010645324 -0.006182825 0.06696218
0003a0 5a fc fc 3b 3c 03 fb 3c de 1e 46 35 07 6a d6 3c
       0.0077205123 0.03064119 7.3805666e-07 0.026173605
0003b0 8b 1f 08 3d ce 7b bb 3b 40 26 47 3d 1d 90 88 36
       0.033233207 0.005721546 0.048620462 4.069893e-06
0003c0 c8 de fb 3c 6f 15 8e 36 db eb b6 3c 5a 9b b9 3d
       0.030745879 4.234425e-06 0.022329262 0.09062834
0003d0 94 e7 0f 37 8b 4a a0 ba eb 04 d1 b6 a9 71 f7 b7
       8.577383e-06 -0.0012229247 -6.229258e-06 -2.9497622e-05
0003e0 44 f1 b3 b7 91 c2 29 38 30 8e 57 3d e2 e6 b5 3c
       -2.145081e-05 4.0473944e-05 0.052625835 0.02220482
0003f0 39 0a ce bc ac b7 2d 36 e2 90 85 b6 53 dc d4 bc
       -0.025151359 2.588592e-06 -3.9805755e-06 -0.025983965
