Comparisons/GCNII-master/pretrained/913429b4562044d6a987356c0804a6de.pt (torch_old, 85412 bytes, 68 tensors)

convs.0.weight f4 [16, 16]
000000 b7 25 8c bc 02 ab 8f bc ba 0f 31 3b 8f 7b 81 bc
       -0.017107828 -0.017537598 0.002701743 -0.015805988
000010 46 87 0d 3b 31 57 0e ba 7a d8 86 ba f8 d7 0c bc
       0.0021595522 -0.00054298626 -0.0010287904 -0.008596413
000020 d5 7c 8a bc e6 0a 86 3c d7 03 8c bc b7 f5 19 3a
       -0.016905228 0.016362619 -0.017091675 0.0005873101
000030 2d 3c 87 bc 75 1c c3 ba ea b9 bd 3a 8f 01 86 3a
       -0.016508186 -0.00148858 0.0014474962 0.0010223853
000040 c8 f0 8c bc 17 4b de b9 42 20 38 bb 2d 9f 18 bb
       -0.017204657 -0.00042399086 -0.00280954 -0.0023288236
000050 be 29 59 bb 6a 1c 5d 3a a1 33 db bb 23 88 5b bc
       -0.0033136453 0.0008434715 -0.0066895043 -0.013399157
000060 d0 bd 8e 3c 12 28 58 bb 2c a5 c1 38 79 30 17 3c
       0.017424494 -0.0032982868 9.233723e-05 0.009227865
000070 d1 42 d3 3a 32 c4 51 3c 89 7c 85 bc 42 49 8e 3c
       0.0016117935 0.012803124 -0.016294735 0.017368916
000080 bf 19 8d bc ae 5c 88 3a f1 52 8f bb dc 93 2b bc
       -0.01722419 0.0010403597 -0.004373901 -0.010472264
000090 31 4d 17 3a 6d c2 8f bc 0d db 0d 39 5d e7 64 bb
       0.0005771695 -0.017548764 0.0001352841 -0.0034927942
0000a0 3b a2 b3 ba 0a 6d 99 3a e4 ab c6 3b 5b d0 87 bc
       -0.0013704965 0.001170547 0.0060629714 -0.016578844
0000b0 2d bd f0 bb b6 e8 a6 bb 82 bd ee bb 8e 8d 88 3a
       -0.0073467703 -0.0050936593 -0.0072857747 0.0010418163
0000c0 bf 18 77 ba 9d 41 21 3c 67 ca 4f 3c b8 01 e8 bb
       -0.00094259897 0.009842304 0.012682534 -0.007080283
0000d0 05 af 8c 3c 5a d1 8f bc f0 e3 f3 39 9b 2b c6 3b
       0.0171733 -0.017555881 0.00046518398 0.0060476786
0000e0 ec 25 69 3b 5e 37 fe b7 6d 54 8e bc a0 0e 7f 3c
       0.0035575582 -3.0304942e-05 -0.017374242 0.015567452
0000f0 bc a6 83 ba 8f 70 6b 3c 90 6c 33 3b fe d5 c1 bb
       -0.0010044198 0.014370098 0.002737794 -0.0059154024
000100 6f fd 23 3b 2b c2 93 3a f6 97 8f bc 47 63 0c 3c
       0.0025022884 0.0011273077 -0.017528515 0.008568591
000110 5a a0 11 3c 05 04 11 3c a4 46 86 bc c4 c5 86 3b
       0.008888328 0.008851056 -0.016391106 0.004112931
000120 a1 72 67 bc c7 b9 8f 3c de ea 4d 3c c5 1c 8e 3c
       -0.014126451 0.01754464 0.012568204 0.017347703
000130 03 63 63 3c 59 8e dc 3b 1d 06 d9 3b c5 6f 8f bc
       0.013878587 0.0067308364 0.006623043 -0.01750935
000140 09 a3 e4 3a f0 d4 6a 3c 88 d7 49 bb 43 6e dd bb
       0.0017443608 0.014332995 -0.0030798633 -0.006757529
000150 cd 4a 1e bc b1 42 31 3b d8 ef df bb 72 ac 8d 3c
       -0.009661389 0.0027047808 -0.0068340115 0.017294142
000160 04 52 25 3a 59 23 1b 3b 37 6b b8 ba a1 22 18 3b
       0.0006306472 0.0023672192 -0.0014070038 0.0023214
000170 88 86 10 bc 04 4d 69 bc d5 e2 83 3c 4c 0b 5e 3b
       -0.008821137 -0.014239553 0.016099373 0.0033881245
000180 5d 5e 82 bc ac 76 b2 bb 2e 3c d4 bb 70 7c 62 3c
       -0.015914137 -0.0054462757 -0.0064769005 0.0138236135
000190 e4 47 e3 3b bc 51 26 bb 99 c8 c1 3a d6 85 83 3c
       0.0069360603 -0.0025378307 0.0014784514 0.016055029
0001a0 63 75 05 3a 63 e7 6b 3c a7 60 8e 3c d8 c3 a1 3b
       0.00050910393 0.014398429 0.017380072 0.0049366765
0001b0 c8 05 8b 3c d7 b5 40 3c f0 fa 46 bc bd d1 0e 3a
       0.01697053 0.011762104 -0.012144789 0.00054481236
0001c0 ab ba 2f 3b 95 be 7a 3c 0d 24 55 3c 86 4b a6 bb
       0.0026814144 0.015304227 0.013009083 -0.005074921
0001d0 3c ba 21 3a ad 3c 8a 3c 49 87 b3 bb 5b 98 0b 3c
       0.00061694137 0.016874636 -0.0054787737 0.008520211
0001e0 93 c6 0b 39 82 3b e8 bb 08 d5 7a 3a 1c 60 67 3c
       0.00013330048 -0.007087172 0.00095684873 0.014122035
0001f0 f2 83 6e 3c ba 66 ff 3b ae 15 be bb 6a ea 8e 3c
       0.014557825 0.0077942284 -0.0058009243 0.017445762
000200 0e 2a 8f bc ac 91 80 39 46 1f 8d bc 47 7d 4a 3b
       -0.017476108 0.00024522597 -0.017226826 0.0030897425
000210 a9 9e 8e 3c 6b c0 72 bc 94 54 53 3a 2e 0a ef bb
       0.01740964 -0.014816384 0.00080616144 -0.0072949147
000220 e5 48 8f 3c 2f f6 4b 3c 6b 05 a0 39 da 45 fe 3a
       0.017490814 0.012448831 0.00030521615 0.001939948
000230 88 e5 e7 3b a8 c8 8f 3c dc 0e 88 bc a5 21 86 3c
       0.007076923 0.017551735 -0.016608648 0.016373465
000240 06 07 a1 ba 9c 5f 9d ba 69 91 e0 ba e4 9e 8f bc
       -0.0012285418 -0.0012006643 -0.0017133179 -0.01753182
000250 ec 48 83 bc ac 1a 8f 3c b1 3c 26 bb e1 35 ca bb
       -0.016025983 0.017468773 -0.0025365765 -0.0061709736
000260 f3 86 0b 38 61 4e 89 3c f1 b5 83 bc 86 f1 85 3c
       3.3265864e-05 0.016761007 -0.016077967 0.016350519
000270 03 87 61 bb 9a c5 cd 3b d3 22 90 3b 1c 1f 84 3b
       -0.0034412749 0.0062796595 0.0043986826 0.004032029
000280 33 16 84 bc e9 85 05 bb 03 86 d2 ba f8 09 8a 3c
       -0.016123867 -0.0020374006 -0.0016061667 0.016850457
000290 be f2 c7 3b 4a 67 5d 39 88 d5 66 bb 0b 85 8d bc
       0.006101935 0.0002111468 -0.003522249 -0.017275354
0002a0 a3 88 12 bb 2b a7 a9 3b 2d b0 47 3a ae fc 66 ba
       -0.0022359274 0.0051773987 0.00076175 -0.0008811456
0002b0 3d 94 b8 bb f3 d5 13 3b 50 ad db 3b fc f4 bd bb
       -0.0056329058 0.0022557944 0.00670401 -0.0057970267
0002c0 1b fb 88 3c f8 5c d7 3b 87 54 8d bc 99 61 75 3c
       0.016721299 0.006572362 -0.01725222 0.014976882
0002d0 14 01 27 bb b8 b2 e6 ba 43 58 75 3a 67 a5 d9 bb
       -0.002548282 -0.001760087 0.00093591603 -0.006642032
0002e0 cf 80 15 bb e1 c4 2a bb 54 4a e7 3b a9 d1 9a ba
       -0.0022812372 -0.002605729 0.007058421 -0.0011811751
0002f0 48 d5 de 3a 23 2e 29 3a 74 fe 93 ba a9 b9 d3 ba
       0.0017000819 0.0006453713 -0.0011291043 -0.0016153353
000300 90 62 43 bc 37 3e 8d bc f7 9e c0 ba 9b b8 15 3b
       -0.011925355 -0.01724158 -0.0014695813 0.002284563
000310 e0 51 1b b7 27 62 4e 3a 89 d5 31 bb 0c aa a2 b9
       -9.257783e-06 0.0007872902 -0.0027135334 -0.00031025743
000320 c2 41 84 3c 28 74 e4 bb ef e6 8e bc 05 ce e7 3b
       0.016144637 -0.0069718547 -0.017444102 0.00707412
000330 7d e2 3d ba b2 44 19 3c c3 46 24 3c 3b 25 87 3c
       -0.0007243527 0.009354757 0.0100266365 0.016497245
000340 18 40 95 bb 5b 1a b2 3b 6a 7f 41 bc b3 58 57 3b
       -0.0045547597 0.0054352707 -0.011810163 0.0032859265
000350 16 c9 89 3c 42 56 17 3c 24 8e 10 ba 3a 3b 67 bc
       0.016819518 0.009236874 -0.00055143447 -0.014113242
000360 80 da a8 b9 0f a1 06 3b 81 02 d1 3b b6 1d ea bb
       -0.00032206252 0.0020542776 0.0063784723 -0.007144655
000370 74 b4 4b 3c 48 27 85 bc 96 57 7a bb d3 78 ed 39
       0.01243316 -0.016254082 -0.0038199178 0.00045294184
000380 ea 5d 4b 3c 77 72 60 bc 71 f4 8a bc e3 a8 e0 3b
       0.012412528 -0.013699166 -0.016962262 0.0068560704
000390 9c 9c 76 3c 3a 67 52 3c 01 d6 8f 3c 08 e6 88 bc
       0.015051987 0.012841994 0.0175581 -0.01671125
0003a0 6a 95 d6 3a 06 f3 8e bc 62 94 20 bb 78 81 1e bb
       0.0016371433 -0.017449867 -0.0024502506 -0.0024186056
0003b0 f2 87 80 b9 b8 6b 8b 3c 74 8c 8d 3c 22 43 79 3c
       -0.0002451535 0.017019138 0.017278887 0.01521376
0003c0 f7 93 d6 3b 6b 12 30 ba 2a 80 04 3a 73 a1 ea 3b
       0.0065484005 -0.00067166117 0.00050544983 0.0071603595
0003d0 62 65 2b ba 32 07 7b 3c b8 a6 51 3c 29 fd 90 3b
       -0.00065382395 0.01532154 0.0127960965 0.0044247103
0003e0 6f da c7 ba 2f d4 2a bc 93 11 84 bb a0 e8 85 3c
       -0.0015247593 -0.010426565 -0.0040304153 0.016346276
0003f0 ff a8 93 ba c5 f3 a2 ba 23 8a 23 bb 66 23 6e 3c
       -0.0011265575 -0.0012432268 -0.0024954162 0.014534807

convs.1.weight f4 [16, 16]
000000 d4 32 bc bb 79 aa 75 3c 49 a7 e1 b9 cb 75 7f 3b
       -0.005743364 0.014994257 -0.0004303998 0.0038980122
000010 22 a1 80 bc f0 6b 8c 3c 36 1a 82 bc e0 bb 27 bb
       -0.015701834 0.017141312 -0.015881639 -0.002559416
000020 d0 5f e4 3b 66 dc 76 bc f5 ea 8b 3a 8e 71 93 b9
       0.0069694296 -0.0150671955 0.0010674881 -0.0002812263
000030 af c6 27 3b 75 62 8f 3c 1d d7 d8 3a 03 4d 4d 3c
       0.0025600602 0.017503003 0.0016543601 0.012530568
000040 f5 f8 2e bc 4a 3c 89 bc 5e 7e 72 bc 8d 59 30 3b
       -0.010679473 -0.01675238 -0.014800636 0.0026908845
000050 9d d2 8f 3c 7f e1 18 bb 64 00 a7 bb 4e d0 4a 3c
       0.017556483 -0.0023327766 -0.005096482 0.012378765
000060 4b 58 20 3b 67 ea 14 3c a0 94 9f ba 9b 4b 0c ba
       0.002446669 0.009089089 -0.0012175031 -0.0005351842
000070 0a 41 d8 bb 9a e2 71 bb a9 52 6f 3c 92 d3 8f bc
       -0.00659955 -0.0036908747 0.01460711 -0.01755694
000080 7c 2e 8f bc 9c 06 df b9 bf 8a d0 39 d3 f4 d8 bb
       -0.01747822 -0.000425388 0.00039776225 -0.006620982
000090 c6 a1 85 3c 83 08 5e 3c 4e a4 e5 3b 4b c6 9c 3b
       0.016312491 0.013551834 0.007008112 0.0047843806
0000a0 5c f2 46 3c 4f 0a 4d 38 b9 32 a7 bb 34 77 8c bb
       0.012142744 4.888541e-05 -0.005102482 -0.004286671
0000b0 c1 1f ae b9 8f a6 bf 3a 57 0a c2 bb 26 45 e7 ba
       -0.00033211525 0.0014621782 -0.0059216428 -0.0017644509
0000c0 20 d4 8f 3c 7a 2f 8f bc 34 08 e1 bb e4 95 dc ba
       0.017557204 -0.017478693 -0.006867433 -0.0016829339
0000d0 d1 b1 c5 bb d0 4d d9 39 29 2c 7b bc d5 59 50 3b
       -0.0060331603 0.0004144744 -0.015330353 0.0031791825
0000e0 e8 0f 8c 3c e5 2e e3 3b 56 2a 70 bc a5 68 f4 ba
       0.017097428 0.0069330805 -0.014658531 -0.0018646909
0000f0 c2 6c 61 bc bb 55 53 bc d6 6a ce b8 34 30 8b ba
       -0.01375884 -0.012898858 -9.842745e-05 -0.0010619224
000100 7d ce 74 3c dd 16 75 3a e8 a0 87 bc 8f 55 b4 ba
       0.014941809 0.0009349415 -0.016556218 -0.0013758409
000110 d6 df 3c 3c 9f 92 8f 3c 2f c5 6c 3c 1a 6a 4f 3c
       0.011527976 0.01752597 0.014451309 0.012659574
000120 e4 86 8c 3c 20 6d 2a 3b 6d 59 65 bc 6a 8f 89 3a
       0.017154165 0.0026004985 -0.013998372 0.0010495011
000130 0d 72 8b 3c 84 9f 8f 3c 1d fb 1c 38 1c 66 88 3c
       0.017022157 0.017532118 3.7427166e-05 0.016650252
000140 5d 0f b7 3a 36 00 dc 3a b5 43 4e bb ce 3f 9f b9
       0.0013966371 0.0016784731 -0.0031473462 -0.00030374381
000150 d2 77 98 ba a3 d1 30 3b b2 d0 5f 3a c6 0d 88 3c
       -0.0011632389 0.0026980422 0.0008537873 0.01660813
000160 c4 c3 8f 3c 44 ca 67 3b 7a d5 63 bc 11 ed b4 ba
       0.017549403 0.0035368362 -0.013905877 -0.0013803561
000170 33 61 62 3c 62 25 31 bb 0a 14 49 ba 75 9c 99 bb
       0.013817119 -0.0027030339 -0.00076705276 -0.0046878406
000180 9a 5f 8b bc 3d 3c b4 bb 96 5b 4e 3c ce 5d af 3a
       -0.01701336 -0.005500345 0.012595078 0.0013379396
000190 e7 7c 1c bc 9b bb cd ba 86 82 07 3c 53 75 6d bc
       -0.009551263 -0.001569617 0.008270865 -0.014493304
0001a0 f8 bf e7 bb 77 45 d8 3b dd d7 85 3c 1d ba 67 3a
       -0.007072445 0.0066000777 0.016338283 0.0008839684
0001b0 03 55 99 3b 77 f6 0c bb e1 66 3f b9 f2 15 8b 3c
       0.0046793236 -0.002150921 -0.00018253505 0.016978238
0001c0 a6 25 7a 3c 03 b2 40 b8 b1 5d 83 bc 37 07 ed bb
       0.015267765 -4.5942154e-05 -0.016035886 -0.007233526
0001d0 98 2e fd 3b 02 13 d4 3a 9b 12 87 3c 54 f1 e3 ba
       0.0077265017 0.0016179981 0.016488364 -0.0017390647
0001e0 66 0c 9a 3a 83 58 8f bb 54 b7 8f bc 98 8e 81 3c
       0.0011752963 -0.004374565 -0.017543472 0.015815064
0001f0 79 d8 5f bc 6b fd 7b 3c 3b 33 e7 3b 35 90 8e bc
       -0.013662451 0.015380244 0.0070556677 -0.017402748
000200 b8 89 ce 36 53 e1 83 bc b8 0b 8e 3c 99 0d e9 bb
       6.155311e-06 -0.016098654 0.017339572 -0.0071122167
000210 80 ce fe bb 14 41 fa 3a c8 e7 57 3a 11 1f cf bb
       -0.0077760816 0.0019092881 0.0008236137 -0.006320842
000220 5c 09 71 bc 37 72 35 3a f1 89 82 3b 31 06 c3 3b
       -0.014711704 0.00069216214 0.003983729 0.005951666
000230 9a d3 8f 3c 2c a1 e3 39 e0 a9 b9 3a a5 31 54 bb
       0.017556954 0.00043416896 0.0014165007 -0.0032378223
000240 09 53 ad 39 f2 cb 65 bc b9 6e 5c 39 9d 61 6e 3a
       0.00033058997 -0.014025675 0.00021022082 0.0009093525
000250 c2 19 35 3b be e9 84 3c 09 30 76 3c e8 42 08 bb
       0.002763376 0.016224738 0.015026101 -0.0020791832
000260 dd 09 70 3a d3 d3 47 3b f6 19 60 ba a3 e1 e7 bb
       0.0009156743 0.0030491247 -0.00085487904 -0.0070764585
000270 ed 17 6d bc 27 2f c9 3b c6 6a 80 bc 13 b8 a6 ba
       -0.014471036 0.006139654 -0.015675914 -0.0012719653
000280 9e a3 d8 bb 9e 36 e3 3b 4b c4 5d 3c 30 1e 52 3c
       -0.0066113016 0.006934001 0.013535569 0.01282458
000290 b1 bb 64 ba d3 d3 e1 bb c8 89 89 3c 0d fe 0c bc
       -0.0008725478 -0.0068917065 0.016789332 -0.008605492
0002a0 77 ae 8f bc 6e d2 57 3a f6 a6 97 ba e9 c1 7e 3c
       -0.017539246 0.00082329556 -0.0011570144 0.0155491615
0002b0 0d 66 e0 bb 1d 5a 1a bb 47 52 1d 3b 8c 7f cc 3a
       -0.006848103 -0.0023552247 0.002400534 0.0015601977
0002c0 9b fe e4 bb 12 49 b5 bb d4 4d 8f 3c 1e 9c 3b bc
       -0.006988359 -0.0055323923 0.017493166 -0.011450795
0002d0 8e ca e7 bb c3 c1 30 b8 24 e3 27 39 da 0e ac ba
       -0.007073707 -4.2142125e-05 0.00016010978 -0.0013126985
0002e0 d8 1c 08 bb 8c 67 84 bc 2c e0 3d b9 f7 12 8e bc
       -0.0020769145 -0.016162656 -0.00018107955 -0.017343028
0002f0 32 2a 67 bc 57 79 83 ba f9 01 85 3c 58 97 8f bc
       -0.014109181 -0.0010030669 0.016236292 -0.017528221
000300 f9 5a 8e bc 21 e7 8b 3c 9a f8 1f 39 c6 1c 53 3c
       -0.017377364 0.017077984 0.00015256033 0.012885278
000310 8d d8 8f 3c 26 57 63 39 03 7b d2 ba 36 ac be ba
       0.017559314 0.00021680872 -0.0016058389 -0.0014547172
000320 da 6f 8e 3a 63 75 80 bc 68 6f 6c ba 77 ac 08 3c
       0.0010867075 -0.015680974 -0.00090192864 0.0083419
000330 21 2d d3 39 00 ea 31 bb 72 37 cd 3b 38 20 7d 3c
       0.0004027868 -0.0027147532 0.006262713 0.015449576
000340 b1 cd e6 3b 15 f2 9d 3a 38 8b 8f 3c 75 47 95 3b
       0.0070435633 0.0012050295 0.01752244 0.0045556375
000350 d5 aa 64 bc ff c0 8d bc a2 0c 87 bc 0c 49 08 bc
       -0.013956745 -0.017303942 -0.016485516 -0.008318197
000360 8a 1e 8b bc d8 c3 c4 3a 39 fb 9f 3b e6 a5 3b b9
       -0.016982336 0.0015011979 0.004882243 -0.00017895512
000370 89 79 fa 3a 60 2d 65 3c 9d 8b 7e bb 98 27 a5 ba
       0.0019109707 0.013987869 -0.003884054 -0.0012600301
000380 9a ad d0 ba 79 3a e8 bb 4e a6 06 3c 13 65 c3 ba
       -0.0015920878 -0.0070870486 0.008218361 -0.0014907442
000390 6f db 07 3c 07 7c 4f 3c bb 28 10 bb 3c ff 92 ba
       0.008292063 0.012663848 -0.0021996934 -0.0011214982
0003a0 18 e2 82 bc a5 52 5e bc 11 f6 e2 3a 13 91 c1 3b
       -0.01597695 -0.013569509 0.0017315765 0.005907187
0003b0 dc ce 27 bb 19 db 52 b8 1b 86 37 3a a9 b2 3c 38
       -0.0025605476 -5.0271952e-05 0.0007000879 4.4989083e-05
0003c0 91 72 e6 3b 2e d1 7c bc ab 57 09 3b d1 b7 c2 bb
       0.0070327003 -0.015430732 0.0020956795 -0.005942323
0003d0 d0 ea 39 3b e8 67 b3 ba ce 2d 8c 3a 1d fc 89 bc
       0.002836872 -0.0013687583 0.0010694803 -0.01684385
0003e0 00 a2 8e bc 75 74 61 3b 4b 7b 86 3c 9d 72 6e 3b
       -0.017411232 0.003440169 0.016416213 0.0036384233
0003f0 11 70 05 3b 01 5e 61 ba 11 e7 13 3a 9f be 81 3c
       0.0020360986 -0.00085970765 0.00056420366 0.015837966

convs.2.weight f4 [16, 16]
000000 bb ed 46 3b 7e c8 8b 3c 1f 7b 3c 3c f3 90 8f 3c
       0.00303541 0.017063376 0.011503964 0.017525172
000010 3f 72 8b bc 21 a8 71 3c f2 2e 8a bc b1 c1 e1 39
       -0.01702225 0.014749558 -0.016868088 0.00043059656
000020 41 89 a0 3a 02 51 34 bc 5c 3d cf ba 6a 6f 36 bc
       0.0012247936 -0.011005642 -0.0015811133 -0.011134962
000030 64 4d 83 bc bf 1c 8c 3c cb c0 e8 3b 57 0d 12 3a
       -0.016028114 0.017103551 0.007103061 0.0005571446
000040 3e b9 de ba e1 06 20 ba 19 39 7c ba fa 54 cb ba
       -0.0016992462 -0.00061045407 -0.00096215453 -0.0015512996
000050 70 29 d3 3a 69 71 6f bc e8 a0 62 bc df de ce 39
       0.0016110372 -0.014614441 -0.013832308 0.00039457434
000060 90 e0 75 3c c4 6a 3e 3a d2 37 6a 3c 75 d9 8f bc
       0.015007153 0.0007263834 0.014295535 -0.017559746
000070 b9 7e 1e 3c df f0 42 3a 98 60 0e 3b c4 e8 8f 3a
       0.009673768 0.0007436405 0.0021725055 0.0010979404
000080 b0 a8 75 bc 1d 22 d4 3a 22 ca f3 bb 90 96 8d bc
       -0.0149938315 0.0016184483 -0.0074398676 -0.017283708
000090 22 a0 8f bc 55 11 c4 bb ee dc 13 3b 37 21 c1 3a
       -0.017532412 -0.0059835115 0.0022562104 0.001473463
0000a0 d6 fe 87 3a 79 08 30 3b fb 05 00 3b e1 ee 67 3c
       0.001037563 0.002686052 0.0019534815 0.014156074
0000b0 08 52 da 3b 83 61 e7 38 b4 be 92 3b eb 9a 4c bc
       0.006662611 0.00011033101 0.0044783 -0.012488107
0000c0 52 ae 6b bc 39 f8 70 bc bc ae 46 39 b5 2c 8d 3c
       -0.014384823 -0.014707618 0.00018947845 0.017233232
0000d0 a1 dc 79 3c 9d 66 2f 3c 51 0b 8a 3c 7a f1 52 39
       0.015250356 0.010705617 0.0168511 0.00020117118
0000e0 06 d1 80 3c fd 79 80 3c b9 5a 12 3c b0 36 53 3c
       0.01572467 0.015683169 0.008932763 0.0128914565
0000f0 1b b4 26 3c f3 b0 e8 3b 85 69 8f bc 08 fc ca ba
       0.010174776 0.007101172 -0.01750637 -0.0015486488
000100 84 19 5b ba 7c c2 5e bb d3 0d de b9 0a 8b 15 bb
       -0.0008357989 -0.0033990433 -0.0004235344 -0.002281847
000110 3f 1f 29 bc 5d a2 8b 3c 4b 99 a6 ba 91 1b 8b bc
       -0.010322391 0.017045194 -0.001271048 -0.016980918
000120 ed 8c b4 3a 4b a0 92 ba ce 75 fc 3b 54 85 20 b7
       0.0013774909 -0.0011186687 0.007704473 -9.567786e-06
000130 5b fc 13 b9 c3 24 2f bb eb e2 e7 3b 87 f6 8b bc
       -0.00014113022 -0.0026724793 0.0070766113 -0.017085327
000140 8a dd 8b 3c f6 aa c3 b8 65 73 26 39 a0 f7 8e 3c
       0.017073411 -9.3301685e-05 0.00015873981 0.017452061
000150 8b 57 70 b9 e0 2c 8a 3c 9d fa 76 bc 07 2c 2d ba
       -0.00022920796 0.016867101 -0.015074399 -0.0006605987
000160 eb 13 7d 3b 1b 78 18 bb 21 ff 71 3c f5 a4 e8 bb
       0.0038616608 -0.0023264948 0.0147703 -0.0070997425
000170 a6 5b 9f b8 84 44 8e 3c 16 d9 3f 3c 03 00 67 ba
       -7.598782e-05 0.017366655 0.011709472 -0.00088119524
000180 a6 26 8b bc ce f9 63 bc 1f 41 40 bc bb eb 11 3c
       -0.016986202 -0.013914539 -0.011734276 0.0089063
000190 1d cc 52 3c 04 6b 8b bc f7 df d2 3b b9 52 a8 38
       0.012866047 -0.017018802 0.00643539 8.0262726e-05
0001a0 13 2c ba ba b2 a2 8f 3c 74 8f a9 bb 00 5a 66 bc
       -0.0014203809 0.017533634 -0.0051745716 -0.014059544
0001b0 86 69 2c 3b 1e 0b 2d ba 08 8f 8f 3c d1 a6 bb 3b
       0.0026308014 -0.0006601083 0.017524257 0.005726673
0001c0 a8 73 86 b8 5b 4d 2f 3c 2c 1a bf 3a 80 e0 da 3b
       -6.4111606e-05 0.010699595 0.0014579943 0.0066795945
0001d0 9e 23 5a 3c 9f b5 c4 3a 70 d6 59 3c 0d b3 96 ba
       0.013314156 0.0015007741 0.013295755 -0.0011497453
0001e0 d4 d5 e7 3b 0d 2b 8f bc a0 46 81 3a 6f 49 d6 bb
       0.007075051 -0.017476583 0.0009862967 -0.0065395157
0001f0 45 3b 85 3c ae 9a da 3a f9 ee 8a 3c f2 40 25 3b
       0.016263613 0.0016678178 0.016959654 0.0025215712
000200 b5 b7 46 ba e3 4b 78 3c 22 5b 8b bc 91 77 36 bc
       -0.0007580475 0.015154812 -0.017011229 -0.011136905
000210 2c 49 59 3c 51 66 f4 ba 2b 59 94 3b c4 84 58 3a
       0.013262074 -0.0018646215 0.004527231 0.000825953
000220 fd bf 5d b9 89 ef 84 bb 68 a2 8f bc b0 5c ba 3b
       -0.00021147724 -0.004056875 -0.017533496 0.0056873187
000230 3c 9b 8f bc e8 56 8a ba 9d 5e fb b9 c3 03 8e bc
       -0.017530076 -0.0010554465 -0.00047944943 -0.017335778
000240 26 43 81 ba 8b 27 d8 3b 50 49 54 ba ee c3 8f bc
       -0.0009861931 0.0065965108 -0.00080980826 -0.017549481
000250 1f 3e 88 3c 92 6c 1f bb f0 1b 56 3c 30 b0 2d bb
       0.016631184 -0.0024326188 0.013068184 -0.002650272
000260 c3 77 e3 3b db 1a c8 39 93 1a b7 3b 88 32 a7 39
       0.006941767 0.00038166982 0.0055878847 0.0003189037
000270 e4 d1 a9 bb 21 fb 8e 3c d4 b5 0a 3a 43 56 98 3b
       -0.0051824916 0.017453732 0.0005291377 0.004648955
000280 87 75 4a bc 57 bc 8d ba 3a 69 84 3c 25 b0 8c bc
       -0.012357122 -0.0010813576 0.016163457 -0.017173836
000290 5e 49 12 3b 1b 1c cf 3a e9 1e 84 3c f9 c9 00 ba
       0.0022321562 0.0015801223 0.01612802 -0.0004912909
0002a0 64 57 7d bc cf 4c 9d ba 12 ad fc 3b 16 ee 2f 3b
       -0.01546273 -0.001200104 0.0077110613 0.002684479
0002b0 09 30 83 bb 65 11 83 bc 34 1e 8c 3c 6e 84 67 bb
       -0.004003529 -0.015999505 0.017104246 -0.0035326737
0002c0 4e 06 64 3c 7e d6 e5 bb fd 17 63 3b e4 4a 66 bc
       0.013917519 -0.007014095 0.003465175 -0.014055941
0002d0 0d 66 92 3a d7 0e 58 bc 21 64 7f b6 da d9 ef bb
       0.001116933 -0.013187132 -3.8056244e-06 -0.007319671
0002e0 9b 9b 8f bc 14 4d 8f bc 3f 84 bc 3b bd 5c 81 bc
       -0.017530253 -0.017492808 0.0057530697 -0.015791291
0002f0 2d da 1c bc 3f 1a 34 bb 9c 8c f9 ba 0c 21 8f 3c
       -0.009573502 -0.0027481464 -0.0019039097 0.017471813
000300 a5 34 23 bb 3d cf 8f 3c 51 e7 c3 3b 13 d7 66 3b
       -0.0024903205 0.017554874 0.005978503 0.003522341
000310 c3 00 8c 3c 4e 88 8a ba 47 90 dd b9 4b 70 6e 3b
       0.017090207 -0.0010569186 -0.000422599 0.003638285
000320 6f d8 e4 bb 13 fc 4b 3c 13 f9 81 bc 77 23 8f bc
       -0.0069838087 0.012450236 -0.015865838 -0.017472966
000330 65 1d e3 3b 3b ce 82 3c 47 31 d8 bb d3 d5 38 ba
       0.0069309943 0.015967479 -0.006597671 -0.0007050905
000340 87 95 0f 3b ef f7 c8 bb 22 0b e0 3b 72 f9 8e bc
       0.0021909194 -0.0061330716 0.0068372646 -0.01745293
000350 02 be e5 bb 0b 4e b0 3b 20 7b d9 3b d8 93 8e 3c
       -0.007011176 0.005380397 0.006636992 0.017404482
000360 00 db 5f 3c 1a 81 01 3b 8f 3f 6d bc 2b 0e 75 3c
       0.0136630535 0.0019760788 -0.014480486 0.014956991
000370 6d c3 8b 3c 49 16 be bb d8 85 80 bb f2 cb 8f bc
       0.01706096 -0.0058009964 -0.0039222054 -0.017553303
000380 16 7c 8a 3c 8a 9b 85 3c ac 01 ba ba 64 e2 8b bc
       0.016904872 0.016309518 -0.0014191172 -0.017075725
000390 a7 6a 13 bc 5b 6e d8 39 f0 fb 9d 3b 37 38 70 bc
       -0.008997596 0.00041280952 0.004821293 -0.01466184
0003a0 3f 8d 49 3c 00 11 7d bb 44 11 78 bc 67 ce 6c 3c
       0.012301742 -0.003861487 -0.015140835 0.014453507
0003b0 15 11 a4 3b 0d 23 85 bc 01 24 65 3b f7 b8 8a 3b
       0.005006919 -0.016252065 0.0034964087 0.0042334753
0003c0 c4 c1 c1 bb c4 a3 0e b8 65 7d 82 bc 4c 10 16 3c
       -0.0059129912 -3.4007957e-05 -0.015928933 0.009159159
0003d0 2e 9c d2 39 96 1a 06 3b 1b d9 71 3c 0b 97 60 bc
       0.00040170684 0.0020462624 0.014761235 -0.013707886
0003e0 5c 86 d7 38 7e 63 31 3b 0e ae a1 3a 65 da 4f 3c
       0.00010277025 0.0027067359 0.0012335198 0.012686347
0003f0 21 4b 57 3c 72 bf c8 bb 77 c3 d6 ba 32 7d 78 3c
       0.013140471 -0.0061263377 -0.0016385157 0.015166568

convs.3.weight f4 [16, 16]
000000 cf e5 47 3c ff 2b 51 bc b0 4d e9 3b 2d be e0 3b
       0.012200787 -0.012766837 0.007119857 0.006858608
000010 c8 f0 13 3c ba 1e a4 bb 63 f3 37 39 6e e6 9e ba
       0.009029575 -0.0050085457 0.00017542909 -0.0012123117
000020 3c 84 6c 3c d6 a1 19 3a b4 47 bc 3a 26 9a d3 3a
       0.014435824 0.0005860602 0.0014364631 0.0016143962
000030 c1 4c a5 ba 83 48 e4 bb e6 a0 04 bb 99 bf e8 3b
       -0.0012611375 -0.006966652 -0.0020237505 0.0071029183
000040 1a 23 32 3b 86 4c 4e 3c a0 ce 1d bb e2 b6 31 bb
       0.0027181567 0.012591487 -0.0024079457 -0.0027117063
000050 c5 b2 83 3a 5e 79 65 bc 2d f3 82 bb e0 13 66 bc
       0.0010047784 -0.014005987 -0.003996274 -0.0140428245
000060 6d 9d 68 ba 25 29 8f 3c 8d 5c 49 bc 69 51 81 3c
       -0.0008873556 0.017475674 -0.012290132 0.01578589
000070 9c c9 ab 3b 4c d6 88 ba 1b 85 64 3c 12 f4 5a bc
       0.0052425396 -0.0010439842 0.01394775 -0.013363855
000080 07 f5 dd 39 14 a2 e3 3b 91 bf 87 3c e7 f4 e9 bb
       0.00042334964 0.0069468115 0.016570838 -0.0071397903
000090 e3 4e 42 bb b1 74 8b 3c 9a 76 21 ba 09 56 a2 3a
       -0.002964907 0.017023416 -0.00061593356 0.001238526
0000a0 2b 95 8c bc dd 0e 23 3c 6c d4 0e ba 56 b9 8b 39
       -0.017160973 0.009952274 -0.00054485234 0.00026650232
0000b0 41 14 99 ba 6c ff e8 3b 17 98 9c bb 48 be 1e 3b
       -0.001167901 0.007110527 -0.0047788727 0.0024222303
0000c0 17 7a b0 bb f6 ea 86 bc 1b 5c ff 3a be ca 7f bc
       -0.005385648 -0.01646946 0.0019482406 -0.015612302
0000d0 c2 4e 6b 3a f9 d9 89 bc d7 f1 d5 3b 68 61 f0 b9
       0.00089762744 -0.01682757 0.0065290737 -0.0004584894
0000e0 da f2 26 ba e2 f6 15 3a 4f e7 15 bc d7 70 dc 3b
       -0.0006368585 0.00057206873 -0.009149387 0.0067273187
0000f0 2c 43 85 b9 c1 1f da bb 74 d6 1a bc 26 81 79 ba
       -0.00025417784 -0.0066566174 -0.009450544 -0.0009517841
000100 73 d8 8a 3c 29 80 a0 3b 55 80 83 3c 2f a0 48 39
       0.016948914 0.0048980904 0.016052404 0.0001913316
000110 35 d9 61 3c 03 1d 38 ba 80 b1 d3 ba 9b 32 92 3b
       0.013784696 -0.0007023366 -0.0016150922 0.004461599
000120 f6 c6 13 3a 44 59 5b 3c 36 1f 81 3c 2b af 84 3c
       0.00056372525 0.013387982 0.015761953 0.016196808
000130 b5 df 09 bb c9 9f e0 bb 11 a3 67 ba 88 d3 51 ba
       -0.002103788 -0.0068549854 -0.00088362495 -0.0008004238
000140 26 be 25 3b f9 0d 82 bc 4b 42 da 3b 62 b7 e5 bb
       0.002529034 -0.015875803 0.006660735 -0.0070103863
000150 a4 a2 78 3c 8f 4d de 3b 98 ec 74 b9 70 f7 86 ba
       0.015175495 0.006784148 -0.00023357791 -0.0010297131
000160 12 be 5f bc c6 d4 e8 3b cc 64 77 bc 4c ac 6f bc
       -0.013656156 0.0071054427 -0.015099715 -0.014628481
000170 53 10 bc ba ec c9 84 3c b3 a3 87 bc 31 74 0c bb
       -0.0014348127 0.016209565 -0.01655755 -0.002143156
000180 1f df 18 bb b7 40 8f bc 37 6d 8d bc 69 b0 07 3b
       -0.002332635 -0.017486913 -0.017263992 0.0020704514
000190 df 7c 6d ba b0 f8 8e 3c cf db 89 ba 8b 1e 69 bc
       -0.000905944 0.017452568 -0.0010517779 -0.014228473
0001a0 19 e7 18 bb 2a 1e 83 3a 0c 14 8e 3a b5 e2 ca bb
       -0.0023331104 0.0010003496 0.0010839715 -0.0061915764
0001b0 b9 76 10 bc de cb 77 ba ea 04 4f bc bc 07 93 ba
       -0.008817368 -0.0009452681 -0.012635449 -0.0011217515
0001c0 a8 28 a7 3b 3b df d2 3b 72 43 26 3a c6 6b 37 bc
       0.005101282 0.0064353026 0.00063424476 -0.011195129
0001d0 93 27 35 bc d0 66 7e bc 6a 6a 8c bc 39 ed ff 3a
       -0.0110567985 -0.015527442 -0.017140586 0.0019525654
0001e0 6c 3a 8e 3c 08 52 6c 3a 16 af 92 b9 da f2 fe 3a
       0.017361842 0.0009014909 -0.0002797774 0.0019451038
0001f0 0c ea 8b ba aa 76 78 3a 1e 13 85 bc d9 87 4b 3b
       -0.001067461 0.00094781315 -0.016244467 0.0031056313
000200 dc 34 d5 bb d1 28 d5 bb 43 df 2a 3b eb 9e e8 bb
       -0.0065065455 -0.00650511 0.0026073016 -0.0070990226
000210 35 5c 86 bc a7 18 44 bb 30 81 85 bc 88 36 45 39
       -0.01640139 -0.002992192 -0.016296953 0.00018807699
000220 db 89 05 ba 81 d2 c6 3b ab e4 71 3c 40 52 b8 3a
       -0.00050940894 0.0060675745 0.014763991 0.0014062598
000230 1b 19 89 3a a0 4d bf 3b 3f 8c 8d 3c 5d 43 89 bc
       0.0010459753 0.005838111 0.017278789 -0.016755754
000240 c3 de 8f bc 81 67 4a 3b d9 8c 6c bc e5 46 db bb
       -0.017562276 0.0030884447 -0.014437878 -0.006691801
000250 f4 5b 7e ba e8 c8 e8 3b 60 e6 7d ba 1d 5e 71 b9
       -0.0009703033 0.007104028 -0.00096855126 -0.00023018611
000260 c9 6a 8f 3c 8a e8 b8 ba 62 e5 1a 3c 4f 1c e0 b9
       0.017506974 -0.0014107388 0.009454103 -0.000427457
000270 d7 88 5c bc 81 91 31 bb 05 54 63 bb 39 c4 19 bc
       -0.01346036 -0.0027094784 -0.003468753 -0.009385162
000280 23 83 e3 bb 5f 7c 87 ba 6b 4b 7a bc 16 a3 d6 bb
       -0.006943123 -0.0010336748 -0.01527677 -0.006550203
000290 60 23 81 3c ae 54 bc 3b 8b 4b 23 3a 01 e5 0c bb
       0.015763938 0.0057473993 0.00062292133 -0.0021498802
0002a0 5d a4 01 3b 70 8e dd 3b d5 b4 94 3a 73 56 81 bb
       0.0019781806 0.0067613646 0.0011345396 -0.003947073
0002b0 d8 aa 8d 3c c5 ef 60 bb 8f a3 c4 bb b8 ef 91 bb
       0.017293379 -0.0034322601 -0.006000943 -0.0044536255
0002c0 3a b8 85 3c 92 c7 e2 ba 3b 4b 86 3c 14 e2 8d 3c
       0.016323198 -0.0017301908 0.016393295 0.017319717
0002d0 98 e4 8f 3c 0a 3a cc 3b bd 30 18 3c 52 a6 d3 bb
       0.017565057 0.0062325047 0.009288964 -0.006459036
0002e0 1f 6d 8e bc 44 40 4c bb 68 c1 e3 bb 7d d8 6f 3c
       -0.017386017 -0.0031166235 -0.006950546 0.014639017
0002f0 61 a2 81 3c 84 a6 e8 bb 25 b7 8f bc 1e 62 9a 3a
       0.015824499 -0.0070999283 -0.017543385 0.0011778509
000300 74 2a 89 3c 35 4d c5 39 e4 a3 8d 3c 2a ae 02 3b
       0.016743876 0.00037632292 0.017290063 0.0019940236
000310 7b 2e 59 3a 53 71 8c bc fc 82 3d 3b 2c c2 97 ba
       0.0008284819 -0.017143881 0.0028917184 -0.0011578253
000320 87 8e 91 3a 9f 21 18 ba f1 51 e6 3b d0 be e4 3b
       0.0011105099 -0.000580335 0.007028811 0.0069807544
000330 45 b8 b7 ba a4 bb e7 bb dd ef 8d bc 1f 28 4a 3a
       -0.0014016709 -0.007071929 -0.01732629 0.0007711667
000340 ac 73 e8 bb 71 5d 35 bc db dc 8f bc b2 fa 4a bc
       -0.0070938673 -0.011069641 -0.017561367 -0.012388872
000350 65 e5 c4 3a 89 8f ba bb 83 e5 66 ba 72 3c 8e bc
       0.0015021978 -0.0056933803 -0.00088080036 -0.017362807
000360 de ff 56 3c 10 69 b8 3a c5 dd 6a 3c 9f 25 23 3a
       0.013122527 0.0014069397 0.014335101 0.00062235625
000370 ce e4 d1 3b 38 3d 7a 3a 43 8f 3f ba cf 74 88 3b
       0.0064054495 0.00095458655 -0.00073074194 0.0041643153
000380 25 b8 8e ba 89 10 8f 3c ae 7e 8f bc 45 66 05 3a
       -0.001088862 0.01746394 -0.01751646 0.0005088787
000390 b5 8c 30 b9 0f 2b d3 3a 9d 81 56 3a 63 c6 75 3c
       -0.00016837085 0.0016110855 0.0008182766 0.015000912
0003a0 4c ba 63 3b 61 eb 7b bb 15 1f 00 3b d9 ff 31 bb
       0.0034748493 -0.0038439857 0.0019549776 -0.0027160554
0003b0 5a 06 14 3b 1c d9 51 bb 06 44 b1 bb d7 f5 e7 bb
       0.0022586794 -0.0032020276 -0.0054097204 -0.007078867
0003c0 ce 35 cc bb d3 a5 aa 3a 74 c5 05 bb 34 d6 8f 3c
       -0.006232 0.001301939 -0.002041188 0.017558195
0003d0 98 ed 1c 3c 40 a5 08 b7 f5 ea 9e ba 44 46 aa bb
       0.009578131 -8.144707e-06 -0.0012124466 -0.0051963646
0003e0 14 48 79 3c 57 6a 7b 3b 5d bd d5 bb 18 ba af bb
       0.015214939 0.0038362944 -0.006522818 -0.0053627603
0003f0 c8 b6 7b 3c d3 bf e9 bb bf 32 8d 3c 82 89 3c 3c
       0.015363403 -0.007133463 0.017236112 0.011507394

convs.4.weight f4 [16, 16]
000000 77 c4 b4 bb 91 dc 94 39 88 00 c0 3b 3c c7 04 3c
       -0.0055165845 0.00028393095 0.0058594383 0.008104142
000010 b2 22 04 39 b5 b9 1b 3c 25 71 04 b9 cc 4c ad bb
       0.00012601426 0.009504725 -0.0001263065 -0.005288696
000020 e3 0a 28 3b 7c 2f 8c 3c 07 17 80 39 30 14 70 bc
       0.0025641255 0.017112486 0.0002443122 -0.014653251
000030 98 a2 98 3a 2e 6d 5c 3b 3c 13 06 38 48 00 83 b9
       0.0011645136 0.0033634412 3.1966003e-05 -0.00024986477
000040 92 ae 8f 3c a5 66 8e bc 67 5a 87 b8 9e 2a ae ba
       0.017539296 -0.01738293 -6.4541404e-05 -0.0013287847
000050 f7 b8 dd bb 6b f6 31 bb 74 6d 7d 3a e4 8a e4 3b
       -0.0067664343 -0.0027154933 0.0009667494 0.006974565
000060 8a c1 16 bb e1 88 c1 ba e5 d9 5f bc 62 8d 01 3a
       -0.0023003542 -0.0014765525 -0.01366279 0.0004942027
000070 40 04 25 3c ce 1d 33 bb 94 95 54 bc 56 4c a0 39
       0.010071814 -0.0027330997 -0.012975115 0.00030574453
000080 60 c0 bb 3a 96 1f ce bb 2b 45 f8 3a c3 e3 8e 3c
       0.00143243 -0.0062903864 0.0018941512 0.01744259
000090 52 4f 8f 3c fb 40 02 bc 9c ab 8d bc 3f 8d 6c bc
       0.017493878 -0.007950063 -0.017293744 -0.014437973
0000a0 86 ee 82 3c be 54 84 bb 2e d1 2c 3c fb 35 11 bc
       0.015982877 -0.0040384224 0.010547919 -0.008862968
0000b0 a5 e6 82 bc aa 4f 8d bc cd 7d 82 bc 8e 78 34 bc
       -0.01597912 -0.0172499 -0.015929127 -0.011015071
0000c0 aa fc 56 b8 a8 fb 5f 3b d2 f3 d8 bb 8f ef aa 3b
       -5.1256888e-05 0.0034177098 -0.0066208625 0.005216546
0000d0 5c 09 84 bb a6 95 9a 38 2b d4 8b 3c ff 96 ea 3a
       -0.004029436 7.3711664e-05 0.017068943 0.0017897784
0000e0 96 08 2b 3b 1f d4 b2 bb 9d a5 42 3c ae 46 86 3c
       0.0026097647 -0.0054574157 0.011880306 0.016391125
0000f0 28 cb 8a ba 8e 6a 4d bc 9d a6 83 bc 1b d8 ff bb
       -0.001058911 -0.012537612 -0.016070658 -0.007807744
000100 cd 61 fb 3a 1e 8b 50 3c 56 e6 e8 3b 3f 16 be bb
       0.0019178927 0.012728481 0.0071075363 -0.005800992
000110 5b 77 8d 3c 34 03 da 3b e7 63 8e bc b4 38 76 ba
       0.017268827 0.006653214 -0.017381622 -0.00093926047
000120 fa d1 17 3c 85 d4 8f bc a8 7f bb 3b 2b 38 5a bc
       0.009266371 -0.017557392 0.005722005 -0.013319056
000130 3e 68 66 3c fa 55 fb bb be cd 6b 3c 9f 22 50 bc
       0.014062939 -0.0076701613 0.0143923145 -0.012703567
000140 2d aa c1 bb c9 d7 18 bc 78 71 d5 b9 2e b3 dc ba
       -0.005910179 -0.009328791 -0.00040711067 -0.0016838068
000150 2c d6 de b8 14 c4 d5 3b 7b 36 cd bb 2e 99 74 3c
       -0.000106256775 0.0065236185 -0.006262598 0.014929099
000160 e7 0f e9 bb cc 58 8e bc 6a 8b ed 3a 83 e2 5c 3b
       -0.0071124914 -0.017376326 0.0018123214 0.0033704347
000170 50 ed e4 bb 56 9b 89 bc b8 a6 13 bc 2f f2 d1 3b
       -0.0069862977 -0.016797703 -0.009011917 0.0064070444
000180 8c 14 a3 3a 0a d9 8f 3c 5a 93 c3 b9 76 21 04 3c
       0.0012442037 0.017559547 -0.00037303084 0.008064618
000190 8d b3 8f bc 28 8c 67 3c 14 75 90 3b 33 9a 49 bc
       -0.017541671 0.014132537 0.004408488 -0.01230483
0001a0 fc 7e 93 b9 7b b0 ba 3b e3 a3 66 3c eb e5 66 bc
       -0.00028132636 0.0056973076 0.01407716 -0.014092903
0001b0 86 89 96 ba 2c e0 79 3c 45 38 52 bc 7e 70 da bb
       -0.0011485077 0.015251201 -0.0128307985 -0.006666242
0001c0 75 a3 59 3a f7 7a 82 bc 51 92 73 3c 27 87 7d 3c
       0.000830225 -0.015927775 0.0148664275 0.015474117
0001d0 49 0e 83 3a f5 d1 c8 3a 66 6f 23 bb 62 4a 8e 3c
       0.0009998764 0.0015321361 -0.0024938225 0.017369453
0001e0 e9 5f 30 b8 a7 bc 95 bb 8c 6e 1c ba f7 4a 82 3c
       -4.2050993e-05 -0.0045696083 -0.00059674005 0.015904887
0001f0 f0 9f 47 bb dc 73 7e 39 c2 9d 8e 3c 57 22 8f bc
       -0.003046032 0.00024266489 0.01740921 -0.01747243
000200 ae 8b 03 3b 76 6b 48 3a b2 bf 04 3c 96 df 0d b9
       0.002007227 0.00076454075 0.008102344 -0.000135301
000210 80 88 65 bc 56 1c 6e bc 7f e8 8d 3c de 3a 83 bc
       -0.014009595 -0.014533123 0.017322777 -0.016019281
000220 d3 0d 5f b8 35 21 cd 3a 91 a7 8d bc 4a 06 8e bc
       -5.3180218e-05 0.0015650155 -0.017291816 -0.017336983
000230 c5 f3 8d 3c 43 f1 8a bc 27 c3 68 3c 9e 5a f3 b9
       0.017328152 -0.016960746 0.014206684 -0.00046416087
000240 3d 7e 77 3c 5f 32 03 3b 08 86 58 ba ed 28 91 3a
       0.015105781 0.0020019037 -0.00082597183 0.0011074819
000250 81 3f 8c b9 a8 53 8e 38 7d b6 52 bc 38 74 fd bb
       -0.00026750195 6.78667e-05 -0.012860891 -0.0077348016
000260 c2 f3 bc bb d0 b7 e0 3b b0 6e 8d bc a4 e1 59 ba
       -0.005766363 0.0068578497 -0.017264694 -0.0008311516
000270 54 41 26 39 f0 e2 75 ba 93 78 8b 3c c6 b0 8f 3c
       0.0001585533 -0.00093798246 0.017025268 0.017540347
000280 d9 03 b4 ba 6c 2f e7 bb bd 46 80 38 78 14 26 3b
       -0.0013734057 -0.0070552137 6.116692e-05 0.002534179
000290 b0 ca b7 39 fa 0a 4f bc 59 fd a2 bb 5d 8f 8f bc
       0.00035055494 -0.012636894 -0.004974049 -0.017524416
0002a0 f5 e0 8e bc 88 7e 8c 3c 23 15 8d 3c fe c2 8f 3c
       -0.017441252 0.017150179 0.017221993 0.017549034
0002b0 83 f0 99 3b 8d 08 e8 bb 86 db da 39 b9 3e 30 3b
       0.0046978607 -0.0070810975 0.00041743758 0.0026892854
0002c0 72 aa 33 3a 38 73 73 bb 80 d1 dd bb f7 78 57 bc
       0.00068537064 -0.0037147533 -0.006769359 -0.013151399
0002d0 36 11 e5 bb 0c 50 81 3c 5d 07 cf 3b 94 1d 13 3a
       -0.006990577 0.01578524 0.0063180164 0.00056120125
0002e0 07 3d 8c bc 5a 9b 33 bc 72 8a 81 bc 61 b6 85 3c
       -0.017118944 -0.010962332 -0.015813086 0.016322317
0002f0 aa 34 47 bc 34 1a 8f bc dc cc c9 b9 df 68 81 bc
       -0.012158552 -0.01746855 -0.0003849034 -0.015797077
000300 1e 82 89 bc 56 42 58 39 41 1e bf 3a b8 33 cc bb
       -0.016785678 0.00020624077 0.001458116 -0.0062317513
000310 ea 7f 8b 3c 3c cc 1e bb bc bf d4 3a 8e ec 51 3c
       0.017028768 -0.002423062 0.0016231458 0.012812747
000320 e8 1f 9d 3a 41 d3 8d 3c 3e 18 8d bc 9a d4 61 bc
       0.0011987658 0.017312648 -0.017223474 -0.013783598
000330 db 69 8d ba 9a 8a 36 3c 3a 1a 89 3a 72 5a 95 3a
       -0.0010788994 0.011141444 0.0010460087 0.0011394753
000340 05 6a 94 ba 7a 02 9b 3b a2 94 8b bc a6 62 b5 bb
       -0.00113231 0.00473052 -0.017038647 -0.0055354415
000350 0c f3 1f 3b e6 0b 88 ba d1 80 96 39 e9 72 90 bc
       0.0024406342 -0.0010379523 0.00028706205 -0.017632918
000360 8c 88 25 3b 3e 3c ef 39 d0 bf 35 3a 2e 0f ce 3a
       0.002525839 0.00045630516 0.00069331843 0.0015721077
000370 55 d5 6a bc 7f f1 89 39 ac e5 7f 3c 88 36 ed b9
       -0.014333089 0.00026310605 0.015618723 -0.00045244792
000380 86 73 7f bb 84 01 cd 3a 51 ce 3a 3a b6 f4 4d 3c
       -0.003897877 0.001564071 0.00071260805 0.012570551
000390 f8 32 74 ba 91 15 d2 ba c7 e4 a4 ba cb 8b 81 bc
       -0.0009315456 -0.0016028156 -0.0012580388 -0.015813729
0003a0 20 00 fe 3a 45 bd 46 bc 14 89 2a bb 68 be 8e 3c
       0.0019378699 -0.012130086 -0.0026021646 0.017424777
0003b0 bf 63 2f bb 13 9f 8f bc 23 70 52 3c 00 cd 4a 3c
       -0.0026762334 -0.017531907 0.012844118 0.012377977
0003c0 50 60 59 bc e3 aa 8f bc 49 37 b7 3b bc 9f 17 bc
       -0.013267592 -0.01753754 0.0055913073 -0.009254392
0003d0 30 9a eb 3a 9f 49 53 3c 6c ad f8 b9 bd 50 85 3b
       0.0017975029 0.012895971 -0.00047431455 0.0040684626
0003e0 ff 63 f0 ba 51 3d c8 3b 30 ad 8d 3c 85 9b 73 bc
       -0.0018340348 0.006110825 0.017294496 -0.014868622
0003f0 ac ff 8d bc ed 4f a4 bb 18 d0 92 3a ff 57 9d 3b
       -0.017333828 -0.0050144107 0.0011200933 0.0048017497

convs.5.weight f4 [16, 16]
000000 c0 67 83 3c 47 c1 25 3b b9 dd ce ba 56 84 b3 3b
       0.016040683 0.0025292204 -0.0015782631 0.005478422
000010 cc 60 87 3c 54 4f 63 bc f1 9d 67 bc 5b a2 83 3c
       0.016525649 -0.013873894 -0.014136777 0.016068628
000020 26 0c 76 3b 7f 57 da 3b ca 9f 6f bc 85 52 f2 bb
       0.0037543862 0.0066632624 -0.014625499 -0.007395091
000030 84 5c 81 bc 6a de 97 bb 6a c6 78 bc ec d5 8f bc
       -0.015791185 -0.004634668 -0.015184024 -0.01755806
000040 0f 6d 73 3c 73 99 8f 3c 3f 07 1f ba bc c9 93 bb
       0.014857545 0.017529225 -0.00060664484 -0.0045101326
000050 c2 ce d9 b8 ea cb 14 39 78 a5 23 b9 5e e9 1e bb
       -0.00010385878 0.00014190344 -0.00015606533 -0.0024247984
000060 2a 13 73 3b 11 0b c9 bb ad a7 5c bc 13 11 74 3c
       0.003709028 -0.0061353524 -0.013467711 0.014896649
000070 9d a2 82 39 17 07 27 39 91 af 84 3b b0 9e 7b bc
       0.0002491669 0.00015929002 0.0040492495 -0.015357658
000080 16 ab 8d 3a cd 29 20 3b 00 a2 86 bc 9f fc e8 bb
       0.0010808434 0.0024438978 -0.01643467 -0.007110193
000090 c4 1c 3e ba 0c 6f 83 ba d6 94 8b 3c 55 2e ac 39
       -0.0007252211 -0.0010027601 0.017038744 0.00032840917
0000a0 55 09 68 3c 2d 34 94 3a 46 a7 d1 3a 7c af a8 ba
       0.014162381 0.0011307054 0.0015995286 -0.0012869681
0000b0 df d0 8e 3c c5 af 6f 3c 72 a1 5c 3b 05 75 8d bc
       0.017433582 0.014629309 0.0033665565 -0.017267713
0000c0 e2 d6 88 3c 16 30 e5 3b 4b 9c 86 3c ac 84 81 ba
       0.016704027 0.0069942577 0.016431948 -0.0009881458
0000d0 11 20 7c bc 70 1e 8b bc 34 7e 85 3c 61 99 2d bc
       -0.015388505 -0.016982287 0.01629553 -0.01059565
0000e0 1b b8 18 bb 8f 91 45 b9 a5 a6 61 bc e1 fc e3 bb
       -0.0023303095 -0.00018841609 -0.013772641 -0.0069576357
0000f0 0f 5a 2c 3b 03 bb 37 3a a5 b3 54 ba 40 fb df ba
       0.0026298796 0.0007008763 -0.00081139273 -0.0017088428
000100 ad 71 15 39 44 e7 c4 3b 67 41 88 bb 65 1e b9 3b
       0.00014252095 0.0060090143 -0.004158187 0.0056493753
000110 0e e1 8a 3c 7c 36 ae b9 11 aa d2 b9 32 7a e7 bb
       0.016953018 -0.0003322846 -0.0004018103 -0.0070641274
000120 c0 ff de 3b 9d 39 8c ba 8d e3 79 bc f1 38 9b ba
       0.00680539 -0.0010698322 -0.015252006 -0.0011842531
000130 7b ad 3a 3c e8 be 7c bc a9 c4 9b ba ea c0 ab b9
       0.0113939 -0.015426375 -0.0011884171 -0.00032759394
000140 b6 35 57 3c 8c b7 2e bb 11 dd 6c 3c 07 86 ec ba
       0.013135364 -0.0026659695 0.014457003 -0.0018045314
000150 bd 4a ac 39 a6 b1 8a 3c dd fd 52 3c 8c 29 82 3c
       0.0003286208 0.016930413 0.012877909 0.015888952
000160 a2 04 8f bc 28 3c 8e bc a7 4d 82 ba 56 12 77 bc
       -0.017458264 -0.01736267 -0.0009941355 -0.015080055
000170 e2 a0 aa bb 25 e5 5f 3c 9f 9d cb 3b b9 e8 d3 3b
       -0.005207167 0.013665472 0.0062138583 0.0064669517
000180 42 0e 58 bc c2 d7 41 b9 79 53 8c bc a0 a6 25 bc
       -0.013186993 -0.0001848629 -0.017129647 -0.010110527
000190 2f 6b 83 bc fc 9e 4d 3c c4 c7 8f bc f5 e2 8d 3c
       -0.01604232 0.012550112 -0.01755131 0.017320136
0001a0 df 0e 87 bc b6 62 ba b9 8e 12 89 3c dd cb 0c ba
       -0.016486583 -0.0003555023 0.01673248 -0.0005370954
0001b0 09 eb 39 3a a2 9d 86 3c d4 b6 de bb ff a4 8d 3a
       0.0007092213 0.016432587 -0.006796697 0.0010806619
0001c0 8c e5 8d bc 08 71 2d bb 53 d1 0d bc a3 25 c4 ba
       -0.01732137 -0.0026465077 -0.008655864 -0.001496483
0001d0 91 3d c2 b9 07 72 bd 39 a4 e8 54 3c f4 a9 8e 3c
       -0.00037048434 0.00036133846 0.012994919 0.017415024
0001e0 84 ed 5c bb 93 7d 7b 3c ab 33 3b bb 18 14 89 3a
       -0.0033710906 0.015349763 -0.0028564732 0.0010458259
0001f0 09 c1 56 3c 1b 52 d0 bb fd fa 89 ba c8 0c 13 3a
       0.013107547 -0.006357444 -0.0010527071 0.00056095095
000200 c2 d1 a5 3b 18 07 6b 3a f8 24 94 3a c3 60 99 39
       0.0050604055 0.00089655956 0.0011302521 0.00029254527
000210 25 e6 74 3a 9b 4a 0c 39 fc 95 c1 bb 16 15 9a b9
       0.00093421555 0.00013379233 -0.005907772 -0.0002938888
000220 ec 71 32 3c d0 4d a2 b7 f9 e2 64 3a 0b 44 e8 3b
       0.010891419 -1.934814e-05 0.00087313313 0.0070881895
000230 1a df 30 bb ea 41 89 bc 49 3a dd 39 1a 43 87 3c
       -0.0026988448 -0.016755063 0.0004219583 0.016511489
000240 d2 b2 8f 3b 73 ed 65 3c b4 d4 af 3a 99 8a 8c bb
       0.0043853307 0.014033663 0.0013414831 -0.004288983
000250 ce b9 e5 bb 14 13 e5 bb b1 6b 81 bc dd 70 e5 bb
       -0.007010675 -0.0069907997 -0.015798422 -0.0070019797
000260 3a ce 21 ba b5 f4 76 bc 45 ac 84 3c 50 95 30 3a
       -0.0006172393 -0.015072991 0.016195426 0.00067361165
000270 84 65 44 bc df 09 5c bc 46 3c 8f 3c 4a 2d d6 3b
       -0.011987094 -0.013430088 0.017484795 0.0065361606
000280 ce 33 d9 3b ce b4 24 39 73 2c 99 3a ba 5b 8f 3c
       0.00662849 0.00015707614 0.001168622 0.017499793
000290 99 c9 6c 3c 0b 14 56 3c 4a 72 7e 3b 64 d4 6a 3b
       0.0144523615 0.013066302 0.0038825446 0.003583216
0002a0 2f d6 8b 3c ff 04 e8 bb fd 4c 95 b8 06 94 8c 3c
       0.017069904 -0.0070806737 -7.119214e-05 0.017160427
0002b0 a7 65 c7 bb 88 e0 84 bc bc 1d 93 3a fd 27 88 3c
       -0.006085116 -0.016220346 0.0011224071 0.01662063
0002c0 16 5c 2d bb a8 20 df 3b dd 05 8f bc 72 24 53 3b
       -0.0026452593 0.006809313 -0.01745885 0.0032217768
0002d0 0f 25 87 3c 73 00 a2 3b ac bc 81 ba 8b 10 94 bb
       0.016497163 0.004943901 -0.0009898148 -0.0045185736
0002e0 2a cb c9 bb 41 86 da 3a 98 cd 8f bc 27 35 99 ba
       -0.0061582522 0.0016672091 -0.01755409 -0.0011688814
0002f0 d3 cd 82 bc bd ce 87 bc fa 02 ce ba 1d 23 ca ba
       -0.015967285 -0.016578073 -0.001571744 -0.0015421842
000300 2d 53 84 3a 38 d4 6e bc b5 f6 85 3c 65 46 e3 3b
       0.0010095589 -0.014576964 0.01635299 0.006935882
000310 79 43 62 ba 3d 7e 6f 3b ae a5 aa b9 ba 48 e5 bb
       -0.000863127 0.003654375 -0.00032548368 -0.006997195
000320 8d ed f0 b9 03 b6 81 bb a3 91 74 3c e2 bb 3b 3c
       -0.00045953356 -0.003958465 0.014927301 0.011458369
000330 54 0d 16 3b d2 de de bb 61 58 e6 3b 6c 9d 63 bc
       0.0022896128 -0.0068014646 0.0070295786 -0.013892513
000340 de 67 26 ba 98 b0 72 bc df 78 cb bb 7a 54 c1 3b
       -0.0006347875 -0.014812611 -0.0062094773 0.005899963
000350 47 9e 8c bb b0 79 70 3c f1 85 79 3c 22 62 87 3c
       -0.004291329 0.01467745 0.015229688 0.016526286
000360 54 ad 88 3c ec 1c 02 bb 3b 1d 22 bc e6 3a 77 bc
       0.016684212 -0.0019853665 -0.009894664 -0.015089726
000370 79 11 8e bc 88 25 0f 3a 1b fd 0d 39 b6 65 13 3c
       -0.017342316 0.00054606097 0.00013541097 0.008996418
000380 e7 a2 e8 3b 95 25 69 3c e6 ad 1c 3b 81 69 69 3a
       0.0070994976 0.014230152 0.0023907362 0.0008903966
000390 63 c0 2c 3b 2b 2b e2 3b 98 22 62 bb 7a 6f 8d bc
       0.0026359789 0.0069021187 -0.0034505483 -0.01726507
0003a0 a2 76 f8 3a 9a 20 55 bc 9f 07 d0 ba e7 2e 37 bc
       0.0018956254 -0.013008261 -0.0015871412 -0.011180616
0003b0 2a a4 63 bc c5 80 80 3b 91 a1 8b bc 0b b4 80 ba
       -0.01389412 0.0039216005 -0.017044814 -0.0009819282
0003c0 69 cd 55 bc ed 54 28 bb 49 bf 17 bc 16 46 5d bc
       -0.013049462 -0.0025685385 -0.0092619145 -0.013505479
0003d0 e5 e6 17 bb 97 d3 e5 bb 53 c7 c7 ba 84 7d b4 b9
       -0.0023178395 -0.007013749 -0.0015241898 -0.00034425792
0003e0 b9 7a ab 3a 32 71 80 3a 98 69 8e bc e9 aa 16 bc
       0.0013082839 0.000979936 -0.017384335 -0.009196022
0003f0 e4 61 2f 3c 0e 34 e9 b9 d3 4c d1 ba 3f c2 35 3c
       0.010704491 -0.00044480007 -0.001596833 0.011093675
