Comparisons/GCNII-master/pretrained/bf8247ceedc342e38cc4f5eeeae5348d.pt (torch_old, 85412 bytes, 68 tensors)

convs.0.weight f4 [16, 16]
00000000: 0d30 ffb8 a97d 36b9 ec3e b3b9 f802 39b8
00000010: 9fda aa38 8e0e c633 669e c2b9 3673 2fb9
00000020: a103 3339 0f23 15b7 86cd 4739 2634 df39
00000030: fb92 4936 488a c6b7 508d d739 a048 a9b8
00000040: 44ee d9b7 9bc3 31b7 ac09 86b7 e128 95b7
00000050: 988d 2237 8bd1 b22f e46c 4db9 67fe b9b7
00000060: 7464 8db8 79bb ceb6 10f3 1939 3680 d435
00000070: e7b0 3f31 0f9d 8db6 b4c9 1138 7418 a634
00000080: 1a9e b4b6 1958 80b8 ab5e e336 e9a6 c2b6
00000090: 680e bb36 a119 2c36 f281 0ab9 96b6 22b7
000000a0: dfdc 323a bba8 08b7 cb19 edb7 96f8 16b8
000000b0: 3efd 3e36 861f 7ab6 44ba 9538 5fa7 7e35
000000c0: e86a 29b9 ae06 2e3a 64b3 5fb9 5b7a 48b9
000000d0: 592d dcb8 835c 8235 86e4 fcb7 134c 2eb9
000000e0: 9d2c 5e38 ee77 0939 d924 a438 113d ef38
000000f0: cb77 d0ae bcdc 73b8 7fd2 7d39 5a82 38b7
00000100: c0a5 2ab9 5ba5 cc39 31b0 2db9 b1fa 9db8
00000110: 4006 62b8 9f21 33b6 b7ce 11b9 5afa b5b8
00000120: 3d57 77b7 536b 7137 6dd7 2939 6cc2 cf37
00000130: 1302 7d36 df7a 0139 b9e7 273a 23ca ccb7
00000140: 7437 1c36 baab 6736 ee7e e9b5 b0f8 b635
00000150: fe82 fa35 26be 87b3 2356 2a36 c133 a2b6
00000160: c332 0436 8655 0735 1916 1c34 7867 39b4
00000170: 497f 3436 1d12 6eb6 e4be b5b5 5376 c435
00000180: 064f 13b7 26ba 00b8 5c30 72b7 196c 36b7
00000190: ceaf 86b6 9ea8 b634 1aa1 99b9 63a5 18b8
000001a0: 83fa 8aba 54e9 41b7 af9f 3138 aab2 b6b7
000001b0: 9f04 bb36 7d7f 7eb6 f952 6537 f2c7 a2b6
000001c0: f08e 34b9 e5cc 3cb9 8b35 7fb9 c234 aab9
000001d0: 5476 3d37 b9a9 c436 7127 18ba c59f 8eb9
000001e0: 5f46 323b da92 7239 dbaf 97b9 d7c5 5839
000001f0: 16fe 5336 1c8a bbb8 abce 383a 0fc4 10b8
00000200: 6248 40b7 0967 f4b8 5d02 4db7 d33e bcb7
00000210: 41f9 d7b6 82df 34b6 fba3 88b8 ad7d 12b8
00000220: 76ef 2137 c3f0 1eb5 ad55 6938 8c20 f138
00000230: b1cc c4b4 46dd 85b6 b8db f237 5403 66b6
00000240: 8dea 2739 d97d 2638 af0e 9ab9 acb4 80b8
00000250: 0bd4 eab8 8c5f 87b6 f5ec 0db8 b224 4ab9
00000260: 8492 803a b0bf 51b7 ffab 4539 38ec 5b38
00000270: d930 bdb5 0389 7d38 b8cf fb39 32c1 77b7
00000280: 0438 82b7 a4fe ca38 68f8 26b9 6b03 6837
00000290: badd 6935 81f5 02b3 51db 21b9 2882 c8b7
000002a0: 7109 443a e712 30b7 99d3 8db9 e2a9 8339
000002b0: 7830 ae35 f4f2 f4b6 f7de 8138 30cb 8bb6
000002c0: f056 a5b7 9240 06b8 6aba ccb7 3e39 8d36
000002d0: 3317 e136 2e26 1cb6 e881 22b9 555b 16b7
000002e0: 1fd1 85b8 26f1 b3b7 0679 8db8 a2ce 9b39
000002f0: c319 b434 538b 57b5 8b78 46b9 175a a3b6
00000300: 9a42 04b6 b05f 8bb6 684c 8131 a937 8134
00000310: 684f 2534 fbf9 4c2d 5b15 5834 7a60 66b4
00000320: 0545 cf36 ebad 8fb5 6d48 07b6 bd76 d0b4
00000330: ba38 66af 9152 15b6 ddc7 b6b5 a133 d536
00000340: c4b2 28b9 8360 7dba 2d58 98b9 ed3c 13b9
00000350: b9fb fdb8 655b 1db6 d6e2 bc38 3710 0cb9
00000360: 889c d63a 6ef3 07b9 ddef eeb8 b4c8 1cb9
00000370: 40c0 3a36 3518 1fb9 fe8a 3a3a fc57 f7b7
00000380: 7821 6ab7 b328 1038 ecd6 3db8 8622 1ab8
00000390: 941d e0b6 f232 3bb6 fbe7 1cb9 5f5e 9bb7
000003a0: cdf4 afb7 5b94 08b7 fe8e 7bb8 de0a f436
000003b0: 8f91 6eb3 cc91 22b7 4b4b a237 be4b 9d36
000003c0: 31cb 45b9 8f30 993a 90b7 61ba 5370 85b8
000003d0: 586a 0cb8 24fd bf35 0f02 4db9 3bc0 96b8
000003e0: 8352 9c38 73a6 dbb8 5602 ff39 fc45 d938
000003f0: 8997 b4b3 29cf 2c38 a50a 5f39 4a3b 70b6
-0.00012168298 -0.00017403685 -0.0003418842 -4.4110202e-05 8.146953e-05 9.222741e-08 -0.0003712058 -0.0001673222
0.00017072122 -8.889255e-06 0.00019054682 0.00042572728 3.0036888e-06 -2.3667832e-05 0.00041113282 -8.0720754e-05
-2.5979367e-05 -1.0595565e-05 -1.5978549e-05 -1.778122e-05 9.68892e-06 3.25269e-10 -0.00019590888 -2.2172184e-05
-6.742115e-05 -6.161103e-06 0.00014681765 1.5832545e-06 2.7894715e-09 -4.2204115e-06 3.4758545e-05 3.0937701e-07
-5.3828235e-06 -6.119925e-05 6.776148e-06 -5.8010814e-06 5.5747114e-06 2.5644915e-06 -0.00013209114 -9.698464e-06
0.00068230735 -8.145517e-06 -2.8264612e-05 -3.59943e-05 2.8459613e-06 -3.7271252e-06 7.139568e-05 9.486593e-07
-0.00016156922 0.00066385686 -0.00021333765 -0.00019119067 -0.00010498864 9.712679e-07 -3.0147155e-05 -0.00016622273
5.2970474e-05 0.00013110015 7.826993e-05 0.000114077826 -9.4800244e-11 -5.814129e-05 0.00024206376 -1.09976045e-05
-0.0001627421 0.00039033112 -0.00016564202 -7.533038e-05 -5.388842e-05 -2.6692649e-06 -0.00013905285 -8.677384e-05
-1.4742659e-05 1.4389708e-05 0.00016197348 2.4766858e-05 3.7701145e-06 0.00012348172 0.0006405074 -2.4412822e-05
2.327809e-06 3.452164e-06 -1.7396794e-06 1.3632434e-06 1.8664575e-06 -6.321015e-08 2.5382112e-06 -4.834001e-06
1.969908e-06 5.041587e-07 1.4536671e-07 -1.726711e-07 2.689618e-06 -3.5475307e-06 -1.3541107e-06 1.4637575e-06
-8.780282e-06 -3.0690942e-05 -1.4435584e-05 -1.0873214e-05 -4.0139776e-06 3.4022827e-07 -0.00029302464 -3.6393652e-05
-0.0010603223 -1.1558022e-05 4.2348805e-05 -2.1779288e-05 5.5735723e-06 -3.7923157e-06 1.3668782e-05 -4.851253e-06
-0.00017219386 -0.00018005406 -0.00024338641 -0.00032464234 1.1292828e-05 5.8610135e-06 -0.0005804217 -0.00027203388
0.002720259 0.00023133625 -0.00028931987 0.00020673066 3.1589348e-06 -8.94258e-05 0.0007049839 -3.451487e-05
-1.1460945e-05 -0.000116540185 -1.2219502e-05 -2.2440601e-05 -6.4365163e-06 -2.6952189e-06 -6.515529e-05 -3.4926157e-05
9.652102e-06 -5.920994e-07 5.563132e-05 0.00011497838 -3.6656778e-07 -3.9894685e-06 2.8950963e-05 -3.4274608e-06
0.00016013738 3.969469e-05 -0.0002938411 -6.1371684e-05 -0.000111974856 -4.0344366e-06 -3.3837703e-05 -0.00019277891
0.000980929 -1.25020015e-05 0.00018851458 5.2433665e-05 -1.4095814e-06 6.0447503e-05 0.00048029213 -1.4767329e-05
-1.5523292e-05 9.679541e-05 -0.00015923532 1.3829073e-05 8.712192e-07 -3.0491268e-08 -0.00015435858 -2.3902467e-05
0.00074782135 -1.04948185e-05 -0.00027051268 0.0002511284 1.2978117e-06 -7.30005e-06 6.19273e-05 -4.166177e-06
-1.9710016e-05 -3.2008225e-05 -2.44055e-05 4.2087913e-06 6.7082233e-06 -2.3268035e-06 -0.00015497918 -8.961962e-06
-6.380886e-05 -2.1450756e-05 -6.745946e-05 0.00029717857 3.3546357e-07 -8.0296485e-07 -0.00018927657 -4.8682664e-06
-1.97083e-06 -4.1536623e-06 3.7630805e-09 2.406862e-07 1.539571e-07 1.1651564e-11 2.0124337e-07 -2.1455517e-07
6.1771157e-06 -1.0704947e-06 -2.0158725e-06 -3.8829413e-07 -2.0938531e-10 -2.225079e-06 -1.3618225e-06 6.353905e-06
-0.00016088324 -0.00096655654 -0.00029057395 -0.00014041709 -0.00012110867 -2.3448022e-06 9.00679e-05 -0.00013357481
0.0016373554 -0.00012965288 -0.000113934024 -0.00014952087 2.7828064e-06 -0.0001517244 0.00071160484 -2.9485665e-05
-1.3955279e-05 3.437018e-05 -4.5261273e-05 -3.6748614e-05 -6.6791636e-06 -2.7894826e-06 -0.00014963739 -1.8521385e-05
-2.097562e-05 -8.140773e-06 -5.9976235e-05 7.2730318e-06 -5.5546078e-08 -9.689898e-06 1.9346966e-05 4.687782e-06
-0.00018863079 0.0011687445 -0.0008610422 -6.362856e-05 -3.347764e-05 1.4304283e-06 -0.0001955109 -7.188363e-05
7.454029e-05 -0.00010473737 0.0004863913 0.00010360402 -8.409467e-08 4.120093e-05 0.00021270903 -3.5797298e-06

convs.1.weight f4 [16, 16]
00000000: ffa7 acb8 fb5d 9e39 2c78 37b9 6982 49b8
00000010: d3f3 40b8 f8c2 a2b6 3afa adb9 bab4 f4b8
00000020: fa77 19b8 3851 2537 f5a2 e7b9 30f1 0f3b
00000030: 362d 6534 64db afb7 c538 1139 1b4f f5b6
00000040: cc45 aeb7 f4f9 5038 ebb1 75b6 288b 00b7
00000050: 4dc9 7db7 2177 87b4 542c 79b8 f1ee 44b7
00000060: 291a 5b39 b773 21b7 7b5a e638 b062 ccb7
00000070: 55dd be35 a995 02b6 71d2 6237 3340 c1b4
00000080: adee 05b7 9762 9fb7 17e1 86b8 f4ca dfb6
00000090: 7661 fb35 12b3 54b5 a015 f2b8 dc0a 51b7
000000a0: ccfe 20b8 d615 8537 10ce 3738 c874 5bb7
000000b0: 5fd4 ff31 f773 4236 2ee4 1938 cc2b dab5
000000c0: 506b 76b8 cace cc38 f14d 42b9 6f3e 01b9
000000d0: 1145 4b38 3343 2630 6f22 beb9 1bce d2b8
000000e0: b8af 9638 58f9 6238 094b 1439 1ca9 eb38
000000f0: 26a0 7eb6 0816 7e36 3975 92ba fdfe 24b7
00000100: 1ede cbb8 e956 9139 ac0c 88b8 b351 67b8
00000110: 7ad4 0bb8 2426 58b6 ecfc bbb9 3fc5 d1b8
00000120: 69b5 7038 9552 adb8 6911 e3b8 fade b73a
00000130: 8e13 9db6 0666 1fb8 38aa 8a39 23f4 84b7
00000140: 6416 f530 d7a9 0135 ef8b e9b5 d47a 9db0
00000150: 1925 0c31 984c 00b3 e83a 0d36 2361 d336
00000160: 2020 29b6 1a8c b035 f59e 93b4 1d4b 06b4
00000170: 7707 7e36 ff30 9334 3c88 e0b4 93d8 9133
00000180: fc22 2435 8ad6 2e37 1187 00b7 a568 8c34
00000190: 5554 3b35 3663 0db1 cb9e 8cb8 2eed 24b7
000001a0: 9c29 c7b6 3071 3bb7 b614 0938 5014 3539
000001b0: 5064 a035 a59b 4a34 01c4 b6b8 e1d9 ccb6
000001c0: cd57 53b8 304f 82ba fe51 14b9 98c3 8bb8
000001d0: b4ce 2ab8 5200 f2b1 1b36 dab9 f756 29b9
000001e0: a0e4 e13a a1cb c1b8 ed1e 3b39 9994 a7b9
000001f0: 24cb 7eb6 7d6d 07b8 3d38 cb39 b39c 55b7
00000200: 042b fa39 baa3 f837 6503 0b35 1400 b0b6
00000210: fb7e 0836 1b7a 8833 9211 e7b8 9605 93b7
00000220: f870 3fb7 8bd4 f8b6 adbf 4538 a927 c6b7
00000230: f1bc 0db6 d729 bfb4 f0e1 b936 cee4 14b6
00000240: 25a2 8ab8 cf3c c839 b272 163a d615 a2b9
00000250: 0054 1d38 6f6c d136 d80d 8eb9 0c09 ddb8
00000260: f5c0 f9b9 1ac2 1936 f06c d739 a243 14b9
00000270: a608 08b6 2ab4 a137 4af1 7a38 eb6c bcb6
00000280: cec1 e5b6 be9f 52b8 0b51 f0b6 225b d836
00000290: 9c9e 5537 714f 93b5 7cea 50b8 15f1 9ab6
000002a0: 6277 0cb7 950c b236 b7c3 d5b8 8793 bcb7
000002b0: 8c7a 91b5 cef9 81b6 d8ea 2838 10fe c4b6
000002c0: 86b3 77b6 d1cc 3738 9983 60b7 f313 eeb5
000002d0: 6f98 e335 a08b 32b3 6873 e7b8 c08e 4137
000002e0: c539 1438 1041 fdb6 d620 eeb9 fb8a f4b6
000002f0: 6f60 72b5 6fdd fc35 899c 0437 4bb7 4936
00000300: 3ba5 9a36 2824 a0b6 0e80 3330 5768 33b6
00000310: 4688 a5b5 73cd 02b4 05e8 ceb4 4c29 0e34
00000320: 8368 0135 78e8 b4b6 5c1a 5cb2 8236 44b6
00000330: 26ec c72e ffa5 4c34 e9de a434 6d39 8a35
00000340: 12b7 beb8 dd57 d439 bb26 27b9 b32e 3eb8
00000350: aca0 a9b8 1974 74b6 f2fd a7b9 cdb1 01b9
00000360: 05a8 5038 dd53 c238 875b 28ba cb23 64b9
00000370: 9056 1b36 b535 a4b8 342b 4139 f99d 46b7
00000380: 4443 63b7 c461 d5b7 aa63 04b8 eb65 ac35
00000390: 0ec5 bab6 259d 4f36 79eb c8b8 3d9d 8536
000003a0: e94d aab7 3090 2336 e4f0 1638 484d 8bb6
000003b0: 6b3d 64b4 f3ff 0fba cb7f 4339 465c 62b5
000003c0: b26f bab8 16eb c638 2141 6cb8 8f37 67b8
000003d0: 5d5f 9037 4e77 f6b3 4eaa f3b9 052a d2b8
000003e0: 9151 ca38 da08 f0b6 3c2d 6238 4de2 05b9
000003f0: 46f8 0b34 284f 0939 a6c9 1b3a b1e0 f435
-8.232891e-05 0.0003020613 -0.00017497008 -4.804359e-05 -4.6003446e-05 -4.8506736e-06 -0.00033183565 -0.000116684896
-3.658978e-05 9.853677e-06 -0.00044181166 0.0021963827 2.1343735e-07 -2.0963787e-05 0.00013849426 -7.310778e-06
-2.0774918e-05 4.982385e-05 -3.6611407e-06 -7.661794e-06 -1.5126844e-05 -2.5232387e-07 -5.940751e-05 -1.1738143e-05
0.00020895213 -9.62329e-06 0.00010984108 -2.436465e-05 1.4220519e-06 -1.9458623e-06 1.3519647e-05 -3.5995762e-07
-7.982989e-06 -1.9000187e-05 -6.431544e-05 -6.6695447e-06 1.8729322e-06 -7.9236736e-07 -0.00011543487 -1.2459899e-05
-3.838427e-05 1.5865004e-05 4.382251e-05 -1.30806075e-05 7.4456206e-09 2.8975753e-06 3.669055e-05 -1.6255012e-06
-5.8750913e-05 9.7659955e-05 -0.00018530317 -0.00012325657 4.8463295e-05 6.0485944e-10 -0.0003626528 -0.000100519705
7.1852875e-05 5.411482e-05 0.00014142333 0.00011237172 -3.7942168e-06 3.7861773e-06 -0.0011173851 -9.834531e-06
-9.721167e-05 0.00027721308 -6.487346e-05 -5.515078e-05 -3.3338067e-05 -3.220871e-06 -0.0003585586 -0.000100026366
5.738941e-05 -8.264665e-05 -0.000108274464 0.0014028244 -4.681241e-06 -3.800357e-05 0.00026448234 -1.5849311e-05
1.783246e-09 4.8303394e-07 -1.7400579e-06 -1.1458163e-09 2.039377e-09 -2.9871984e-08 2.1044925e-06 6.299598e-06
-2.5201662e-06 1.3153797e-06 -2.749654e-07 -1.2507049e-07 3.7853295e-06 2.7416533e-07 -4.1822375e-07 6.791483e-08
6.114567e-07 1.04211595e-05 -7.660842e-06 2.615317e-07 6.978565e-07 -2.0574595e-09 -6.705298e-05 -9.830384e-06
-5.935506e-06 -1.1172422e-05 3.2682634e-05 0.00017269072 1.1950124e-06 1.8869339e-07 -8.714945e-05 -6.105038e-06
-5.038809e-05 -0.0009941813 -0.00014144924 -6.664469e-05 -4.0723666e-05 -7.0431634e-09 -0.00041620512 -0.00016149493
0.0017234273 -9.240886e-05 0.0001784523 -0.00031963436 -3.7967193e-06 -3.2288477e-05 0.00038761078 -1.2732274e-05
0.00047715765 2.9640145e-05 5.1786475e-07 -5.245218e-06 2.0339492e-06 6.3552044e-08 -0.00011018211 -1.7526367e-05
-1.141079e-05 -7.415719e-06 4.7146972e-05 -2.3621908e-05 -2.1120616e-06 -3.5606965e-07 5.5397322e-06 -2.21869e-06
-6.6105546e-05 0.0003819228 0.0005739137 -0.00030915317 3.7509948e-05 6.2413087e-06 -0.00027094665 -0.00010539786
-0.00047636745 2.2911759e-06 0.0004108916 -0.00014139575 -2.0270613e-06 1.9276591e-05 5.9829363e-05 -5.6155163e-06
-6.8472937e-06 -5.0216673e-05 -7.161992e-06 6.447911e-06 1.27327185e-05 -1.0975474e-06 -4.9809445e-05 -4.6176233e-06
-8.372446e-06 5.306278e-06 -0.00010193086 -2.2480044e-05 -1.0839008e-06 -3.8735807e-06 4.0273037e-05 -5.870832e-06
-3.6910365e-06 4.382135e-05 -1.338208e-05 -1.7738188e-06 1.6957182e-06 -4.1570843e-08 -0.000110364344 1.1536933e-05
3.533975e-05 -7.547562e-06 -0.00045419362 -7.287946e-06 -9.0292355e-07 1.8839909e-06 7.904259e-06 3.0058025e-06
4.608793e-06 -4.7725807e-06 6.53018e-10 -2.6733812e-06 -1.2333119e-06 -1.2181935e-07 -3.8539307e-07 1.3239804e-07
4.820833e-07 -5.391481e-06 -1.2811679e-08 -2.9238004e-06 9.091421e-11 1.905937e-07 3.070957e-07 1.0298514e-06
-9.0940055e-05 0.00040501254 -0.0001594079 -4.5343022e-05 -8.0884754e-05 -3.642641e-06 -0.00032041926 -0.00012368635
4.9747545e-05 9.2662616e-05 -0.000642233 -0.00021757108 2.3147186e-06 -7.830133e-05 0.00018422009 -1.18385005e-05
-1.3545916e-05 -2.5437104e-05 -3.1564072e-05 1.2844661e-06 -5.566172e-06 3.0936874e-06 -9.5806034e-05 3.982014e-06
-2.0301859e-05 2.437282e-06 3.5987134e-05 -4.1515195e-06 -2.1256498e-07 -0.00054931565 0.00018644256 -8.4325836e-07
-8.889976e-05 9.485164e-05 -5.632744e-05 -5.5126435e-05 1.7210545e-05 -1.1476969e-07 -0.0004647546 -0.00010021407
9.6473035e-05 -7.153588e-06 5.3924727e-05 -0.00012768172 1.3035705e-07 0.00013094826 0.0005942829 1.824481e-06

convs.2.weight f4 [16, 16]
00000000: 0428 0fb8 7065 0839 518b 6bb8 028f 8cb6
00000010: eeb1 54b8 f205 4036 ea85 71b9 4d50 c6b9
00000020: 3757 603a ec5d 89b8 eb1b a0b6 6990 00b8
00000030: b69b 8f35 b286 57b7 3fde 1f39 d8c8 2fb7
00000040: 5fba cbb6 5ee1 b437 37cf 9137 8c39 1ab6
00000050: 7b9a 7436 138e 25b6 264a 33b8 f952 7bb8
00000060: 5603 ddb6 6b01 93b7 75ad 1cb7 6502 87b7
00000070: d468 f8b5 2516 9d36 b3c9 95b8 c53f 1db6
00000080: 0f49 f5b6 7d19 df37 076c 29b6 e082 3836
00000090: 582a aa34 c5ba d533 3305 0fb8 1411 40b7
000000a0: 5430 a038 a694 9bb5 42b4 be37 dc7c 2235
000000b0: e60f beb5 0bcf f735 e099 d237 eec0 5c36
000000c0: 3d9d a7b8 6f2b 8138 1cee 0c3a 1bd1 bdb7
000000d0: 6e9c 2eb8 51b3 87b4 9d29 b7b9 527e 9fb8
000000e0: 0186 08b8 8c1e 4437 55e3 24b9 6449 86b9
000000f0: ae90 98b5 85dc bf37 6bd8 aa38 7b5c c2b7
00000100: 1d92 4ab8 5a39 9939 3e4d cab8 90a9 33b8
00000110: 25ac cbb7 ced7 b036 d6aa 1eba 308f efb8
00000120: be21 fd3a 5641 91b8 536d 8cb9 9211 963b
00000130: 0cff e5ae 235e 90b8 2a48 8039 4508 28b7
00000140: 2535 a0b6 82a6 d4b1 0932 d735 9001 8cb6
00000150: 56b4 942f af74 c536 e1a5 0db6 65c9 d7b0
00000160: 08f3 8035 40d9 13b6 cd5f 4536 bfb8 0c34
00000170: e584 d133 8a51 4a36 5d63 d535 b40a 6c33
00000180: 0aa6 1536 4c4e 9537 f312 e7b6 d0c9 c9b6
00000190: ac63 0636 24fb b4b6 af55 91b8 6f27 5238
000001a0: 35b6 a938 69f2 ecb6 1cda e636 eb4a ccb7
000001b0: 263b c0b4 89e2 2ab6 cf5a c235 1b62 2cb6
000001c0: 4f3a bfb9 f6d2 b839 281a 3cba 8366 abb8
000001d0: d75d 97b8 0a8d 2c35 0a16 d6b9 8f6f 09b9
000001e0: 71d2 0939 0e0e 34b8 5bdb e539 2fba 6db9
000001f0: 41f4 d236 3651 84b7 08ba 6938 b434 66b6
00000200: 69a7 1e37 7076 0638 acda 30b7 9447 15b6
00000210: 7fe7 8eb6 5b3f 3bb5 5ced 89b8 f96e 4337
00000220: b972 8738 5080 6db5 3f81 ac37 aa48 bfb7
00000230: 5086 79b4 8eae e336 c4dc a6b8 ba7d 8536
00000240: 459c a938 8842 db39 859b 80b9 67b2 33b7
00000250: 795b 70b8 bf8c 88b4 c998 51b9 65cf c4b8
00000260: d3ad db39 7181 bfb9 4388 5bb9 8423 8b3b
00000270: 614b 4135 85ee cdb7 f28e 30ba 84c3 45b6
00000280: 18c4 1e36 2854 dc34 f6a4 5eb7 1e03 dd36
00000290: a537 e335 2dd5 c2b3 6063 aab7 98bc 3a37
000002a0: 76ea 85b7 691a b936 c6e0 b1b8 8719 9037
000002b0: 50a9 1135 7a10 bdb6 f3fc 3f37 a0e2 18b6
000002c0: 2c8a 09b6 3a3a a8b3 f7ce deb6 f55b b6b5
000002d0: 0f7b f434 c49b f735 42b3 a0b8 0ea6 60b6
000002e0: 0798 8436 42dd d1b6 9a41 14b8 4c95 cab7
000002f0: 0494 0436 68cf 8235 9d8c f136 a0ae 9735
00000300: a5b3 a734 ee7d 17b6 4dc9 55b5 0c92 62b4
00000310: 3e46 aa36 9d9f 00b5 92f6 dcb0 1259 f435
00000320: bd60 3136 52c8 7db6 bc4a c1b6 42a8 ceb5
00000330: aecf 8eb5 072b c736 98e6 5bb5 7e91 c9b4
00000340: b4ff 07b8 2bd3 b339 7f4e 2cb9 11f4 f6b6
00000350: 8681 0038 f423 3db5 8020 32ba 71a0 96b8
00000360: 50aa 2e37 b07c 75b8 8c06 aeb8 9287 9fb9
00000370: ace6 ae36 6827 01b8 67d9 8a39 aa88 96b6
00000380: afe8 4eb7 9520 4eb4 dc82 e3b7 857d 41b7
00000390: d02c b934 65dc f42f 3b64 93b8 4e0b 26b7
000003a0: 31f5 62b7 9f3b 60b6 4574 5a33 447d 18b7
000003b0: ca48 03b5 cf0a 1435 8573 e337 bf45 04b6
000003c0: 92f7 b0b8 1f5b 863a 4147 ccb8 4e56 f6b7
000003d0: d2e4 bf38 1050 6e35 c183 d7b9 c072 96b8
000003e0: e228 75b9 703f d7b8 b1f2 fc39 cc7b 19b9
000003f0: 2baa 04b6 985f e0b7 8888 60b9 594d ff35
-3.4131124e-05 0.00013007759 -5.6158115e-05 -4.1889734e-06 -5.071045e-05 2.861369e-06 -0.00023033438 -0.00037825332
0.0008557918 -6.5501634e-05 -4.7716217e-06 -3.065207e-05 1.0699648e-06 -1.284636e-05 0.00015246215 -1.0477575e-05
-6.071568e-06 2.1562617e-05 1.7381839e-05 -2.2981285e-06 3.6448753e-06 -2.4669614e-06 -4.274598e-05 -5.9920338e-05
-6.5867016e-06 -1.7524426e-05 -9.338711e-06 -1.609437e-05 -1.8507949e-06 4.6815426e-06 -7.142443e-05 -2.3431942e-06
-7.310074e-06 2.659554e-05 -2.5245843e-06 2.7494316e-06 3.1695777e-07 9.9525586e-08 -3.40987e-05 -1.1448068e-05
7.638396e-05 -1.1591662e-06 2.2733704e-05 6.0531397e-07 -1.416073e-06 1.8463192e-06 2.5105604e-05 3.2894854e-06
-7.9924685e-05 6.1592895e-05 0.0005376057 -2.2627928e-05 -4.163052e-05 -2.527618e-07 -0.00034935484 -7.60524e-05
-3.2549728e-05 1.1689623e-05 -0.00015724947 -0.00025613152 -1.136699e-06 2.2871662e-05 8.146543e-05 -2.3169667e-05
-4.829663e-05 0.00029225164 -9.646498e-05 -4.2834843e-05 -2.4279647e-05 5.2703317e-06 -0.0006052678 -0.00011423079
0.0019312424 -6.9263086e-05 -0.00026784334 0.0045797313 -1.045902e-10 -6.8839894e-05 0.0002446783 -1.0015506e-05
-4.7745584e-06 -6.188942e-09 1.603331e-06 -4.172507e-06 2.704918e-10 5.8846413e-06 -2.1107192e-06 -1.5700549e-09
9.607475e-07 -2.2031163e-06 2.941105e-06 1.3105726e-07 9.756494e-08 3.0147808e-06 1.5898655e-06 5.4957766e-08
2.2299378e-06 1.7798644e-05 -6.8865425e-06 -6.013761e-06 2.0025573e-06 -5.3936546e-06 -6.9300986e-05 5.0104627e-05
8.092487e-05 -7.0615683e-06 6.8799254e-06 -2.4353581e-05 -3.5805823e-07 -2.5463835e-06 1.4480555e-06 -2.5687102e-06
-0.00036473802 0.00035252393 -0.00071755284 -8.17301e-05 -7.21772e-05 6.428023e-07 -0.0004083368 -0.00013106897
0.00013143734 -4.2928434e-05 0.00043841716 -0.0002267144 6.2869226e-06 -1.5773443e-05 5.5724784e-05 -3.4303348e-06
9.456512e-06 3.2058393e-05 -1.0541331e-05 -2.2244394e-06 -4.2588795e-06 -6.9755123e-07 -6.576881e-05 1.1648744e-05
6.4586704e-05 -8.84761e-07 2.0564183e-05 -2.2802811e-05 -2.3238795e-07 6.785448e-06 -7.9566176e-05 3.9783454e-06
8.0876554e-05 0.00041820505 -0.00024529934 -1.0710769e-05 -5.730565e-05 -2.543438e-07 -0.0001998871 -9.3846385e-05
0.00041900444 -0.000365268 -0.00020936229 0.004246177 7.2007794e-07 -2.4548974e-05 -0.00067351677 -2.9469093e-06
2.3657976e-06 4.1039425e-07 -1.3270639e-05 6.586676e-06 1.6929013e-06 -9.0726054e-08 -2.0311854e-05 1.1130374e-05
-1.5964015e-05 5.516504e-06 -8.481885e-05 1.7178025e-05 5.426309e-07 -5.634557e-06 1.14433815e-05 -2.2781678e-06
-2.0495017e-06 -7.833701e-08 -6.6402094e-06 -1.358682e-06 4.5538079e-07 1.8448268e-06 -7.662784e-05 -3.3475258e-06
3.951605e-06 -6.254443e-06 -3.5347046e-05 -2.4149798e-05 1.975569e-06 9.746118e-07 7.1987292e-06 1.1301199e-06
3.1236883e-07 -2.2574054e-06 -7.9641615e-07 -2.1101022e-07 5.074572e-06 -4.7915984e-07 -1.6077186e-09 1.820534e-06
2.6431364e-06 -3.781654e-06 -5.7605484e-06 -1.5397165e-06 -1.0640267e-06 5.935671e-06 -8.1919416e-07 -3.7545027e-07
-3.242465e-05 0.00034298873 -0.0001643244 -7.3597844e-06 3.0638206e-05 -7.0460305e-07 -0.0006795004 -7.182442e-05
1.0410862e-05 -5.8528676e-05 -8.298186e-05 -0.0003042785 5.212458e-06 -3.0792697e-05 0.00026483389 -4.486258e-06
-1.2332733e-05 -1.9197098e-07 -2.7121445e-05 -1.1532921e-05 3.449154e-07 4.453994e-10 -7.0281756e-05 -9.897003e-06
-1.3527738e-05 -3.3413305e-06 5.0862827e-08 -9.089072e-06 -4.8907225e-07 5.5150025e-07 2.7114302e-05 -1.971013e-06
-8.4384475e-05 0.0010250545 -9.74075e-05 -2.9365674e-05 9.150211e-05 8.8778415e-07 -0.0004110616 -7.173931e-05
-0.00023380251 -0.00010263815 0.00048246005 -0.00014637335 -1.9768584e-06 -2.6747395e-05 -0.00021413167 1.9021492e-06

convs.3.weight f4 [16, 16]
00000000: 8691 5cb8 59fa 0f39 1b5f d5b8 ad7c 57b8
00000010: 9893 dab7 9091 51b5 8d9f bdb9 9589 a738
00000020: ae24 5637 dbaa 98b7 c57d 6e38 7ad6 c13a
00000030: b49c 54b2 4192 3738 d98f c9b8 1427 d0b5
00000040: 67cb 58b7 c840 b837 481a eeb6 f456 cdb6
00000050: d46a 3536 c508 1db5 0823 87b8 82bc 8fb7
00000060: 7aef 6eb8 4ed7 8bb5 11fd eeb7 f69c aab7
00000070: cc75 56b5 f51d 1637 d1fd 9d37 2233 6f35
00000080: 0b38 0b37 a93a a7b7 413d 22b3 3656 ce35
00000090: c759 0fb5 2719 9db6 2b55 5ab8 4ff0 3cb7
000000a0: afcc 81b7 db13 3fb7 149a 13b8 550e 2d38
000000b0: 94ea 01b5 a874 a1b4 84c6 a237 9043 c935
000000c0: f5dc a5b8 7834 2339 e1e1 42b8 30a8 e5b7
000000d0: c807 3d36 0fbb c8b6 87ea f6b9 4b19 c7b8
000000e0: a587 de39 9732 38b7 730a fbb8 f6a5 cab8
000000f0: 1345 e2b5 3ff5 7736 6a50 6839 b420 a3b8
00000100: 5571 2cb8 27d4 5b39 c90b 0cb8 7898 20b8
00000110: 5bc6 d6b7 773b b1b0 8337 8cb9 5270 40b9
00000120: f887 383a 04c7 2937 3fa8 4a36 435c 73b9
00000130: 0c6c 1eb5 af9c 4c37 eb27 37ba 38d5 71b7
00000140: 4e1c b635 adff c1b6 f704 7335 370e 5035
00000150: 2638 8a36 5a9e 8b35 80f5 a335 38ae 12b6
00000160: a0ee 7eb6 497e fdb2 b71a 83b6 f157 28b6
00000170: 404b 1434 20a5 f1b5 1a7a d4b6 2cc4 85b5
00000180: c927 cdb6 030c a437 636e 1736 2ff7 d2b6
00000190: 51c2 1937 0af9 fc35 7f38 c5b8 6555 25b7
000001a0: 59cf 7a38 7701 8eb5 b0f8 6637 40d3 72b5
000001b0: 29a9 3436 8ba0 9035 00e3 bd35 28a1 f8b5
000001c0: 1f7c fcb8 d430 1fb9 825e 46b9 0d46 50b8
000001d0: 2c74 00b8 d278 a9b6 6a15 afb9 3ad8 1538
000001e0: 07c1 d537 7d68 83b7 b01f 7239 32b2 8339
000001f0: 8eb0 d732 f1ab 8e36 ced9 2939 2ffe 89b7
00000200: f305 97b6 a71f f5b7 c4ff cd34 3b4e acb6
00000210: 9475 11b7 ecad f2b5 0f52 38b8 2cc5 8cb5
00000220: 076b 7939 025f 4937 34d2 b937 1c92 fc39
00000230: 4fff 5f2a ad46 27b6 285c 4336 43f3 e4b6
00000240: 3f1a 82b8 4e02 df38 1880 8db8 4b91 8eb8
00000250: b3cd d2b6 7ff6 1f35 6ecb c3b9 cc42 a338
00000260: 3b85 cab6 0eb1 1cb8 820c 03b9 127a 8d3b
00000270: 3f37 8e35 fc27 f8b7 4b9e 0d39 485c d4b4
00000280: 4709 9fb6 ac33 5d38 f089 40b7 0dd3 9cb5
00000290: 7eff 8eb4 ec08 c1b5 b6c2 8db7 f453 19b7
000002a0: 5622 10b8 16bf 5536 138d 9cb8 2a37 4a37
000002b0: c93e a2b6 4713 bdb5 c14e 9e37 debe 66b5
000002c0: 40ba 7536 1901 8eb7 345f 25b7 d914 9bb6
000002d0: c3a9 ecb5 8cc5 9ab5 4a1b 3fb8 b223 c4b6
000002e0: 5efe 3c36 05ff 0bb7 74ea 00b8 bf1b 7fb7
000002f0: 9c36 97b4 73d6 7e36 58cb 3236 d158 41b7
00000300: 3e54 82b6 fde5 61b2 7a6c a2b6 ea82 e933
00000310: 1449 ea34 a7c2 a0b6 bdba 7334 3ef3 9fb3
00000320: ba1f 96b1 6861 a6b4 1114 38b5 c5c2 71b5
00000330: b75e f4b4 ff92 db34 b48c 66b6 9654 e431
00000340: 7415 9ab8 c9ec 7f39 f2ae 10b9 eb26 8db6
00000350: 3ba9 0837 4afa ea34 1aae 0fba 6518 a3b8
00000360: 23c1 29b7 d090 f436 e58d afb8 5463 643a
00000370: df81 b2b5 9c13 2938 032b fb39 f763 f0b6
00000380: ba9a 1337 baac 1037 65d4 edb6 9d9a e6b6
00000390: 8dc4 5835 fa38 4231 bf5a c3b8 bfa2 12b6
000003a0: 8917 bdb7 435a 89b6 bd4e 4fb7 a9ea 2337
000003b0: 4f91 1536 8692 33b3 fa72 f837 ccda 0db6
000003c0: ed2d 62b8 562c 9ab8 1e5a edb6 dc96 90b7
000003d0: 319a efb7 3b21 6034 1e15 cbb9 4bd4 22b9
000003e0: c79a 4eb7 b078 ab38 8916 90b9 64c9 04b9
000003f0: e048 9b36 22d5 3b37 5544 e338 c3aa aab6
-5.2587617e-05 0.00013730804 -0.00010174346 -5.1376108e-05 -2.6056354e-05 -7.807039e-07 -0.00036167764 7.988807e-05
1.2763934e-05 -1.8199373e-05 5.6860754e-05 0.001478865 -1.2375654e-08 4.376681e-05 -9.6112206e-05 -1.5508581e-06
-1.2921962e-05 2.1964675e-05 -7.0960123e-06 -6.1195988e-06 2.7033284e-06 -5.849982e-07 -6.443827e-05 -1.713471e-05
-5.696665e-05 -1.0418969e-06 -2.8489654e-05 -2.033867e-05 -7.989263e-07 8.947672e-06 1.8834051e-05 8.9108846e-07
8.298094e-06 -1.9935267e-05 -3.7774274e-08 1.5373287e-06 -5.3402294e-07 -4.6818927e-06 -5.205457e-05 -1.1261624e-05
-1.5473312e-05 -1.138911e-05 -3.5191028e-05 4.1259762e-05 -4.83976e-07 -3.0073465e-07 1.9404346e-05 1.499533e-06
-7.9089696e-05 0.00015564437 -4.646357e-05 -2.7377246e-05 2.8167724e-06 -5.982241e-06 -0.00047095513 -9.4937706e-05
0.00042444203 -1.09790335e-05 -0.00011970559 -9.663023e-05 -1.6858415e-06 3.694862e-06 0.000221552 -7.778537e-05
-4.1113544e-05 0.000209645 -3.3389577e-05 -3.828897e-05 -2.5603154e-05 -1.2895346e-09 -0.0002674424 -0.0001835239
0.0007039304 1.0119522e-05 3.0198278e-06 -0.00023208656 -5.9016816e-07 1.2195828e-05 -0.0006986844 -1.4414363e-05
1.3568294e-06 -5.781613e-06 9.053178e-07 7.7506724e-07 4.119257e-06 1.0402393e-06 1.2215896e-06 -2.1857104e-06
-3.7987847e-06 -2.9510504e-08 -3.9072142e-06 -2.508514e-06 1.381095e-07 -1.8003957e-06 -6.332307e-06 -9.966366e-07
-6.1141077e-06 1.9555917e-05 2.2565007e-06 -6.2872637e-06 9.1647535e-06 1.8847943e-06 -9.404215e-05 -9.854649e-06
5.9797752e-05 -1.0580251e-06 1.376697e-05 -9.0459434e-07 2.6920554e-06 1.077556e-06 1.4147663e-06 -1.8524343e-06
-0.00012039416 -0.00015181612 -0.00018917958 -4.9656304e-05 -3.062577e-05 -5.050658e-06 -0.00033394556 3.5725745e-05
2.5481464e-05 -1.5665073e-05 0.00023090723 0.00025119033 2.5109582e-08 4.2519464e-06 0.00016198235 -1.6450036e-05
-4.5008433e-06 -2.9221015e-05 3.837032e-07 -5.1351067e-06 -8.670049e-06 -1.8081023e-06 -4.394544e-05 -1.0488197e-06
0.00023786361 1.2002654e-05 2.2151602e-05 0.00048174046 1.9894957e-13 -2.4926078e-06 2.9110906e-06 -6.823249e-06
-6.203772e-05 0.00010633898 -6.747263e-05 -6.7981506e-05 -6.2824342e-06 5.9590815e-07 -0.00037344865 7.7848876e-05
-6.035579e-06 -3.7358193e-05 -0.00012497793 0.0043175304 1.0595903e-06 -2.9582523e-05 0.00013505777 -3.955522e-07
-4.7396493e-06 5.273863e-05 -1.1476208e-05 -1.168433e-06 -2.6635456e-07 -1.4382217e-06 -1.689918e-05 -9.1390575e-06
-3.4364253e-05 3.18507e-06 -7.464937e-05 1.2052982e-05 -4.8352854e-06 -1.4087208e-06 1.887174e-05 -8.5959425e-07
3.6616257e-06 -1.692823e-05 -9.856933e-06 -4.621787e-06 -1.7632777e-06 -1.1531388e-06 -4.5563364e-05 -5.8454107e-06
2.8162244e-06 -8.344422e-06 -3.073593e-05 -1.5205645e-05 -2.8165675e-07 3.7973775e-06 2.6642429e-06 -1.1524376e-05
-3.884109e-06 -1.3149017e-08 -4.8406046e-06 1.0873721e-07 4.3639068e-07 -4.791032e-06 2.2699074e-07 -7.44826e-08
-4.3691815e-09 -3.0990782e-07 -6.857454e-07 -9.0062923e-07 -4.5517456e-07 4.0898883e-07 -3.435457e-06 6.6452897e-09
-7.347288e-05 0.00024406904 -0.00013798082 -4.206658e-06 8.145634e-06 4.3768006e-07 -0.000548096 -7.7769895e-05
-1.0118153e-05 7.288625e-06 -8.37108e-05 0.0008712311 -1.3299831e-06 4.0311003e-05 0.00047906497 -7.164195e-06
8.797908e-06 8.623285e-06 -7.0878764e-06 -6.8725335e-06 8.075229e-07 2.8263103e-09 -9.315227e-05 -2.1850426e-06
-2.2541515e-05 -4.093426e-06 -1.2356494e-05 9.770193e-06 2.228731e-06 -4.1809948e-08 2.9617444e-05 -2.1137994e-06
-5.392537e-05 -7.3515504e-05 -7.0736414e-06 -1.7236387e-05 -2.8562821e-05 2.0873715e-07 -0.0003873491 -0.00015528609
-1.2314594e-05 8.176395e-05 -0.0002748261 -0.00012663525 4.6278437e-06 1.1195692e-05 0.00010836931 -5.086274e-06

convs.4.weight f4 [16, 16]
00000000: fe90 5db8 40a3 b1b9 95b2 feb8 351b d9b7
00000010: c624 ff35 08c7 0ab6 a2b3 e7b9 8cc5 f4b8
00000020: 38e6 2d3a 5dec 4db4 5252 a537 9f2c 6db9
00000030: e1da 13b4 b767 cdb7 833b b639 df0d 5cb8
00000040: 3f59 1fb7 ce1d bd37 33e1 b339 bd32 35b5
00000050: 6bbb b836 648c c9b5 fded 76b8 c41a 4ab7
00000060: 7dd8 1439 36ac 6ab6 b50d 0238 f774 6239
00000070: 43ac adb5 2e51 d835 c9b0 4536 60d2 89b9
00000080: 018b 57b6 7431 79b6 f8f7 e535 245d 3335
00000090: b6c5 c9b6 bdfb 4736 6cef 24b8 ebb1 20b7
000000a0: 0cc1 8eb7 8b77 fdb6 2600 a0b7 52b4 8836
000000b0: 8b48 6b35 bc91 a336 bbb3 d736 181a 82b5
000000c0: 3f88 8e3a 37e1 3538 d149 75b8 5899 54b8
000000d0: d605 f337 8335 5234 bbe0 8ab9 66a4 c637
000000e0: 5146 37b9 cd38 3d38 4b18 d4b8 fa6d 6fb9
000000f0: dadc ccae c786 6eb7 4f25 b237 0f6b a6b5
00000100: f406 8ab8 c4f4 1139 49da 89b8 ce83 f0b7
00000110: b6d3 1ab8 9cd2 6f35 ce44 95b9 7204 4838
00000120: 5938 06b9 de77 0bb8 e9ed d9b9 a1bd fdb8
00000130: 9142 7736 2492 c6b7 63fb f738 8afe 0e36
00000140: b680 3835 5735 1736 62f0 4833 2bd8 b8b4
00000150: 7f33 ffb2 3156 bcb5 474c 9f35 a416 6536
00000160: d794 eeb3 92c8 9a36 28c4 8e34 622d d9b3
00000170: 269e 8db5 1464 8836 a0f4 2a36 07fb 0e35
00000180: d662 b8b5 892c 3137 1e6d 5138 4308 e7b6
00000190: f6ea 07b5 9797 8235 aa20 3cb8 a742 02b6
000001a0: 233f cdb7 bb6e bf36 e10f 9f37 9a83 cdb7
000001b0: 4d89 03b3 37a2 9436 1751 c935 556b 9235
000001c0: 9195 bbb8 f554 6d39 cf27 bfb8 c074 4cb8
000001d0: c0c1 8bb6 a0ef a5b1 c2d2 adb9 dab0 b0b8
000001e0: 6d05 5639 181a e637 1f7e c8b9 e090 c1b9
000001f0: a536 edb5 00c3 2038 f425 1738 01e3 0a36
00000200: 0b27 b0b5 041d e4b7 75a1 86b6 d1f9 d336
00000210: e5c1 16b6 9447 56b6 448f 63b8 532d 9ab7
00000220: 5925 1cba 3556 4bb6 b816 8937 a35f cab7
00000230: 33f0 9fb6 4228 acb6 f078 dc36 29fa 95b7
00000240: b0be 79b8 0b48 44b8 7a5c 223a 9956 1838
00000250: b877 32b7 bdd8 7cb0 3558 55b9 f8d7 adb8
00000260: f295 29b7 b660 3f38 5483 b838 bfaf be3b
00000270: 4e1e 2db0 adf0 ad37 0647 8d37 afe5 abb6
00000280: e5cf 88b6 43ee b8b7 c30f 8b3a 8b0a 2cb6
00000290: 6be6 0334 fa6e 4db6 84af 22b8 029c 8bb6
000002a0: 2420 b334 0501 e9b6 3d50 38b6 e303 b0b7
000002b0: dba5 aeb3 a0e0 0436 5d64 8938 c30b 75b5
000002c0: d4c4 8bb5 0f33 98b5 39d5 39b7 b07d fd35
000002d0: 0efa 5134 75a4 10b4 0c59 93b8 7455 bdb6
000002e0: 94da b135 c852 11b7 205b 1f37 8111 88b6
000002f0: 0b7b 1eb6 2cb5 fbb5 89a6 5836 395d c1b6
00000300: 2912 8736 a15b 8bb3 53b8 6b34 e86d 8bb4
00000310: 5b97 b336 ddda 8c34 e3e2 2b35 819f 5b36
00000320: b2fc cfb3 f021 6f36 f5bc 8fb6 1878 cc33
00000330: d21d 01b5 7c8b 1235 10d1 97b4 3565 ae32
00000340: 7fee 3bb8 0cb8 40b9 a499 19b9 3268 a1b8
00000350: da8e ce37 35aa 00b5 9d46 39ba 9eed dbb8
00000360: 674b 90b9 8277 73b7 b794 2039 3ae8 ed38
00000370: cea7 67b6 4128 91b7 231d 0837 a46d a5b8
00000380: 0ba2 eeb6 6375 8137 b23d e4b7 b1ba 14b7
00000390: 0760 3135 eef2 d4b0 4202 07b8 269c 68b7
000003a0: 0552 5839 e2f4 03b7 d77b 8a37 bcc0 9fb7
000003b0: 30aa 38b3 74f1 54b4 9a04 4337 87b3 db35
000003c0: e835 bab7 5737 4539 e3b1 9eb8 af29 f1b7
000003d0: be26 ad37 5aef 31b6 02d9 cb38 0d47 a0b8
000003e0: 1eae 9e3a 015d e938 5862 2139 a4e3 26b9
000003f0: d886 61b6 abfc 9bb7 47a8 73ba 6f78 ceb6
-5.282554e-05 -0.00033881702 -0.00012144927 -2.5881085e-05 1.9009683e-06 -2.0679454e-06 -0.0004419359 -0.000116716226
0.00066337315 -1.9178101e-07 1.9707866e-05 -0.00022618704 -1.377007e-07 -2.44862e-05 0.00034758085 -5.2465006e-05
-9.497918e-06 2.2544435e-05 0.00034309327 -6.750159e-07 5.5054456e-06 -1.5016526e-06 -5.8872614e-05 -1.204637e-05
0.00014195028 -3.4968957e-06 3.100718e-05 0.00021596612 -1.2939639e-06 1.611688e-06 2.945819e-06 -0.00026287418
-3.2118407e-06 -3.7132677e-06 1.7133998e-06 6.6818234e-07 -6.0132834e-06 2.9799842e-06 -3.9323626e-05 -9.578168e-06
-1.7017614e-05 -7.553904e-06 -1.9073555e-05 4.074108e-06 8.7649886e-07 4.8747443e-06 6.4284227e-06 -9.693349e-07
0.0010874345 4.336351e-05 -5.84813e-05 -5.068755e-05 2.8970575e-05 1.9577242e-07 -0.00026488848 2.3679993e-05
-0.00017478435 4.511401e-05 -0.00010113473 -0.00022833786 -9.316077e-11 -1.4217286e-05 2.1236627e-05 -1.2399122e-06
-6.581648e-05 0.0001391946 -6.573328e-05 -2.8671606e-05 -3.6913632e-05 8.9340915e-07 -0.00028470758 4.7687856e-05
-0.00012800227 -3.3251818e-05 -0.00041566722 -0.00012099301 3.6844615e-06 -2.3671491e-05 0.00011824702 2.130781e-06
6.873264e-07 2.2531801e-06 4.6784756e-08 -3.4429954e-07 -2.9709325e-08 -1.4032177e-06 1.1868623e-06 3.4136838e-06
-1.11098124e-07 4.612907e-06 2.6592284e-07 -1.0113105e-07 -1.0551346e-06 4.0647665e-06 2.5474365e-06 5.3264415e-07
-1.3737833e-06 1.0560391e-05 4.9931106e-05 -6.8852983e-06 -5.063333e-07 9.729873e-07 -4.4853114e-05 -1.9410306e-06
-2.4467305e-05 5.7051343e-06 1.8961671e-05 -2.4499186e-05 -3.062569e-08 4.429628e-06 1.4999267e-06 1.0909085e-06
-8.944714e-05 0.0002263373 -9.115005e-05 -4.8746122e-05 -4.1650783e-06 -4.8293742e-09 -0.00033154158 -8.425275e-05
0.00020410652 2.7430287e-05 -0.0003824094 -0.0003691977 -1.767378e-06 3.832858e-05 3.6036552e-05 2.0695736e-06
-1.3124385e-06 -2.719323e-05 -4.0123073e-06 6.3173725e-06 -2.2464603e-06 -3.193015e-06 -5.4254444e-05 -1.8379336e-05
-0.0005956493 -3.0299536e-06 1.6342252e-05 -2.412481e-05 -4.766532e-06 -5.130686e-06 6.57059e-06 -1.7878674e-05
-5.9543818e-05 -4.6797137e-05 0.00061935897 3.6320274e-05 -1.0637501e-05 -9.198507e-10 -0.00020346123 -8.28951e-05
-1.0108097e-05 4.5628018e-05 8.7982655e-05 0.0058192904 -6.29801e-10 2.073528e-05 1.6841583e-05 -5.122936e-06
-4.077318e-06 -2.2045459e-05 0.0010609556 -2.5636134e-06 1.2284151e-07 -3.0611977e-06 -3.878727e-05 -4.1606845e-06
3.3364734e-07 -6.94406e-06 -2.7464841e-06 -2.0982645e-05 -8.132675e-08 1.9800282e-06 6.551363e-05 -9.128673e-07
-1.0413592e-06 -1.1339743e-06 -1.1076504e-05 1.8886549e-06 1.9555611e-07 -1.3470874e-07 -7.0260925e-05 -5.642587e-06
1.3251142e-06 -8.6619475e-06 9.498355e-06 -4.0551536e-06 -2.3615455e-06 -1.8753685e-06 3.2283444e-06 -5.7627008e-06
4.0254276e-06 -6.489359e-08 2.1953137e-07 -2.5970735e-07 5.352236e-06 2.6236276e-07 6.403263e-07 3.2726387e-06
-9.685154e-08 3.563353e-06 -4.2837296e-06 9.521335e-08 -4.809964e-07 5.4592215e-07 -2.8278055e-07 2.030229e-08
-4.480639e-05 -0.0001837911 -0.00014648453 -7.696486e-05 2.4623634e-05 -4.79314e-07 -0.0007067712 -0.000104869934
-0.00027522 -1.4511754e-05 0.0001531419 0.00011344296 -3.4519358e-06 -1.7304092e-05 8.113016e-06 -7.888235e-05
-7.111817e-06 1.543266e-05 -2.7208447e-05 -8.864955e-06 6.6077376e-07 -1.5494075e-09 -3.218861e-05 -1.3864634e-05
0.0002062992 -7.865225e-06 1.650855e-05 -1.9044026e-05 -4.2995623e-08 -1.9831879e-07 1.1623977e-05 1.6369021e-06
-2.219803e-05 0.00018808 -7.567161e-05 -2.874885e-05 2.0641248e-05 -2.6514376e-06 9.720215e-05 -7.642629e-05
0.0012106334 0.00011127629 0.00015390792 -0.00015915796 -3.3606102e-06 -1.8595098e-05 -0.00092947896 -6.1532987e-06

convs.5.weight f4 [16, 16]
00000000: cb88 30b8 dd16 7538 eb99 fd39 c403 c3b7
00000010: 50eb 0fb8 3246 7db6 d657 b2b9 f3f1 80b8
00000020: 19e3 bf39 1cb2 b138 fde3 3539 abb9 54b8
00000030: c398 bcb6 7207 66b6 5b20 5eb5 71e4 61b5
00000040: 9c89 20b6 9054 4037 cc6f 6bb8 b980 67b6
00000050: 0c0f ef35 e248 50ae a3d4 27b9 a8f7 9536
00000060: d1e2 18b8 d917 efb6 8e24 13b7 468b f1b6
00000070: 4032 7833 d030 c137 a6c4 b437 7df1 a5b6
00000080: 79ca a1b5 fd78 2437 db82 4cb7 7946 ecb6
00000090: 32df 9cb5 65a9 96ad 88ec 43b8 1831 f236
000000a0: 5b20 63b7 18e8 29b7 256f c038 b150 8139
000000b0: 45d1 1136 bea9 5736 4fea 8d37 0d10 97b6
000000c0: 2fd2 93b7 9fbe 18b9 b203 90b8 cd53 5b39
000000d0: 1b7e 7ab8 883e 9a36 0868 b3b9 7155 ccb8
000000e0: 0551 59b9 0695 a6b7 d1f3 f838 2d02 62b8
000000f0: a03d 1234 e36e 3ab6 1c35 29ba e43f 2bb7
00000100: 77dc 0fb8 9962 2f39 0542 d7b8 799a 83b8
00000110: 9ef0 2cb8 08de 26b2 c3b6 c7b9 1f01 10b9
00000120: af8d 9339 7322 9538 e0a5 e9b7 a942 293b
00000130: 97f5 8735 149a 7bb7 d563 05ba 4784 de35
00000140: e81f 7036 b0e2 93b3 2bee 0436 7888 91b4
00000150: f472 96b5 1e77 bf36 1268 6036 0226 0db5
00000160: ddf9 f0b5 1973 4db6 8c08 e9ad 4844 81b6
00000170: 340e 5235 633e f2b4 c254 7934 e304 2835
00000180: a84c 0f35 b275 06b9 9285 4136 e0a2 3035
00000190: 01dd d7b5 a359 6db6 dd6d cdb7 2a85 13b6
000001a0: aaaf 3eb7 3493 2b36 740b c537 73b9 a337
000001b0: 0d55 11b4 daf1 db36 8c10 3037 5b1d d8b6
000001c0: 64e9 33b8 a95f c0b8 e3cc b9b8 4065 8338
000001d0: d858 5eb9 befd 0ab4 bee9 fbb9 0073 bcb8
000001e0: a6de 0e3a f367 f8b6 cfaf ebb9 41a7 613b
000001f0: ffa5 6e36 3f34 4ab6 7a85 62ba c988 2bb8
00000200: 30f7 d8b6 c105 2738 2909 ccb7 bd05 18b7
00000210: 37c7 3135 1b37 d435 1053 75b8 ccc8 2139
00000220: 9e89 45b7 d858 a936 19ba 2a36 a08d 89b7
00000230: b1c0 1033 83f6 8436 89eb 94b8 920c 6db6
00000240: 714b 89b8 43c7 3939 966b 9db9 8ec8 f8b8
00000250: beac f437 c82d 8cb5 21a9 89b9 1741 92b8
00000260: c9ff d03a de9e acb5 91b3 2e39 fb51 f03a
00000270: 236d 0bb6 59cd 9fb7 bb30 d036 ab90 5a35
00000280: bb3c eab6 7136 fb37 3e3c 34b8 b1e0 0d36
00000290: 81f4 b4b5 6962 6c36 b161 1fb8 e57f e1b6
000002a0: 875b 7336 cbca aa36 a0b3 93b9 1a09 aeb7
000002b0: 66c9 f535 1715 d1b6 31fc 92b8 65b6 7ab6
000002c0: 3c62 55b6 27b3 eab6 fc8b 5ab6 c4ca 05b5
000002d0: d3d4 ad36 02a5 6735 50da 3eb9 6082 29b6
000002e0: 6815 f5b6 8577 4fb6 61fd 5937 d83e e738
000002f0: 38e4 5e35 c178 cbb6 0315 93b7 2acf 8934
00000300: a808 052e 47c2 51b6 beb2 d436 db06 8db5
00000310: 6294 6b33 2335 f435 01ca 63b1 77b9 8bb5
00000320: 27d1 29b1 d405 64b5 dc01 2536 0edf 9735
00000330: 7e04 8234 f07b 8db5 6bcf 36b5 82ad 7cb6
00000340: b37b 01b8 446c 6038 82ca 97b9 72d2 75b8
00000350: 31b6 08b5 63b2 4636 e360 e1b9 59b7 8db8
00000360: 2a23 9035 00a1 aeb8 cafb 98b9 bd99 91b9
00000370: 8273 5bb6 c766 e337 c1db 3bba e9cc 3cb7
00000380: 87c1 42b6 f3aa 2736 d943 95b7 bd8c b635
00000390: e050 cb36 9e70 9335 9988 a5b8 b304 48b7
000003a0: 65b3 f3b7 d9da 0cb7 972d 62b7 4cbc 29b7
000003b0: 55a5 7cb6 987f 7c36 78dd 1637 1892 0fb6
000003c0: bd37 6db8 3619 0839 9c0e 26b8 1045 8eb6
000003d0: 0654 9c37 d463 87b5 8ffb 35ba 629b c4b6
000003e0: c2e6 dd3a 04ee fcb7 58d8 e338 edf5 e3b8
000003f0: 84a3 85b4 33aa 04b8 f9fb 0539 8019 a4b6
-4.208907e-05 5.8433845e-05 0.00048370598 -2.3247565e-05 -3.431301e-05 -3.7740797e-06 -0.00034016249 -6.148582e-05
0.0003659956 8.473193e-05 0.00017346437 -5.0717656e-05 -5.6206204e-06 -3.4277004e-06 -8.274853e-07 -8.415146e-07
-2.3921957e-06 1.14637805e-05 -5.6132485e-05 -3.4496609e-06 1.7811267e-06 -4.7358457e-11 -0.00016005574 4.469377e-06
-3.6450863e-05 -7.1255313e-06 -8.770394e-06 -7.1985733e-06 5.77877e-08 2.3030123e-05 2.1549244e-05 -4.945496e-06
-1.2054362e-06 9.8033315e-06 -1.2189815e-05 -7.041552e-06 -1.1687864e-06 -1.7128252e-11 -4.671191e-05 7.2178773e-06
-1.3537788e-05 -1.01272235e-05 9.175976e-05 0.00024664917 2.1728495e-06 3.21363e-06 1.6917618e-05 -4.5020192e-06
-1.762164e-05 -0.00014566862 -6.8671434e-05 0.00020916686 -5.972209e-05 4.5968372e-06 -0.0003421905 -9.743393e-05
-0.00020724915 -1.9858137e-05 0.00011870976 -5.3884625e-05 1.3619729e-07 -2.7780704e-06 -0.00064547523 -1.020727e-05
-3.429918e-05 0.00016726031 -0.00010264296 -6.2753395e-05 -4.1232088e-05 -9.712956e-09 -0.00038092406 -0.00013733328
0.00028143587 7.11129e-05 -2.7853006e-05 0.0025827086 1.012976e-06 -1.499664e-05 -0.00050884235 1.6578787e-06
3.5781359e-06 -6.886455e-08 1.9808165e-06 -2.710765e-07 -1.1209327e-06 5.7061106e-06 3.3439178e-06 -5.25819e-07
-1.7954113e-06 -3.0614376e-06 -2.6492829e-11 -3.8524486e-06 7.8251765e-07 -4.5121405e-07 2.3220767e-07 6.259199e-07
5.33832e-07 -0.00012823081 2.883699e-06 6.5802124e-07 -1.6083069e-06 -3.5367927e-06 -2.4489063e-05 -2.1982219e-06
-1.13657825e-05 2.556667e-06 2.3489563e-05 1.951747e-05 -1.3535119e-07 6.554864e-06 1.049427e-05 -6.440719e-06
-4.2894288e-05 -9.1730915e-05 -8.8596506e-05 6.265426e-05 -0.00021204667 -1.2944562e-07 -0.00048048602 -8.985959e-05
0.00054500473 -7.4030772e-06 -0.0004495368 0.0034431966 3.5561386e-06 -3.0130757e-06 -0.00086411054 -4.0896968e-05
-6.466078e-06 3.982126e-05 -2.432296e-05 -9.061242e-06 6.6227534e-07 1.5811269e-06 -5.848991e-05 0.00015428959
-1.17741565e-05 5.0469353e-06 2.5440297e-06 -1.6397622e-05 3.3702864e-08 3.9626043e-06 -7.101062e-05 -3.532307e-06
-6.546721e-05 0.00017717206 -0.0003002553 -0.00011862918 2.9167506e-05 -1.0444137e-06 -0.00026256687 -6.9739464e-05
0.001594537 -1.2861235e-06 0.00016660827 0.0018334979 -2.077614e-06 -1.90499e-05 6.204556e-06 8.142185e-07
-6.9808134e-06 2.9946883e-05 -4.297145e-05 2.1141425e-06 -1.3482205e-06 3.5224023e-06 -3.7999536e-05 -6.7204114e-06
3.6263098e-06 5.090003e-06 -0.00028171856 -2.0746655e-05 1.8312537e-06 -6.2311406e-06 -7.008797e-05 -3.735907e-06
-3.1796653e-06 -6.9945995e-06 -3.2566013e-06 -4.9841424e-07 5.180578e-06 8.6294324e-07 -0.0001820114 -2.525885e-06
-7.304061e-06 -3.0914973e-06 1.2993202e-05 0.00011026644 8.3033547e-07 -6.063929e-06 -1.753355e-05 2.566897e-07
3.0248387e-11 -3.1256511e-06 6.3389007e-06 -1.0507314e-06 5.4850155e-08 1.8194881e-06 -3.3147673e-09 -1.0410284e-06
-2.4711626e-09 -8.49451e-07 2.4587998e-06 1.1315294e-06 2.4217655e-07 -1.0541389e-06 -6.8102116e-07 -3.765192e-06
-3.08712e-05 5.3506592e-05 -0.00028951844 -5.8608544e-05 -5.092907e-07 2.9608134e-06 -0.0004298753 -6.757555e-05
1.073907e-06 -8.326955e-05 -0.00029179297 -0.000277711 -3.2700777e-06 2.7108368e-05 -0.000716623 -1.1253383e-05
-2.90209e-06 2.4984445e-06 -1.7793778e-05 1.3601017e-06 6.0592865e-06 1.0985129e-06 -7.8932564e-05 -1.1922023e-05
-2.9051394e-05 -8.395605e-06 -1.3481264e-05 -1.0117026e-05 -3.7647162e-06 3.7625196e-06 8.992261e-06 -2.1393698e-06
-5.6557114e-05 0.00012979363 -3.959109e-05 -4.2399697e-06 1.8635776e-05 -1.0087338e-06 -0.0006942087 -5.859344e-06
0.0016929733 -3.0151576e-05 0.00010864501 -0.00010870011 -2.4892154e-07 -3.1629763e-05 0.00012777736 -4.8905495e-06

convs.6.weight f4 [16, 16]
00000000: ed5f 5b36 1d74 d8b8 859c ceb8 b9f0 e4b8
00000010: 8360 1f38 0500 d6b5 cb4e 0cba 1f59 94b8
00000020: 96d5 063a 7839 b0b8 4138 8fb9 e5a8 743a
00000030: 84d0 98b6 7f6c d1b7 9f6d 37b9 4fb9 fa38
00000040: 542e aeb6 ca56 dab7 ddea 2236 9497 3736
00000050: a376 4637 9afe 8cb6 9808 19b8 506e cab7
00000060: e213 7438 4ef3 05b7 c847 c937 19ed a437
00000070: 94c1 7730 f318 11b6 056d 54b8 3dee 1cb5
00000080: 0b48 b338 3a43 7a37 7d61 7eb8 b870 43b7
00000090: 4ffe 7435 f9b0 33b6 e9ce b4b7 5e58 ad37
000000a0: d3f9 abb7 3679 6036 af8a c839 e8c4 6a39
000000b0: d1f7 e4b1 11a2 6b36 9fcb 7f36 0186 7c35
000000c0: 2e36 7b39 9450 1739 5a6d 2339 538a f5b7
000000d0: cc37 4b38 dd91 9d36 b939 05ba af13 b9b8
000000e0: e294 393a c5bc 4fb8 4fa1 b038 0083 50b7
000000f0: b694 1134 7e16 97b6 4fa7 0039 4481 2b36
00000100: d3f5 90b7 dc9d 6539 5ebd 10b8 2adc 9e38
00000110: 12e9 6838 18f0 0eb5 3203 d8b9 71fb 0e36
00000120: 1651 f33a 4cd0 f5b8 e909 b139 d2e9 aab7
00000130: eda5 0eb6 8e72 47b7 30aa a137 8321 10b6
00000140: 7759 96b2 cbd3 832f f948 c735 7034 e1b0
00000150: f9f2 9db6 b7c1 7cb4 5d40 1cb6 0818 80b5
00000160: f2be 4033 e3e5 29b4 e281 ac35 764e 7136
00000170: 68aa 1ab4 ee4a f335 4746 2db6 0a26 30b6
00000180: ee30 deb5 365b 2d36 230c 75b6 0c75 adb6
00000190: 6855 80b6 94e9 77ae 8451 f1b7 d7f7 a935
000001a0: 501d 0fba 0e2a d736 8bd0 05b7 85da b439
000001b0: d5cb bfb4 2059 1136 eb5b e5b6 ba2d bbb6
000001c0: 9f39 a036 e61a 1139 024b 993a 9959 27b8
000001d0: 5147 ad38 879e dbb5 8349 f9b9 c779 dab8
000001e0: 350a 63b8 1805 cab8 692f 9eb9 edc9 a7b9
000001f0: a216 a7af 1f8b 0038 064b 0238 3822 7336
00000200: 9898 3236 2a02 7438 7c1a 16b5 0eee 8136
00000210: bcbd ccb5 6cf3 84b3 afa8 62b8 9b7b 23b7
00000220: 0665 a3b7 8ce3 a7b5 928d b8b7 0efd 5db7
00000230: 8911 2db4 a69c dc36 464f 9635 616e 62b5
00000240: 0791 f5b7 2da1 413a 9746 d8b8 7f81 f435
00000250: aa30 06b8 9002 4735 02e4 6ab9 2130 80b9
00000260: d3a6 7437 fd0c a838 e8e3 ea37 09cf b9b8
00000270: 0d56 05b6 07e7 5e34 2fab b237 a0c4 73b6
00000280: 5d07 9fb6 675e 89b7 3af1 88b7 1183 57b7
00000290: 61e8 75b4 c61f d3b4 d106 81b7 da7e 3cb7
000002a0: 3dd7 b6b7 e4f5 e2b4 3cdc 7a37 dc10 ad39
000002b0: 71d9 1332 71e0 0b36 1cc7 abb6 cfdb 2a36
000002c0: b521 03b6 f11c 07b7 e46f 7db7 8aa2 4736
000002d0: 87b8 1234 f4cd 7f34 004a 27b8 aa41 36b7
000002e0: ba97 2eba 4451 efb6 253c 8437 115b 53b7
000002f0: 0085 1936 6737 35b6 9f61 39b6 5da7 4036
00000300: a140 0cb4 2e8b f035 2119 e3b5 470c 96b6
00000310: b0fb 0634 b2e3 fa34 7d74 5932 1337 f6b3
00000320: b073 a2b3 b4c8 b734 69e1 45b6 9a96 77b6
00000330: c26a 5031 a72d 91b5 7c94 1bb5 53bf d7b2
00000340: 2292 6ab8 1c68 5739 4bb5 12b9 3c02 89b6
00000350: 72e5 75b9 6c95 e633 a79d 90b9 f3cd a2b8
00000360: 6334 53b8 bdf4 14b8 da92 35b9 29b4 383b
00000370: d60f b6b6 2582 beb6 70b4 3d38 b16c 9d36
00000380: cbcb 14b6 0291 8437 b5fa a7b7 7b08 d136
00000390: 7096 06b7 cd7b 4c35 f04d 1ab8 9898 51b7
000003a0: 060f dbb7 4fe4 aab6 3484 92b7 7e73 13b7
000003b0: 0d90 84b6 a4eb 78b7 b807 8cb6 c680 88b7
000003c0: 0eec bd37 19b5 3c39 29a1 edb8 371d 61b7
000003d0: ab91 aab8 7702 6833 4135 89b9 4dca 0139
000003e0: 6b2e 50ba a12e fdb5 5a40 57b8 c798 82b8
000003f0: 5940 7636 9402 00b7 c171 9639 8fa4 8536
3.268938e-06 -0.000103213104 -9.8519995e-05 -0.00010916725 3.7998438e-05 -1.5944248e-06 -0.0005352317 -7.07379e-05
0.0005143521 -8.4030384e-05 -0.00027316998 0.00093330286 -4.5542274e-06 -2.4965264e-05 -0.00017493077 0.000119554454
-5.1909974e-06 -2.602804e-05 2.427659e-06 2.7357355e-06 1.1829342e-05 -4.2019647e-06 -3.6486046e-05 -2.4131645e-05
5.819265e-05 -7.9840665e-06 2.3994493e-05 1.966073e-05 9.013317e-10 -2.1621206e-06 -5.064627e-05 -5.846121e-07
8.548804e-05 1.4916814e-05 -6.0649112e-05 -1.164915e-05 9.126715e-07 -2.677609e-06 -2.1554022e-05 2.0664356e-05
-2.0501122e-05 3.3449155e-06 0.000382503 0.00022389332 -6.663847e-09 3.5112064e-06 3.8116484e-06 9.4072317e-07
0.00023957409 0.000144305 0.00015585628 -2.9270688e-05 4.8450936e-05 4.6959453e-06 -0.0005082149 -8.825154e-05
0.0007079375 -4.952845e-05 8.42238e-05 -1.2428267e-05 1.3558278e-07 -4.502769e-06 0.00012269359 2.5556228e-06
-1.7280609e-05 0.00021897949 -3.4508637e-05 7.575036e-05 5.5530174e-05 -5.3248505e-07 -0.0004120111 2.1306007e-06
0.0018563594 -0.00011721309 0.00033767454 -2.037446e-05 -2.125623e-06 -1.1887996e-05 1.9271945e-05 -2.1477179e-06
-1.7502982e-08 2.397925e-10 1.4847893e-06 -1.6385808e-09 -4.7072504e-06 -2.3539802e-07 -2.3283276e-06 -9.543737e-07
4.4877147e-08 -1.5822984e-07 1.28528e-06 3.5957469e-06 -1.4404361e-07 1.8126718e-06 -2.5819916e-06 -2.6248185e-06
-1.6554529e-06 2.58321e-06 -3.651491e-06 -5.169428e-06 -3.82464e-06 -5.6368757e-11 -2.8767397e-05 1.2663612e-06
-0.0005459385 6.412395e-06 -7.975973e-06 0.00034495085 -3.572483e-07 2.1658561e-06 -6.8354325e-06 -5.5783576e-06
4.7750796e-06 0.00013838298 0.0011695328 -3.9899347e-05 8.2625666e-05 -1.6362909e-06 -0.00047547751 -0.00010417733
-5.4130523e-05 -9.6330594e-05 -0.00030171432 -0.0003200317 -3.0393205e-10 3.0647145e-05 3.1064286e-05 3.622974e-06
2.6612888e-06 5.817615e-05 -5.5917894e-07 3.872213e-06 -1.5254404e-06 -6.191007e-08 -5.4039698e-05 -9.744336e-06
-1.9478157e-05 -1.2508694e-06 -2.2000433e-05 -1.3231545e-05 -1.611826e-07 6.574747e-06 1.1198943e-06 -8.4352183e-07
-2.927381e-05 0.0007386383 -0.00010312831 1.8217105e-06 -3.199341e-05 7.4137006e-07 -0.00022400919 -0.0002444992
1.4582375e-05 8.0132835e-05 2.80011e-05 -8.860051e-05 -1.9868633e-06 2.0759408e-07 2.1298967e-05 -3.6324273e-06
-4.7394265e-06 -1.6375632e-05 -1.6324793e-05 -1.2845515e-05 -2.2901942e-07 -3.932493e-07 -1.5381172e-05 -1.1235208e-05
-2.1796319e-05 -4.227469e-07 1.49524385e-05 0.00033009693 8.605967e-09 2.0843256e-06 -5.1193765e-06 2.545992e-06
-1.9540141e-06 -8.0533655e-06 -1.5106027e-05 2.974792e-06 1.366444e-07 2.3823651e-07 -3.988482e-05 -1.0863334e-05
-0.0006660182 -7.1322156e-06 1.5763633e-05 -1.2597783e-05 2.2876193e-06 -2.700335e-06 -2.7623971e-06 2.8707648e-06
-1.3062028e-07 1.79219e-06 -1.6920131e-06 -4.4717776e-06 1.2571286e-07 4.67318e-07 1.2657549e-08 -1.14652856e-07
-7.564756e-08 3.4232437e-07 -2.9486494e-06 -3.689353e-06 3.0328668e-09 -1.0816628e-06 -5.795807e-07 -2.5116298e-08
-5.5926044e-05 0.00020542782 -0.00013991182 -4.0831783e-06 -0.00023450496 1.0737389e-07 -0.0002758328 -7.763123e-05
-5.035511e-05 -3.551388e-05 -0.00017316212 0.0028183556 -5.425866e-06 -5.677592e-06 4.5229157e-05 4.691618e-06
-2.2172342e-06 1.580315e-05 -2.0024696e-05 6.2296726e-06 -8.022049e-06 7.6176076e-07 -3.6789046e-05 -1.2492899e-05
-2.611383e-05 -5.0929734e-06 -1.7466118e-05 -8.788773e-06 -3.9506763e-06 -1.4836816e-05 -4.1732237e-06 -1.6272428e-05
2.2640477e-05 0.00017996541 -0.00011331059 -1.3417847e-05 -8.1333645e-05 5.401895e-08 -0.00026170354 0.00012377762
-0.0007941487 -1.886354e-06 -5.1319927e-05 -6.22734e-05 3.6694312e-06 -7.629995e-06 0.00028694983 3.982866e-06
