Comparisons/GCNII-master/pretrained/c9613cfd1e8d4b6990d9cebee3bdae53.pt (torch_old, 85412 bytes, 68 tensors)

convs.0.weight f4 [16, 16]
0.026433537 0.03573731 -2.7454266e-06 0.049862135 3.5460357e-07 6.824973e-08 -0.0020963578 0.0076274183
0.04374758 -0.022413677 0.04177626 -6.8139507e-06 0.023079973 2.2560815e-05 0.0019250963 2.4753865e-06
0.02728205 -9.401912e-07 -0.001452068 2.3686423e-06 -0.0012851531 4.9521574e-08 -0.00031223975 0.014395241
-0.029835904 -0.0012913754 -1.7761031e-06 -0.008705054 -4.657979e-07 -0.06184381 0.047279406 -0.03870422
0.027438622 -2.4020226e-06 3.187186e-06 0.0100930445 -9.7064785e-08 0.032485608 -5.458447e-06 8.6115615e-06
-5.5639325e-06 4.9670175e-06 0.0004825158 0.045582682 0.00694651 -0.0007549056 0.0068908343 -2.4209608e-05
0.0029274893 -0.00937681 -0.062242657 -0.0001318679 -0.026761305 0.034326974 -7.572633e-06 0.00040897858
-2.4479205e-05 -4.6794557e-06 0.028881332 -0.019612914 -1.049792e-05 -0.01642385 -9.4726165e-06 -4.2202737e-05
-4.2751976e-06 7.111925e-08 0.035645418 -0.008030399 -0.008316969 -0.008319788 0.046670467 -3.7045845e-06
0.057341516 -0.035030305 -0.062596336 -0.028856164 -0.015367729 0.00029824913 2.7448586e-05 0.035875432
-0.0033089193 -0.01633727 0.004011458 -0.00028984286 0.00916222 2.0396583e-07 0.006525393 -0.028112296
-0.002783967 -3.950753e-06 -1.6898818e-07 -7.8839963e-07 0.008291239 0.016130617 -0.02137551 -0.004186017
0.049361862 -6.3028955e-07 -2.1697637e-05 -0.058278766 -0.006568436 4.3059927e-07 -9.435791e-06 -0.021462215
2.6233176e-05 -0.01648384 -0.038536254 -0.0051505077 -0.04274309 -0.011780963 0.063988395 -2.271993e-05
1.4711807e-05 -0.05223285 -0.013724616 3.2933633e-05 -1.2942186e-07 -0.04349791 -0.00065409625 -0.008483633
0.00014006779 -4.439533e-05 3.9510633e-05 -0.01590138 -0.016843501 -0.0073220134 -1.196755e-05 -0.029850606
0.03701697 -2.2583636e-06 0.040399466 -2.6673308e-06 -0.0382888 0.01747972 -7.619e-06 -0.00012471706
-0.035751645 -0.06300567 -5.471264e-06 -8.559357e-06 0.00016535717 -0.034344792 0.023535078 -0.022485418
2.0715339e-05 -5.1000798e-06 0.0032984198 0.032402627 0.048575588 -0.030333284 -9.4694615e-06 -0.000620575
-2.6626794e-05 -0.024303945 0.04854773 -0.022467595 0.004224465 2.5942074e-05 -1.4078593e-05 -0.004591272
0.04824342 -2.8501302e-06 -5.0129694e-07 -0.043710493 0.0004746752 -1.320428e-07 -0.0012267247 0.040174473
-6.7601e-06 -0.005298497 -0.0028520685 1.2091811e-05 0.0056216624 -2.3438896e-07 -0.006426229 -1.5084129e-05
-0.024130972 2.2402128e-05 0.02771096 -0.053730633 -3.7010386e-07 0.0033166914 -1.0523681e-05 -2.0659189e-05
0.0035666602 0.0037538318 7.4517004e-05 -8.764907e-06 -2.1438488e-07 5.8676533e-06 -8.5907476e-07 -1.3001361e-05
0.012021299 0.04024279 -9.667665e-07 1.3356089e-05 2.8598818e-08 5.6353525e-08 -8.452125e-06 1.2812387e-05
-0.048134483 -4.5175122e-05 0.037564453 0.0001605397 -5.8102783e-06 -0.008829261 -0.009572002 -0.0460785
2.3099014e-05 -5.982293e-06 0.011863862 0.0013341643 -0.044145618 -0.0087103695 -1.700985e-05 0.05824327
-3.146493e-05 1.749466e-05 0.00036690212 -0.00012241969 -0.012777208 0.021964047 -0.001139732 -6.594745e-05
-0.06312384 0.015008321 0.025511634 4.6056786e-05 -0.018072713 -0.061711702 -0.033100307 0.023954934
0.0018563031 0.03747513 0.003667577 -2.4903413e-06 -1.1624037e-06 -0.025890043 -0.039828602 -0.05269056
0.0003554163 -0.0022430385 -2.8383422e-06 -0.0067513315 -1.6085933e-07 -0.018827654 -0.013392967 5.651434e-06
-2.1580996e-05 0.010054952 -1.7495582e-05 -0.022418896 5.660733e-06 -0.0020100526 -2.0514785e-06 -0.055566818
00000000: 258b d83c 4961 123d 123e 38b6 3d3c 4c3d
00000010: 5860 be34 b090 9233 0c63 09bb 6cef f93b
00000020: aa30 333d e39c b7bc 951d 2b3d 64a3 e4b6
00000030: 3612 bd3c fb40 bd37 8353 fc3a d11e 2636
00000040: 9b7e df3c 7361 7cb5 5153 beba f7f4 1e36
00000050: 9572 a8ba 8cb1 5433 1cb4 a3b9 04da 6b3c
00000060: 6d6a f4bc 5e43 a9ba 7062 eeb5 a59f 0ebc
00000070: c712 fab4 ef4f 7dbd 0da8 413d 5188 1ebd
00000080: f6c6 e03c 6f32 21b6 70e3 5536 4c5d 253c
00000090: ee71 d0b3 a10f 053d b427 b7b6 607a 1037
000000a0: d1b1 bab6 5baa a636 2dfa fc39 e8b4 3a3d
000000b0: 8d9f e33b dbe4 45ba 82cc e13b bd15 cbb7
000000c0: 1fdb 3f3b 31a1 19bc 28f2 7ebd 0546 0ab9
000000d0: 863a dbbc 719a 0c3d 6c18 feb6 2d6c d639
000000e0: b158 cdb7 3804 9db6 8b98 ec3c 43ab a0bc
000000f0: 3920 30b7 4f8b 86bc 94ec 1eb7 d802 31b8
00000100: ab73 8fb6 39ba 9833 ee00 123d ef91 03bc
00000110: e543 08bc b84f 08bc 8829 3f3d 479c 78b6
00000120: f0de 6a3d f07b 0fbd 8232 80bd c363 ecbc
00000130: edc8 7bbc 525e 9c39 6441 e637 1ef2 123d
00000140: 74da 58bb bdd5 85bc 8c72 833b 0df6 97b9
00000150: 231d 163c b301 5b34 f7d2 d53b c24b e6bc
00000160: 3773 36bb b690 84b6 1e73 35b4 69a2 53b5
00000170: fad7 073c 5b24 843c b21b afbc db2a 89bb
00000180: aa2f 4a3d 2b31 29b5 5203 b6b7 b7b5 6ebd
00000190: 093c d7bb 1d2d e734 6a4e 1eb7 87d1 afbc
000001a0: 510f dc37 1e09 87bc 31d8 1dbd 97c5 a8bb
000001b0: 6113 2fbd f104 41bc 590c 833d ae96 beb7
000001c0: bbd2 7637 1df2 55bd 36dd 60bc 3822 0a38
000001d0: 36f7 0ab4 dd2a 32bd a877 2bba f0fe 0abc
000001e0: 29df 1239 1f35 3ab8 38b8 2538 9c43 82bc
000001f0: 62fb 89bc 80ed efbb 3cc8 48b7 4289 f4bc
00000200: 1b9f 173d 648e 17b6 e979 253d 6500 33b6
00000210: b7d4 1cbd a131 8f3c b6a6 ffb6 7bc6 02b9
00000220: 5170 12bd 1e09 81bd cd95 b7b6 299a 0fb7
00000230: ba63 2d39 20ad 0cbd a3cc c03c 5733 b8bc
00000240: dac5 ad37 5a21 abb6 4d2a 583b 9eb8 043d
00000250: 32f7 463d 827d f8bc 07df 1eb7 15ae 22ba
00000260: 9b5c dfb7 1119 c7bc fcd9 463d f60d b8bc
00000270: 626d 8a3b 2e9e d937 1933 6cb7 6272 96bb
00000280: e49a 453d dd44 3fb6 dd90 06b5 c609 33bd
00000290: d4dd f839 a6c7 0db4 0dca a0ba fd8d 243d
000002a0: d1d4 e2b6 049f adbb c5e9 3abb efdd 4a37
000002b0: ec35 b83b 59ac 7bb4 1e93 d2bb d711 7db7
000002c0: 51ae c5bc 34ec bb37 1802 e33c a714 5cbd
000002d0: b0b2 c6b4 d95c 593b de8e 30b7 454d adb7
000002e0: a1be 693b d902 763b 0346 9c38 fd0c 13b7
000002f0: ab31 66b4 c2e2 c436 2b9b 66b5 6c20 5ab7
00000300: fcf4 443c a0d5 243d d8c1 81b5 f713 6037
00000310: 77a9 f532 5b09 7233 9acd 0db7 c8f4 5637
00000320: aa28 45bd 6b7a 3db8 2fdd 193d 8c56 2839
00000330: e9f5 c2b6 9ba8 10bc e3d3 1cbc cfbc 3cbd
00000340: c1c4 c137 81bb c8b6 a560 423c 20df ae3a
00000350: 09d2 34bd f0b5 0ebc 60b0 8eb7 7f90 6e3d
00000360: 36f9 03b8 7fc1 9237 c55c c039 c95d 00b9
00000370: 7f57 51bc f2ed b33c 0f63 95ba 454d 8ab8
00000380: 1247 81bd 76e5 753c c6fd d03c 192d 4138
00000390: 3a0d 94bc 69c5 7cbd 3094 07bd 233d c43c
000003a0: 324f f33a 867f 193d bb5b 703b bd1f 27b6
000003b0: e303 9cb5 5b17 d4bc 5123 23bd 0fd2 57bd
000003c0: 2b57 ba39 f1ff 12bb 597a 3eb6 463a ddbb
000003d0: adb8 2cb4 743c 9abc 2d6e 5bbc 73a1 bd36
000003e0: d608 b5b7 87bd 243c 7ac3 92b7 d5a7 b7bc
000003f0: 54f1 bd36 16bb 03bb 22ac 09b6 089a 63bd

convs.1.weight f4 [16, 16]
0.005696595 -0.017952815 0.0026935034 0.0011193375 0.02007561 -0.026765293 0.020640986 -0.0016206107
5.1097435e-05 0.05333481 -1.0903516e-05 1.6954176e-05 2.9152939e-06 -0.036485072 0.0018472144 -0.06275592
0.010340362 0.02428124 0.05446668 1.076689e-06 -0.034490258 -4.440846e-07 0.005250152 -0.06321387
-1.1531497e-06 -0.008559065 5.746245e-07 -0.002288659 -0.00033773915 6.432466e-06 -0.055257987 0.034320086
0.03699479 -1.1236793e-06 3.8155036e-07 -0.0003290166 -0.047266714 -0.059258375 6.594184e-05 -0.00504591
-0.012365305 -1.2846717e-06 -1.6595578e-06 1.1498073e-06 2.7388376e-07 1.5996635e-06 -5.854747e-06 -0.001826206
-0.033338316 0.037020735 -0.00025624852 7.7769155e-06 -7.829471e-06 -2.558356e-08 0.052165117 0.001289032
-0.04138217 0.00022962037 0.05507303 -5.8107394e-06 0.015130155 0.061525106 1.5829446e-06 -2.0049907e-05
-0.017818188 8.0415513e-10 0.023300812 0.003134551 -0.011416394 -0.031609148 -0.0165178 -0.061700594
-0.027385112 -3.2248207e-07 0.015600361 -1.4805735e-07 -0.025903657 -0.031657815 0.0024903007 -0.023716573
1.1773654e-07 0.0018463362 -0.001340441 -2.1424672e-08 -2.8793396e-08 2.3392839e-07 -0.0028858841 -0.045360774
-0.0325427 -0.0042721215 0.05797062 -0.001957424 -0.015244955 5.646773e-08 9.164973e-07 0.004979298
0.025839852 0.005525979 -0.06252949 6.338311e-06 0.009066056 5.0703417e-08 -0.0077715297 0.055787753
-8.441676e-05 -0.006339447 -0.047018625 -2.6680884e-06 0.0008740489 1.0206909e-06 -2.0942623e-07 -0.025615823
-0.052436955 6.752968e-06 0.048718765 0.006876208 -0.007247029 -4.9022937e-08 -0.022880632 -0.001929071
-2.7246291e-05 0.004792884 0.035482507 -0.04977543 0.014941926 -0.018992275 7.1397124e-05 0.038185503
3.5352064e-06 0.048384115 -0.039100148 -0.000117526644 0.0073212017 3.4929863e-07 -3.757435e-06 -0.0004334812
0.017171485 0.002225017 -8.430111e-06 -0.0058542807 -0.033035997 2.0238288e-06 -3.04707e-06 -0.0013164333
6.4105893e-06 0.015650537 -2.3655812e-06 2.8173785e-05 -4.970526e-07 -0.04768432 -0.053533785 -0.0017856547
-0.00295766 3.586398e-06 -1.4077218e-05 -0.00018699536 0.055804532 1.563285e-05 0.019889263 -0.0020163786
-0.00033272186 5.2998468e-05 -0.014696169 -0.013415879 -7.79743e-08 -4.8509733e-05 -0.024470476 0.0080668675
0.031932347 5.907686e-07 -4.9553973e-06 -0.051148668 -4.3082797e-05 1.8679109e-06 0.0015877193 3.2400965e-06
-0.00020882425 0.0055482904 -0.030826334 0.011346535 -0.00015547003 4.105577e-08 -5.5152777e-06 3.5359956e-06
-6.3174923e-07 0.021616742 4.554558e-06 0.028610012 0.05720689 -0.0021025646 -0.021910707 0.031666886
0.029032277 -0.026297249 -2.4074652e-06 -0.06156289 -0.034040567 2.2228012e-07 -1.36398285e-05 8.074457e-06
-1.5917361e-05 0.050525848 -1.0472305e-05 -0.007835084 -5.6168233e-06 5.8987516e-06 7.1923064e-06 -0.019215677
9.034211e-05 -0.003059276 -0.0358813 -0.004868822 0.05771984 0.03953538 0.046013787 0.0076055443
0.025209665 2.7441536e-06 -0.0051291613 0.0025684377 -0.0033881925 -0.015595042 -2.446727e-06 -3.961111e-05
0.0032331194 -0.000158795 -0.007715435 1.1147822e-06 -0.0077810627 -0.013156436 0.003538145 1.0370198e-06
0.049045704 0.059192155 -3.742723e-06 2.5922484e-06 -2.3316065e-07 -6.214613e-06 -1.1798024e-06 -1.8802514e-06
8.132858e-05 0.051737536 -6.4131145e-06 -0.0005090327 -1.8210861e-07 -0.0019611458 -1.5248172e-05 0.02405443
0.028794834 0.0012507888 -0.02271777 -0.0043451493 2.813317e-06 7.196991e-06 -6.1664823e-06 -0.04975388
00000000: 81aa ba3b c811 93bc 7d85 303b bcb6 923a
00000010: 9b75 a43c e342 dbbc 4917 a93c ac6a d4ba
00000020: 7451 5638 9a75 5a3d 3fee 36b7 d138 8e37
00000030: 5ea4 4336 5f71 15bd 3b1e f23a 2d86 80bd
00000040: 9f6a 293c 73e9 c63c 7418 5f3d c182 9035
00000050: a845 0dbd 866a eeb4 7809 ac3b 4676 81bd
00000060: ecc5 9ab5 523b 0cbc e53f 1a35 54fd 15bb
00000070: 9512 b1b9 76d6 d736 3356 62bd 3893 0c3d
00000080: d987 173d 54d1 96b5 e2d7 cc34 dc7f acb9
00000090: be9a 41bd e9b8 72bd 414a 8a38 2958 a5bb
000000a0: d997 4abc fc6c acb5 f9bd deb5 1453 9a35
000000b0: 4c0a 9334 05b4 d635 e573 c4b6 4e5d efba
000000c0: c28d 08bd 0ea3 173d 1859 86b9 9979 0237
000000d0: 525b 03b7 d8c2 dbb2 17ab 553d bdf4 a83a
000000e0: 5a80 29bd 40c6 7039 4294 613d dff9 c2b6
000000f0: 78e4 773c c001 7c3d 9075 d435 d930 a8b7
00000100: 73f7 91bc 630b 5d30 58e1 be3c 0a6d 4d3b
00000110: d40b 3bbc 9878 01bd 5650 87bc c3b9 7cbd
00000120: be56 e0bc 9921 adb4 a898 7f3c b2f9 1eb4
00000130: e833 d4bc a0ab 01bd 5034 233b 4249 c2bc
00000140: 59d6 fc33 c300 f23a bdb1 afba 5a09 b8b2
00000150: 5955 f7b2 bf2d 7b34 1a21 3dbb 38cc 39bd
00000160: 7f4b 05bd 27fd 8bbb 9a72 6d3d 2048 00bb
00000170: fac5 79bc ed86 7233 3705 7635 6129 a33b
00000180: 19ae d33c 4613 b53b 760f 80bd adad d436
00000190: cc89 143c ffc4 5933 51a8 febb b381 643d
000001a0: e708 b1b8 23bb cfbb 9a96 40bd 690d 33b6
000001b0: 6e20 653a acfe 8835 a5de 60b4 46d8 d1bc
000001c0: 22c8 56bd 8e97 e236 548d 473d d051 e13b
000001d0: 7c78 edbb 4a8d 52b3 2a70 bbbc e2d8 fcba
000001e0: f78e e4b7 a00d 9d3b 1b56 113d 52e1 4bbd
000001f0: fbce 743c b095 9bbc 0abb 9538 6768 1c3d
00000200: 623e 6d36 6c2e 463d 7a27 20bd a378 f6b8
00000210: b1e6 ef3b 3d87 bb34 3e28 7cb6 dd44 e3b9
00000220: 37ab 8c3c 97d1 113b 0d6f 0db7 44d5 bfbb
00000230: c150 07bd 1dd1 0736 447c 4cb6 2c8c acba
00000240: 8b1a d736 8e35 803c 60c0 1eb6 be56 ec37
00000250: 326d 05b5 a250 43bd 3e46 5bbd a10c eaba
00000260: 4dd5 41bb d9ad 7036 312d 6cb7 2f14 44b9
00000270: 4b93 643d 4a23 8337 cfee a23c 3825 04bb
00000280: 2c71 aeb9 ac4a 5e38 33c8 70bc 46ce 5bbc
00000290: d372 a7b3 ee76 4bb8 4f76 c8bc e52a 043c
000002a0: 7ecb 023d 4f95 1e35 8a46 a6b6 4481 51bd
000002b0: cdb3 34b8 eeb4 fa35 051b d03a 6f70 5936
000002c0: d5f7 5ab9 6fce b53b 8287 fcbc d1e6 393c
000002d0: ab05 23b9 4c55 3033 e00f b9b6 f14b 6d36
000002e0: 7a95 29b5 9815 b13c 5bd3 9836 8b5f ea3c
000002f0: c651 6a3d 2ecb 09bb 157e b3bc 23b5 013d
00000300: 19d5 ed3c 546d d7bc f08f 21b6 5e29 7cbd
00000310: 1f6e 0bbd e5ab 6e34 9ed6 64b7 8777 0737
00000320: 4686 85b7 31f4 4e3d 35b2 2fb7 b95e 00bc
00000330: 2578 bcb6 e4ed c536 7155 f136 326a 9dbc
00000340: 0d76 bd38 227e 48bb 45f8 12bd a48a 9fbb
00000350: a46b 6c3d daef 213d f478 3c3d ee37 f93b
00000360: 8084 ce3c 3328 3836 8612 a8bb 3c53 283b
00000370: 700c 5ebb 5982 7fbc 7332 24b6 1b24 26b8
00000380: bee2 533b 3582 26b9 c2d1 fcbb a09f 9535
00000390: 49f8 febb 188e 57bc 39e0 673b bb2f 8b35
000003a0: 26e4 483d 7973 723d 7e2b 7bb6 7df6 2d36
000003b0: b65a 7ab4 1f87 d0b6 b459 9eb5 f25c fcb5
000003c0: f38e aa38 bdea 533d 3c30 d7b6 9b70 05ba
000003d0: a289 43b4 9186 00bb 66d2 7fb7 cc0d c53c
000003e0: 25e3 eb3c 82f1 a33a 9e1a babc c161 8ebb
000003f0: 6bcc 3c36 af7d f136 aee9 ceb6 b9ca 4bbd

convs.2.weight f4 [16, 16]
-4.7543216e-07 -0.026206326 -0.011415273 -0.03594178 0.042123627 -0.05467926 0.025075415 2.4551251e-05
-1.4083826e-05 0.010757732 3.3856882e-06 0.010895537 0.021113303 -0.041628804 0.00013042384 -1.9862679e-05
1.0140229e-07 -3.4369245e-07 5.8887093e-07 -0.0018913698 5.1851046e-08 0.055228405 0.015278068 2.2762229e-06
-0.053576697 1.1325465e-06 -0.01625743 0.03324566 -0.009175648 1.2961058e-06 2.1393689e-07 -1.8064329e-06
0.053660866 -9.851034e-07 0.00702482 0.028009372 0.032391142 -5.699501e-06 -3.5344992e-06 0.0019218418
-4.541716e-06 0.0014942933 -5.596262e-06 -0.01596571 0.0003192076 1.9146607e-06 0.00092998793 0.062882416
0.016450232 0.05485854 -3.134828e-07 -0.040369637 -0.018560553 -0.010373538 -0.043714613 -0.0026393062
-0.050188318 -0.05052785 -0.008412794 -0.06151792 -0.009736846 0.00011820418 0.036347013 -1.3651934e-05
1.087096e-06 0.0041905763 -0.002331154 -0.0016282261 0.009935921 -0.04212079 -4.5533872e-07 0.044054985
-2.2329522e-07 1.1686503e-06 -0.007258366 1.9890334e-07 -4.498744e-08 3.0047946e-07 0.0001593298 0.041744072
-0.026262317 -3.4286433e-08 -0.0025766792 -0.030071296 -1.5994944e-08 -0.04354861 0.018144038 -2.2619718e-08
-0.004464591 0.003604706 -0.054590546 -0.00014790612 -2.2629077e-07 -0.038743947 -0.011703063 1.5935294e-07
0.025660135 0.057938144 0.011737353 -0.008373092 -0.013469362 0.042341992 1.5202477e-05 2.3111454e-06
-4.855802e-06 -0.031868674 1.5719212e-06 0.05740365 -6.428485e-08 2.3297964e-06 -0.035786655 -0.0056921905
-1.4188544e-06 -0.010374471 -4.6097794e-06 0.00032921144 -0.060150146 -2.2198037e-06 -0.014184428 -0.0021277508
0.00010807277 0.030646665 -1.8233875e-05 -0.00037885606 -0.047458574 -0.0032675208 -0.04281137 -3.886921e-05
1.5323013e-06 -0.052949633 0.042408817 0.010925951 -0.060286667 -0.0017788587 -8.6281125e-06 1.2394958e-06
-3.5853748e-06 -0.0010559042 0.031799987 -0.005663858 0.03562826 1.1083318e-06 -1.9360324e-07 0.028546028
8.161531e-06 -0.006343056 -4.609381e-06 0.032938536 -0.02347959 -4.7596583e-07 -0.06097529 0.0036945045
4.5064284e-05 9.856365e-06 0.0006063205 -0.00017952065 0.0053110193 -0.030147273 1.9874499e-06 0.00086685724
0.063305564 0.0029881157 -0.021622457 0.027041798 4.3149282e-07 2.1328496e-07 -0.04823748 3.5224825e-06
0.019231047 -2.7539818e-07 -0.0072659 -1.2612274e-05 6.489724e-06 0.04891525 -0.041589823 1.4597348e-06
-0.057923928 -0.00019831613 -6.4967867e-06 0.05740557 -1.4271164e-07 0.060537785 -4.4212793e-06 0.0069096857
0.031575747 0.03663003 -0.005708719 0.0499842 0.009067344 -0.001472476 -0.0017657276 -0.037058674
5.224824e-06 -0.032862462 0.0005079538 1.7743194e-07 -0.04172426 1.093787e-06 -2.8491268e-05 0.0011881104
0.0066371025 -0.06300185 0.04959773 0.037036475 0.00023302634 -0.049074546 -3.0469582e-05 -1.9180985e-05
6.4921346e-06 0.0059769074 3.501141e-05 0.030232685 -8.1738195e-05 -1.9814902e-06 4.665096e-06 -0.03612263
-0.058714144 -0.003418572 0.016640078 -0.053742424 -0.041981053 0.005741697 0.004490281 0.03459128
-0.025155809 -0.022206923 0.0031500484 0.041854117 0.008469638 -1.2503942e-07 -6.9626944e-06 0.05505687
-0.012586816 -0.0011160847 0.0183232 -0.016614929 -0.0051894207 0.021970225 -6.221489e-06 -7.868775e-06
-0.00052951684 -5.2962978e-08 0.049287032 -0.0086148335 -3.898967e-08 0.0017140064 -0.017296325 0.058912616
-0.002585297 5.2237524e-06 -1.0845763e-05 -0.013222388 -0.060697887 0.005977089 -2.5297513e-06 -0.05290796
00000000: e63e ffb4 a6ae d6bc 2007 3bbc b037 13bd
00000010: d389 2c3d 5cf7 5fbd f56a cd3c 69f3 cd37
00000020: 9249 6cb7 3341 303c ae35 6336 3283 323c
00000030: cef5 ac3c f782 2abd 62c2 0839 c79e a6b7
00000040: 80c2 d933 bb84 b8b4 e712 1e35 d7e7 f7ba
00000050: d4b2 5e33 2e37 623d dd50 7a3c 36c1 1836
00000060: 3d73 5bbd 0002 9835 4d2e 85bc 9a2c 083d
00000070: 7555 16bc dbf5 ad35 86b6 6534 9074 f2b5
00000080: 7fcb 5b3d e537 84b5 7630 e63b e973 e53c
00000090: 93ac 043d 573e bfb6 3c32 6db6 4fe6 fb3a
000000a0: 0b65 98b6 2adc c33a 86c7 bbb6 85ca 82bc
000000b0: 525b a739 9f7d 0036 6fca 733a 7fc8 803d
000000c0: a3c2 863c 59b3 603d bf4c a8b4 a25a 25bd
000000d0: 4d0c 98bc c6f5 29bc 180e 33bd 36f8 2cbb
000000e0: 4492 4dbd 4af6 4ebd d1d5 09bc 37fa 7bbd
000000f0: 4b87 1fbc 63e4 f738 9be0 143d 9c0a 65b7
00000100: 56e8 9135 1a51 893b 46c6 18bb 346a d5ba
00000110: 46ca 223c d986 2cbd 4775 f4b4 0073 343d
00000120: ecc2 6fb4 85da 9c35 96d7 edbb 2292 5534
00000130: 3738 41b3 9551 a134 c411 2739 d5fb 2a3d
00000140: 1224 d7bc 5542 13b3 81dd 28bb 1458 f6bc
00000150: 4165 89b2 0760 32bd cea2 943c 494d c2b2
00000160: b44b 92bb ee3c 6c3b 569a 5fbd 3f17 1bb9
00000170: 55fa 72b4 f9b1 1ebd 34be 3fbc 9a1a 2b34
00000180: 3435 d23c 8c50 6d3d 074e 403c 4b2f 09bc
00000190: 99ae 5cbc cc6e 2d3d 240e 7f37 2d19 1b36
000001a0: 06ef a2b6 ba88 02bd cdfa d235 1720 6b3d
000001b0: f80c 8ab3 9959 1c36 0795 12bd 8e85 babb
000001c0: 776f beb5 aff9 29bc b4ad 9ab6 039a ac39
000001d0: 0060 76bd f0f7 14b6 ce65 68bc bc71 0bbb
000001e0: 20a5 e238 b70e fb3c f3f4 98b7 33a1 c6b9
000001f0: ec63 42bd e723 56bb fa5a 2fbd 7f07 23b8
00000200: 79a9 cd35 b7e1 58bd deb4 2d3d c302 333c
00000210: 27ef 76bd 9828 e9ba 76c1 10b7 c05c a635
00000220: 459c 70b6 4466 8aba b440 023d e297 b9bb
00000230: f0ee 113d fec1 9435 41e1 4fb4 5cd9 e93c
00000240: 82ed 0837 69d9 cfbb 48aa 9ab6 8fea 063d
00000250: 4558 c0bc 3f88 ffb4 3ac1 79bd 801f 723b
00000260: 6803 3d38 c45c 2537 7bf1 1e3a b53d 3cb9
00000270: 0f08 ae3b 6af7 f6bc 2160 0536 ce3d 633a
00000280: 59a6 813d 43d4 433b 9421 b1bc c386 dd3c
00000290: eca7 e734 5303 6534 aa94 45bd ca63 6c36
000002a0: 6e8a 9d3c 70da 93b4 c916 eebb 4e99 53b7
000002b0: 4ec2 d936 5b5b 483d 175a 2abd 1bec c335
000002c0: a441 6dbd 15f3 4fb9 f9fe d9b6 1a22 6b3d
000002d0: 473c 19b4 78f6 773d 805a 94b6 a56a e23b
000002e0: 9255 013d 5f09 163d 3510 bbbb 3cbc 4c3d
000002f0: 328f 143c 1900 c1ba fd6f e7ba d6ca 17bd
00000300: e550 af36 ca9a 06bd 3428 053a 1f84 3e34
00000310: 0fe7 2abd 3cce 9235 8800 efb7 5fba 9b3a
00000320: 0d7c d93b 1d07 81bd fd26 4b3d 8fb3 173d
00000330: 8858 7439 6402 49bd ee98 ffb7 dae6 a0b7
00000340: 03d7 d936 efd9 c33b 37d9 1238 89aa f73c
00000350: dc6a abb8 bef9 04b6 df88 9c36 53f5 13bd
00000360: 3e7e 70bd 1f0a 60bb c650 883c 0421 5cbd
00000370: 53f4 2bbd d824 bc3b 3523 933b 96af 0d3d
00000380: 8e13 cebc 4beb b5bc 0b71 4e3b 396f 2b3d
00000390: 3dc4 0a3c 9342 06b4 17a1 e9b6 5083 613d
000003a0: ef38 4ebc 9749 92ba 891a 963c 081c 88bc
000003b0: 040c aabb e7fa b33c 2fc2 d0b6 2204 04b7
000003c0: 46cf 0aba 6979 63b3 33e1 493d 3b25 0dbc
000003d0: 9875 27b3 83a8 e03a 06b1 8dbc 5b4e 713d
000003e0: 166e 29bb b147 af36 33f6 35b7 b7a2 58bc
000003f0: 599e 78bd 75db c33b ccc4 29b6 04b6 58bd

convs.3.weight f4 [16, 16]
-0.012431508 0.061966736 0.00011647608 0.0002675995 -0.008466486 -0.00077989884 -3.3254593e-05 9.018124e-06
-0.016732736 2.5767943e-06 7.4967477e-07 -2.137378e-05 1.4120868e-06 -0.0002141453 -2.9928353e-06 7.363482e-05
-0.0038130882 -0.062542625 0.0036470033 4.414721e-07 -0.0029535866 0.057595454 -0.0010755293 0.015693404
0.002897301 -0.037007675 0.012559971 -0.05000025 -0.0053486885 7.124286e-07 -0.015509914 0.059923943
1.3540819e-06 0.00022445737 -0.04560082 0.006777197 5.0869144e-06 -0.025912803 -3.5260025e-06 0.0020081375
0.041184478 -0.0094829425 -0.0022860004 -3.53044e-06 1.3627028e-06 0.00013413532 0.005036949 -9.48667e-06
0.0054470496 0.022883013 -4.308189e-06 0.019723816 0.0021531726 0.04383901 -0.0062795384 -0.002344701
-9.428986e-06 5.8036676e-06 0.00861241 -0.0064562955 0.0026191843 -2.5228877e-05 0.008930187 -4.9471568e-05
-0.04288352 -0.0051189214 -0.021201653 0.0024308583 -0.015141719 -5.239106e-08 -3.1382982e-07 -0.0050081545
-5.996239e-07 -0.059838958 -0.020204298 -0.04777267 3.4408613e-06 -4.3992568e-05 1.12333794e-07 -1.870071e-07
0.0015457966 0.049550332 2.9128216e-05 -0.00019889217 -0.052865718 3.7926606e-05 -0.002411271 0.0029661974
0.014925284 0.00014106385 0.05319506 0.05517276 -1.7552993e-07 -0.021802213 0.045687426 -0.0016795358
-0.0016130318 0.036758803 0.027816659 -2.5079073e-06 -1.1573156e-08 -0.037426274 -4.6388745e-06 0.056795508
-1.9897172e-06 4.1871814e-07 -1.943545e-06 -1.5007789e-05 0.008287903 1.8259715e-06 0.013107945 -5.74137e-06
0.00075816934 0.00037980755 -6.0388766e-06 0.0110191405 0.010858375 0.051253226 0.026981171 8.654681e-06
-0.03827205 5.6770987e-06 3.2562406e-05 -3.5565434e-05 2.3515972e-06 1.6662141e-05 0.021924786 -2.4076642e-05
-2.0221818e-05 -0.0003661946 -1.0001613e-06 -0.00014511353 0.046634264 0.003962638 0.047251135 -4.861559e-06
-2.4423243e-06 8.445147e-06 -0.054612555 -4.658322e-06 -9.892194e-07 -0.0057666823 -0.027972732 0.044359624
0.03323023 0.001355514 0.05594381 -0.00029864305 -4.4605194e-08 0.00010142119 -3.433678e-05 9.133576e-06
-0.035229363 7.278885e-06 -0.008956739 -4.9485403e-05 0.059583813 9.806051e-06 1.1636171e-06 0.008853994
-5.3429085e-05 -1.061126e-06 0.052413404 -0.00034917 -0.020192573 -0.0057025403 -1.1173068e-05 -0.0016785656
-0.003432207 0.00028985375 -4.400291e-06 -3.1781935e-06 -0.02810402 6.7096753e-06 -0.0005081726 2.027976e-06
-0.047111355 -1.022912e-06 -0.02256081 -0.028363496 -0.03380993 0.00044221967 -0.008765747 -0.00038313013
0.029059561 0.004032438 0.0066173235 -0.055123676 -0.020395055 -9.5033836e-05 0.03515236 4.444178e-06
-0.024236657 6.9613657e-06 -0.028073462 5.067004e-06 -1.0248704e-06 0.04122668 -2.5916783e-05 6.604484e-06
-9.48119e-06 5.827245e-06 0.00018331138 0.00019585145 2.6733767e-06 -0.00016464047 0.03926751 -3.36359e-07
-0.00015958151 0.01082691 0.033517357 0.06318942 -2.193508e-06 -9.351283e-07 0.0029012205 0.040021695
-0.060629405 4.4551777e-07 -0.01637115 -3.0315781e-05 0.00039662552 8.258208e-06 -1.05877825e-05 0.0009999367
6.941183e-07 -0.03721439 0.03135904 -0.0027280229 -6.474034e-08 -6.652617e-08 -5.654976e-06 -0.053602338
0.0012337177 -0.0011214217 -0.003414974 -1.8013958e-06 -0.003569512 -0.0013226306 1.4273727e-06 -8.830438e-05
-0.00044234967 -3.714126e-06 -2.2476272e-06 -0.032665133 -0.009027504 -5.525374e-07 -2.2720169e-05 0.005246317
-0.018673621 -2.3895694e-07 0.00627103 0.0054128882 -0.052018266 -0.00011395969 -0.04027146 -0.011427557
00000000: 86ad 4bbc d5d0 7d3d 9f44 f438 994c 8c39
00000010: 04b7 0abc 2072 4cba d97a 0bb8 8c4c 1737
00000020: 1713 89bc fdec 2c36 423d 4935 d84b b3b7
00000030: ef86 bd35 318c 60b9 85d8 48b6 656c 9a38
00000040: 01e5 79bb 5916 80bd 9002 6f3b 7703 ed34
00000050: f690 41bb 36e9 6b3d c6f8 8cba 748f 803c
00000060: a5e0 3d3b 5c95 17bd 56c8 4d3c 10cd 4cbd
00000070: 0d44 afbb b83d 3f35 4b1d 7ebc cf72 753d
00000080: e6bd b535 515c 6b39 edc7 3abd 4013 de3b
00000090: 43b0 aa36 1647 d4bc 43a0 6cb6 f59a 033b
000000a0: 0eb1 283d 585e 1bbc b9d0 15bb 7fec 6cb6
000000b0: 1de6 b635 ada6 0c39 fe0c a53b f028 1fb7
000000c0: 2a7d b23b 2875 bb3c 108f 90b6 d793 a13c
000000d0: 3e1c 0d3b 8990 333d 96c4 cdbb 8ea9 19bb
000000e0: 3031 1eb7 20bd c236 111b 0d3c 558f d3bb
000000f0: 9fa6 2b3b 9aa2 d3b7 eb4f 123c b17f 4fb8
00000100: a1a6 2fbd a0bc a7bb 17af adbc 094f 1f3b
00000110: f914 78bc 9404 61b3 717c a8b4 721b a4bb
00000120: d7f5 20b5 b219 75bd 7c83 a5bc 46ad 43bd
00000130: 8ce9 6636 a984 38b8 283c f133 1fcc 48b4
00000140: 549c ca3a 4af5 4a3d 5e58 f437 b68d 50b9
00000150: b989 58bd 6213 1f38 6a06 1ebb 8964 423b
00000160: 2e89 743c 8aea 1339 10e3 593d d5fc 613d
00000170: 4d79 3cb4 8e9a b2bc bd22 3b3d df23 dcba
00000180: 5e6c d3ba 6690 163d c3df e33c 854d 28b6
00000190: 47d3 46b2 4b4c 19bd a1a7 9bb6 68a2 683d
000001a0: 1587 05b6 2fcc e034 d96d 02b6 f7c9 7bb7
000001b0: fcc9 073c e713 f535 b5c2 563c fea5 c0b6
000001c0: e2bf 463a e820 c739 8ea1 cab6 a089 343c
000001d0: 53e7 313c e7ee 513d 9e07 dd3c 9233 1137
000001e0: 27c3 1cbd e87d be36 9e93 0838 182c 15b8
000001f0: 22d0 1d36 adc5 8b37 9c9b b33c 32f8 c9b7
00000200: 06a2 a9b7 cffd bfb9 483d 86b5 9e29 18b9
00000210: 9203 3f3d 04d9 813b 688a 413d 7920 a3b6
00000220: d0e6 23b6 a1af 0d37 6ab1 5fbd ae4e 9cb6
00000230: 52c5 84b5 70f6 bcbb 1227 e5bc 70b2 353d
00000240: 6c1c 083d 81ab b13a 5625 653d 3193 9cb9
00000250: ee93 3fb3 16b2 d438 d604 10b8 693c 1937
00000260: aa4c 10bd 253d f436 49bf 12bc 8c8e 4fb8
00000270: 280e 743d ab84 2437 942d 9c35 5810 113c
00000280: 0b19 60b8 036c 8eb5 70af 563d ce10 b7b9
00000290: e56a a5bc 60dc babb f673 3bb7 5103 dcba
000002a0: e1ee 60bb 83f7 9739 36a6 93b6 f348 55b6
000002b0: 673a e6bc ac23 e136 e336 05ba 5d18 0836
000002c0: d6f7 40bd fd4a 89b5 73d1 b8bc 905a e8bc
000002d0: 487c 0abd b8d9 e739 359e 0fbc dbde c8b9
000002e0: 510e ee3c 8b22 843b 22d6 d83b 5dc9 61bd
000002f0: 8813 a7bc e74c c7b8 ecfb 0f3d 331f 9536
00000300: f48b c6bc ad95 e936 51fa e5bc 3c05 aa36
00000310: 478e 89b5 4fdd 283d de67 d9b7 169c dd36
00000320: 6711 1fb7 a787 c336 4637 4039 795d 4d39
00000330: 4368 3336 57a3 2cb9 f8d6 203d d494 b4b4
00000340: 5655 27b9 5a63 313c 7f49 093d 7469 813d
00000350: 2e34 13b6 8705 7bb5 6722 3e3b caed 233d
00000360: 8a56 78bd 7f2f ef34 ca1c 86bc a54e feb7
00000370: 2df2 cf39 bc8c 0a37 2ea2 31b7 4f10 833a
00000380: 7253 3a35 1e6e 18bd 5672 003d a1c8 32bb
00000390: 6107 8bb3 26dd 8eb3 e0bf bdb6 208e 5bbd
000003a0: b2b4 a13a abfc 92ba c2cd 5fbb 7dc7 f1b5
000003b0: 79ee 69bb 1e5c adba 2794 bf35 0e30 b9b8
000003c0: 2beb e7b9 3340 79b6 f1d5 16b6 e0cb 05bd
000003d0: 19e8 13bc 1552 14b5 3197 beb7 4ce9 ab3b
000003e0: 6cf9 98bc fe49 80b4 367d cd3b 995e b13b
000003f0: 1b11 55bd a5fd eeb8 b0f3 24bd a63a 3bbc

convs.4.weight f4 [16, 16]
0.005536657 -5.2963264e-06 0.00054229726 -0.0075946106 -1.5086789e-08 -0.008994042 0.0025715262 -0.0007559413
-2.1284204e-05 -0.041536763 -0.00010705193 0.055110045 0.002041273 -0.004165736 -1.3144993e-05 3.1223957e-05
-0.03206836 0.029096123 -5.2513224e-07 4.6438655e-07 -0.00028606754 -0.0014828872 -2.6918322e-06 6.275205e-05
-2.013864e-06 -0.0019209727 0.05886123 -1.6858901e-06 -0.0096200295 -0.0014765612 0.061264098 -1.165518e-05
1.9467188e-06 -0.0004267064 -1.8406749e-06 -0.0375896 -0.030582437 0.00747077 0.039625794 0.05595462
-0.020983519 0.004572165 -0.010184442 0.008326358 0.020933595 0.027689248 0.020752292 0.010755549
1.1531725e-06 0.0012507173 -3.005331e-05 0.00072880444 6.123553e-06 1.5938035e-06 -0.041981075 4.5783163e-06
-0.0037836311 7.120494e-06 -0.01196151 -0.046677936 -5.5193805e-06 0.012953641 0.048541054 0.007329637
-0.0033992417 -0.062082205 0.00010460799 0.005745122 -0.04010516 2.8643914e-05 0.03808606 -3.502021e-08
-0.008798524 0.034229062 0.000581591 0.014275245 -0.01575098 0.0072258706 -0.016485853 0.062169086
-0.0005306919 0.008807235 7.385413e-08 1.2702862e-06 3.4596795e-08 0.00036004576 -0.00043455715 -0.05392744
-0.00013224377 0.029019069 -1.3442975e-06 -6.103894e-06 -6.2225794e-05 0.024530323 0.008481618 1.6746995e-05
-0.0030668837 -0.033824317 -6.8442984e-07 -0.007572156 0.03457206 -0.05711853 0.00095034187 0.063503146
0.0026214046 2.132141e-06 -0.05732423 0.057277407 3.412227e-07 -0.052527834 0.061751153 -0.00032340948
5.4655034e-06 0.049295716 -0.017613925 -0.019250875 -1.6695637e-07 -7.267982e-07 -5.2801595e-05 -0.03704773
-1.651603e-05 -0.0008976514 -0.0022778346 -0.049370736 0.003995721 1.346167e-05 -0.03808082 0.030412361
-2.4297083e-06 -4.118389e-07 -0.0076087406 1.0251284e-06 0.057567477 0.016794814 -0.02837486 0.048886158
-4.8592897e-06 0.0018889026 0.028071485 0.03916956 -0.0284651 0.042816024 -0.016062418 4.688557e-06
-0.018240325 -3.6586555e-06 -1.232236e-06 1.2005835e-05 1.0585034e-07 4.5455548e-07 0.06161056 0.0071626464
0.0056718374 0.00025895165 0.02772505 -2.237323e-05 -2.6225675e-06 6.1506857e-06 -0.042254522 -0.032149404
2.3291057e-06 -0.00017918138 5.062953e-07 2.0144148e-06 -8.004138e-08 0.013112137 -4.756434e-06 0.031462997
0.02985557 -0.026824571 -0.02746712 -0.032650974 -0.004985334 -0.00016342664 -3.736087e-06 -6.0601865e-06
-0.0028087883 5.548701e-06 -3.7251277e-05 0.06065897 -6.567724e-05 -0.020263273 0.00041729322 2.915456e-06
0.02656358 0.010697207 0.049873713 -0.02226645 0.012361151 0.03713289 -0.002349251 0.049948815
0.024466695 4.3067357e-06 0.0019251171 -5.7681455e-06 -0.042261012 8.317471e-07 -2.3196579e-05 -0.013400993
0.0020097848 -0.039433762 0.040431645 0.0584129 2.7635967e-06 -0.010926869 0.0020806608 -7.6093283e-06
7.2531952e-06 -8.990006e-06 0.026000869 -0.0006191081 4.439671e-07 1.2865347e-06 -5.2643805e-05 0.03225949
-0.0037625371 8.327588e-06 -1.8297045e-05 -3.560285e-05 0.016340153 1.2070117e-05 -0.050801568 3.4161614e-05
-0.0011049884 -6.2097473e-07 -1.4561266e-07 -0.06260835 -1.3310803e-07 5.173118e-08 -5.4821936e-07 0.049883083
-1.20967e-06 0.012317519 -1.0563033e-06 -0.037880763 -1.00875404e-07 0.035547156 -0.013455592 -0.012700208
0.060270917 0.03184163 -0.005593508 0.008744698 4.6107555e-08 -0.061531972 -2.4994933e-05 -1.5513596e-06
-1.5701515e-05 1.4790155e-05 -0.03957773 0.01757935 0.03917586 0.005195129 -2.0179235e-07 -2.4719315e-05
00000000: d86c b53b 19b7 b1b6 f428 0e3a 36dc f8bb
00000010: 3398 81b2 bf5b 13bc 0d87 283b 5d2a 46ba
00000020: 7b8b b2b7 7422 2abd 1181 e0b8 12bb 613d
00000030: e1c6 053b ba80 88bb 5189 5cb7 78f6 0238
00000040: 1d5a 03bd fe5a ee3c d0f6 0cb5 cd50 f934
00000050: 56fb 95b9 705d c2ba 53a5 34b6 c099 8338
00000060: ec25 07b6 26c9 fbba 7918 713d be46 e2b5
00000070: 549d 1dbc 2c89 c1ba 10f0 7a3d 9e8a 43b7
00000080: 60a4 0236 90b7 dfb9 1c0d f7b5 8df7 19bd
00000090: 0588 fabc 5ccd f43b a84e 223d ac30 653d
000000a0: a1e5 abbc 1ad2 953b a5dc 26bc 476b 083c
000000b0: ee7c ab3c 90d4 e23c b600 aa3c 0b38 303c
000000c0: b5c6 9a35 1cef a33a fe1a fcb7 3d0d 3f3a
000000d0: eb78 cd36 acea d535 59f4 2bbd 709f 9936
000000e0: ccf6 77bb 94ec ee36 36fa 43bc 5d31 3fbd
000000f0: 1e33 b9b6 823b 543c fcd2 463d 742d f03b
00000100: d0c5 5ebb e949 7ebd fd60 db38 9441 bc3b
00000110: 4f45 24bd 5648 f037 2100 1c3d 2169 16b3
00000120: af27 10bc c633 0c3d e975 183a b8e2 693c
00000130: 3308 81bc ffc6 ec3b 570d 87bc 03a5 7e3d
00000140: 211e 0bba 394c 103c bd99 9e33 b47e aa35
00000150: 9497 1433 86c4 bc39 46d5 e3b9 05e3 5cbd
00000160: ebaa 0ab9 66b9 ed3c b66d b4b5 0dd0 ccb6
00000170: 387f 82b8 d1f3 c83c 7cf6 0a3c e67b 8c37
00000180: c5fd 48bb 5e8b 0abd a9b9 37b5 d91f f8bb
00000190: 6f9b 0d3d 1ff5 69bd 5d20 793a f00d 823d
000001a0: dfcb 2b3b e715 0f36 d0cc 6abd b79b 6a3d
000001b0: 4a31 b734 6d27 57bd c7ee 7c3d 498f a9b9
000001c0: 5164 b736 4eea 493d 144b 90bc 03b4 9dbc
000001d0: 9e44 33b4 3119 43b5 4877 5db8 5cbf 17bd
000001e0: e88b 8ab7 5e50 6bba b947 15bb f838 4abd
000001f0: 8aee 823b 6fd9 6137 a2fa 1bbd 5823 f93c
00000200: 120e 23b6 b51a ddb4 be52 f9bb 2597 8935
00000210: e0cb 6b3d 4795 893c 6572 e8bc da3c 483d
00000220: fb0c a3b6 0e95 f73a 2cf6 e53c 4370 203d
00000230: a42f e9bc db5f 2f3d 5595 83bc 6652 9d36
00000240: bc6c 95bc 3987 75b6 4e63 a5b5 ab6c 4937
00000250: d74f e333 a109 f434 5b5b 7c3d a2b4 ea3b
00000260: d2da b93b e7c3 8739 a51f e33c 25ae bbb7
00000270: 5eff 2fb6 fd61 ce36 1413 2dbd 18af 03bd
00000280: bb4d 1c36 a3e2 3bb9 59e8 0735 622f 0736
00000290: 37e3 abb3 4ad4 563c 7599 9fb6 58df 003d
000002a0: ab93 f43c 34bf dbbc ba02 e1bc 07bd 05bd
000002b0: 035c a3bb 815d 2bb9 7cb9 7ab6 9b58 cbb6
000002c0: a613 38bb fb2e ba36 413e 1cb8 8a75 783d
000002d0: 33bc 89b8 2aff a5bc 26c8 da39 27a7 4336
000002e0: dd9b d93c 5743 2f3c 6148 4c3d 2168 b6bc
000002f0: 6d86 4a3c a818 183d e4f5 19bb 2197 4c3d
00000300: 616e c83c 9482 9036 3654 fc3a fe8b c1b6
00000310: e219 2dbd 3a45 5f35 4696 c2b7 d78f 5bbc
00000320: 98b6 033b 4c85 21bd a79b 253d 5d42 6f3d
00000330: 3b76 3936 9c06 33bc b25b 083b a253 ffb6
00000340: 7960 f336 c8d3 16b7 c6ff d43c a44b 22ba
00000350: 605a ee34 ffac ac35 dbcd 5cb8 8722 043d
00000360: e694 76bb b8b6 0b37 9b7c 99b7 4554 15b8
00000370: c9db 853c c280 4a37 4e15 50bd c148 0f38
00000380: 42d5 90ba 0fb1 26b5 b459 1cb4 ce38 80bd
00000390: 75ec 0eb4 092f 5e33 5929 13b5 3452 4c3d
000003a0: f25b a2b5 6bcf 493c 4ec6 8db5 dc28 1bbd
000003b0: d7a0 d8b3 e599 113d d874 5cbc 8914 50bc
000003c0: a3de 763d 5e6c 023d bf49 b7bb ec45 0f3c
000003d0: cb07 4633 f308 7cbd 36ac d1b7 4f38 d0b5
000003e0: bfb6 83b7 3b23 7837 421c 22bd 9202 903c
000003f0: de76 203d e73b aa3b 42ac 58b4 535c cfb7

convs.5.weight f4 [16, 16]
-0.02117419 -4.3210744e-06 -1.814809e-06 -0.0054983743 -0.02305164 0.015359021 0.015992742 -0.048112884
-3.0355885e-05 0.0003233568 0.055197842 0.006966222 0.04997736 9.9551e-06 0.01842601 0.033267625
-0.054228954 -0.031726766 -2.5096998e-07 0.0048685125 -0.0024641715 4.689271e-08 8.408024e-06 1.3025268e-06
-0.004377404 0.0059868996 0.014563134 -0.017686317 -2.690265e-06 -8.2855195e-06 -6.727399e-06 0.05204594
-3.8501466e-07 -4.3851134e-07 0.04645535 -0.00011004721 9.2116227e-07 9.662476e-08 -0.026025513 2.0088005e-06
-0.01598929 -4.680862e-07 6.2619392e-06 -4.4476897e-06 -0.03775179 -0.05517038 0.0012680646 0.039958816
-0.044698913 6.24072e-05 -0.02273753 1.790882e-05 0.05183849 0.025639506 -0.022121709 0.010148788
0.0035760764 1.1631093e-05 0.058474883 -0.00024216725 1.8982569e-06 -0.0028143288 1.9247639e-06 -2.2507726e-05
9.792533e-09 -0.005895332 -0.0010260162 5.6717835e-07 -0.04300174 7.809044e-08 -1.4505277e-08 -0.00029950272
4.2826578e-05 1.7841879e-08 0.018622607 -1.1581112e-08 -0.011265167 0.019144265 1.16945365e-07 2.5618615e-07
-0.013959745 -3.49356e-07 -0.05585895 1.1815027e-06 0.0023721214 -0.04306176 -0.0135144945 -0.020615192
0.037325617 0.038801108 7.879996e-08 0.053279757 3.23961e-06 -0.05884825 1.086295e-05 1.9322579e-05
0.060542423 -6.5065824e-06 0.026676709 0.009666806 0.021203687 -0.06267827 0.034758423 -0.039161745
0.04618679 1.1411198e-06 -0.04451444 -4.582395e-06 8.320509e-08 -0.046464887 -3.9679377e-05 6.192472e-06
0.028374197 -9.848735e-07 0.008123632 1.479094e-05 -2.1454245e-07 3.1299888e-07 -0.013696368 -0.035912756
-3.1878877e-05 -0.052089714 -0.0014547032 -3.6218444e-05 -0.013907451 -0.00040224468 -7.269937e-07 3.2397536e-05
-0.0052254596 -1.1178594e-06 -5.2137915e-07 5.6455457e-07 2.8375288e-08 -0.0025659348 -7.1234335e-06 -7.1850917e-07
-0.010623338 7.142042e-07 3.7068467e-06 0.00015234642 -4.4055053e-08 0.024301589 -6.935176e-07 -0.023088349
0.00096061005 -0.015704563 -3.0142494e-06 1.3347075e-05 -0.00010524473 -6.281684e-05 0.049897578 0.0065574925
-2.2388e-05 0.053308588 -0.04779456 -2.4051516e-05 0.012107754 0.014492078 -0.03075136 -9.015925e-07
-0.0063630687 -2.903413e-06 -1.2358727e-06 -0.036483686 -0.055887148 -0.013838308 0.0011026283 0.0012011271
-0.041880753 -8.390853e-05 -9.312749e-06 -0.041062064 0.0059494446 0.04770838 2.0106735e-07 -0.023612034
5.758746e-07 3.9793307e-05 0.030180717 -0.004089449 -0.046090942 0.0007982198 -7.169215e-06 6.6591097e-06
-0.00046757792 -0.0032702922 0.032707084 -3.2224386e-06 0.020891743 0.045558415 -7.002422e-08 -3.9870956e-06
1.5818667e-06 0.01689636 -0.04694272 0.00023451197 1.7261941e-07 0.0011797954 -0.00013375226 -6.098224e-05
-2.5988475e-05 0.0045270235 -0.017766748 -0.011364285 2.2417632e-06 -3.5792855e-05 0.00018514814 0.015391197
1.0695938e-05 0.054442402 -0.00045345988 -0.005793464 -0.0009706291 -0.017138315 -0.018508246 -0.045288797
-0.044538468 9.918186e-06 0.0093943225 0.053274103 0.03906196 9.91496e-06 -1.1930689e-06 -0.008483784
0.00014633613 -0.05674479 0.0015931537 6.6092946e-07 -4.45766e-06 4.9800823e-05 -0.0012439888 0.040041566
0.0017652919 0.013736279 -6.57399e-07 0.010978192 0.01540052 0.0010976674 0.026060503 -9.980206e-07
0.013804539 -3.7927582e-06 0.008734541 0.059411068 -4.532939e-07 -6.737385e-05 -2.4509522e-05 4.981415e-06
-1.0182469e-05 5.041429e-06 0.029010054 0.008652254 -0.0103698755 7.113427e-06 -1.5093241e-06 -0.010876087
00000000: 7f75 adbc bffd 90b6 5d94 f3b5 b52b b4bb
00000010: cbd6 bcbc 67a4 7b3c 3603 833c 0412 45bd
00000020: c4a4 feb7 3788 a939 2217 623d e844 e43b
00000030: 0fb5 4c3d d404 2737 25f2 963c a243 083d
00000040: 2e1f 5ebd edf3 01bd 0dbd 86b4 0b88 9f3b
00000050: f07d 21bb 1467 4933 3010 0d37 7bd2 ae35
00000060: 5470 8fbb c12d c43b 369a 6e3c e5e2 90bc
00000070: 678a 34b6 0902 0bb7 ebbb e1b6 202e 553d
00000080: 03b4 ceb4 8a6c ebb4 f747 3e3d 25c9 e6b8
00000090: ca45 7735 0680 cf33 7533 d5bc eece 0636
000000a0: f9fb 82bc 474d fbb4 a61d d236 5d3d 95b6
000000b0: 9fa1 1abd 56fa 61bd 3035 a63a dbab 233d
000000c0: 3516 37bd 9ce0 8238 0e44 babc e63a 9637
000000d0: 9954 543d f109 d23c 9638 b5bc 1a47 263c
000000e0: 9b5c 6a3b 2a23 4337 5c83 6f3d 47ee 7db9
000000f0: 9cc7 fe35 9a70 38bb 312b 0136 f9ce bcb7
00000100: 043c 2832 a12d c1bb 647b 86ba 3340 1835
00000110: 9822 30bd acb2 a733 e232 79b2 9306 9db9
00000120: b0a0 3338 b542 9932 708e 983c 45f6 46b2
00000130: 8991 38bc 6fd4 9c3c 6523 fb33 f589 8934
00000140: 6ab7 64bc 1f8f bbb4 5bcc 64bd 2094 9e35
00000150: 9875 1b3b 8761 30bd e66b 5dbc 31e1 a8bc
00000160: bfe2 183d e9ed 1e3d bc38 a933 e03b 5a3d
00000170: 1368 5936 dd0a 71bd 0440 3637 ec16 a237
00000180: 55fb 773d 1e53 dab6 1d89 da3c 8661 1e3c
00000190: 5bb3 ad3c 775d 80bd d95e 0e3d 1168 20bd
000001a0: 5c2e 3d3d 9428 9935 c654 36bd 79c2 99b6
000001b0: 7bae b233 f751 3ebd 686d 26b8 eec8 cf36
000001c0: 0171 e83c ff2f 84b5 fb18 053c 9b26 7837
000001d0: fb5c 66b4 3d0a a834 bb66 60bc 4119 13bd
000001e0: afb5 05b8 065c 55bd bdab beba 42e9 17b8
000001f0: 14dc 63bc 5ee4 d2b9 a026 43b5 97e2 0738
00000200: 553a abbb 5b09 96b5 e7f4 0bb5 e58b 1735
00000210: ebbd f332 3e29 28bb d405 efb6 93df 40b5
00000220: 820d 2ebc bdb7 3f35 24c3 7836 2ebf 1f39
00000230: 0b37 3db3 2014 c73c 2b2a 3ab5 c723 bdbc
00000240: 73d1 7b3a dba6 80bc 6948 4ab6 40ed 5f37
00000250: d6b6 dcb8 89bc 83b8 6761 4c3d 3ce0 d63b
00000260: ddcd bbb7 1b5a 5a3d 3bc4 43bd 3dc2 c9b7
00000270: 9a5f 463c 2e70 6d3c 47ea fbbc f704 72b5
00000280: 4a81 d0bb 41d8 42b6 43e0 a5b5 eb6f 15bd
00000290: ece9 64bd 12ba 62bc 1186 903a 236f 9d3a
000002a0: 278b 2bbd 0df8 afb8 f43d 1cb7 b230 28bd
000002b0: 8ff3 c23b dd69 433d f9e4 5734 066e c1bc
000002c0: cd95 1a35 bde7 2638 8d3d f73c c900 86bb
000002d0: dbc9 3cbd a03f 513a 178f f0b6 5171 df36
000002e0: 3f25 f5b9 6652 56bb ddf7 053d 1341 58b6
000002f0: 2925 ab3c 769b 3a3d 3960 96b3 e4c8 85b6
00000300: 8750 d435 3c6a 8a3c 0247 40bd 54e7 7539
00000310: 4359 3934 5da3 9a3a d93f 0cb9 2ec7 7fb8
00000320: d301 dab7 6d57 943b 928b 91bc 4431 3abc
00000330: 3371 1636 4920 16b8 5324 4239 5c2b 7c3c
00000340: b472 3337 fffe 5e3d 5bbe edb9 19d7 bdbb
00000350: d171 7eba a765 8cbc 9b9e 97bc bf80 39bd
00000360: f86d 36bd 4966 2637 a5ea 193c f235 5a3d
00000370: 6fff 1f3d 6e58 2637 8921 a0b5 92ff 0abc
00000380: ce71 1939 3a6d 68bd 5ed1 d03a ba6a 3135
00000390: 0293 95b6 3ae1 5038 560d a3ba a002 243d
000003a0: 5e61 e73a 210e 613c 1e78 30b5 e0dd 333c
000003b0: 7652 7c3c 9bdf 8f3a d67c d53c baf3 85b5
000003c0: 6f2c 623c 1787 7eb6 521b 0f3c 0559 733d
000003d0: 3d5c f3b4 0f4b 8db8 cc99 cdb7 0726 a736
000003e0: 5fd5 2ab7 8c29 a936 7ea6 ed3c 2fc2 0d3c
000003f0: 69e6 29bc dfaf ee36 fb93 cab5 9d31 32bc

convs.6.weight f4 [16, 16]
8.75319e-06 1.1000557e-06 -0.003304501 1.3130119e-05 -2.3868817e-05 0.05635945 0.00010474204 0.06120864
-2.8279488e-05 4.596459e-06 0.00034900158 -2.0843361e-05 -0.029189292 -0.007924189 -2.565122e-06 -0.00010997709
9.225569e-05 0.0001366423 0.03038896 6.414706e-07 -1.5255986e-06 -0.024775116 -0.022272408 -0.008390471
-5.935017e-06 0.004538321 0.042695247 3.554696e-06 -5.873015e-07 2.6840664e-06 -2.2333156e-08 -8.886354e-06
1.6718653e-06 -4.8612515e-07 -3.134748e-07 7.389458e-05 3.6323095e-06 -0.008309363 -3.567244e-06 1.7381413e-06
-0.0010970853 0.0004786072 3.4769608e-05 -4.275057e-06 -0.0019939686 1.0749586e-06 -0.038831685 -1.04887495e-05
-1.3114276e-06 0.009153943 -1.0886337e-06 1.768197e-05 1.1178851e-06 0.02594694 -0.0016349708 0.008367154
-1.6462036e-05 -0.014779189 -5.608167e-06 -0.0085927015 6.694223e-06 -0.0017455863 -0.016187783 0.029572474
-0.04574942 0.0025919995 -0.04676405 1.06171754e-07 -3.0522884e-08 0.019657029 -3.709086e-05 -4.8155147e-07
-4.9746298e-08 0.007702022 -1.7286949e-08 8.137906e-05 -0.008930561 -0.017804133 0.045302175 -0.021805992
1.6706603e-07 3.6798e-08 0.06009742 3.4655216e-07 -0.025996482 -6.9645694e-07 0.0032804362 0.00021759707
0.035331022 -3.0479972e-09 0.001574271 -0.053663146 0.00014881711 0.0012520021 0.012574443 -0.0066219247
3.8211465e-07 -7.6137576e-07 -0.019622464 -0.030694915 -0.05730503 2.2180737e-08 0.010355178 1.7731968e-06
-5.6010203e-06 1.1059462e-05 -0.011018469 -4.988773e-06 -1.1607371e-07 -0.002398299 0.04070966 -0.027660357
1.6404878e-05 -0.043304853 -1.7616438e-05 -0.0008912286 -4.8965835e-06 -0.00582463 0.012065014 -0.032990932
0.008615326 -0.024658987 0.004262052 -0.0005248695 7.901059e-05 1.4230663e-05 0.0129527785 -3.9150025e-05
-0.04370383 -1.2731084e-06 -0.017236738 0.024195341 -1.5391983e-07 -8.8452794e-07 -0.0030254927 7.1829595e-06
-0.008516152 0.0016730771 0.0048465673 0.0097352555 1.2687661e-06 -0.042768504 0.020662135 2.9602813e-06
8.514269e-06 -7.77654e-06 0.022109713 0.027020482 -4.2133145e-08 0.0017632522 -0.052126464 -1.6120877e-05
-0.044281095 8.110254e-06 -0.019847836 -4.921121e-05 0.018275345 0.05619863 -0.008636934 -0.0054231826
2.62627e-06 0.00019132407 -1.0058501e-06 7.618816e-06 -0.013731728 0.00057938125 0.06042866 -0.0019929856
0.0015824685 0.0021487204 0.031881355 -7.33562e-06 5.4784994e-07 0.022558132 0.0113533465 0.06184794
1.2359521e-06 0.0002121616 0.018186765 -0.01602265 1.8739959e-07 4.5767266e-07 0.012355201 -0.0010018683
-7.358873e-06 0.008468183 -0.049437545 -0.037916873 -0.0031133294 0.012223521 0.0151390415 -0.01647633
7.2247753e-06 -0.0039767716 -0.0013802467 0.040719733 0.0019573332 -7.9425104e-07 -3.0420511e-05 6.8545305e-06
-2.1485037e-05 2.6661419e-06 -0.0077480534 0.014249334 1.2545746e-06 0.0004613704 -0.000106756546 0.0019927484
0.021698227 0.009263348 -5.1744264e-06 0.06116652 -2.0042135e-06 -5.9910874e-08 0.055218607 0.059040666
-0.000551909 0.046896707 4.0067276e-05 -3.614827e-05 0.04241537 -0.0033805587 0.013021669 0.06242146
-0.017218962 -0.007830719 -0.062423073 5.851216e-07 -0.048117567 2.9180112e-06 -5.6832973e-06 0.019182278
0.005535634 0.0054143444 0.00040886033 -0.010292115 -0.030485315 2.7666758e-07 0.055138495 -1.1599536e-06
3.5905443e-06 -0.016016116 -0.002429337 -0.02727762 0.03143487 -2.228327e-08 -0.04406749 6.874685e-06
-3.9513518e-05 1.06626906e-07 9.381873e-06 0.0043832776 -0.053554054 -0.026634313 -6.323391e-07 -0.051298577
00000000: aada 1237 a0a5 9335 5490 58bb 6f49 5c37
00000010: e539 c8b7 2bd9 663d f4a8 db38 e9b5 7a3d
00000020: bd39 edb7 483b 9a36 33fa b639 c7d8 aeb7
00000030: 621e efbc 75d4 01bc 7624 2cb6 80a3 e6b8
00000040: 6579 c138 a347 0f39 45f2 f83c 8631 2c35
00000050: 2bc3 ccb5 2ff5 cabc a074 b6bc 3078 09bc
00000060: 6825 c7b6 32b6 943b 36e1 2e3d 368d 6e36
00000070: 0da7 1db5 e91f 3436 21d7 bfb2 9a16 15b7
00000080: db64 e035 447e 02b5 a64b a8b4 daf7 9a38
00000090: 9ac2 7336 ff23 08bc c964 6fb6 154a e935
000000a0: 13cc 8fba 92ed fa39 95d5 1138 7672 8fb6
000000b0: 3ead 02bb 4c47 9035 f90d 1fbd d6f8 2fb7
000000c0: 4f04 b0b5 6bfa 153c 2b1d 92b5 be53 9437
000000d0: 3d0a 9635 ad8e d43c 844c d6ba 6316 093c
000000e0: f417 8ab7 6924 72bc ca2d bcb6 67c8 0cbc
000000f0: f09e e036 28cc e4ba 3e9c 84bc f941 f23c
00000100: be63 3bbd 89de 293b a98b 3fbd 8a00 e433
00000110: 4418 03b3 c707 a13c 0292 1bb8 f743 01b5
00000120: a2a8 55b3 3e61 fc3b 677e 94b2 0daa aa38
00000130: 7d51 12bc f9d9 91bc c68e 393d 7ba2 b2bc
00000140: c362 3334 d40b 1e33 b628 763d c40d ba34
00000150: 93f6 d4bc 28f4 3ab5 96fc 563b c52a 6439
00000160: 43b7 103d ef74 51b1 c557 ce3a e3cd 5bbd
00000170: ca0b 1c39 381a a43a 0905 4e3c bbfc d8bb
00000180: 7025 cd34 5861 4cb5 4abf a0bc e773 fbbc
00000190: aeb8 6abd f587 be32 c4a8 293c 94fe ed35
000001a0: 66f0 bbb6 078c 3937 cf86 34bc 3c65 a7b6
000001b0: 3244 f9b3 c82c 1dbb 2cbf 263d f997 e2bc
000001c0: 359d 8937 6e60 31bd 03c7 93b7 57a1 69ba
000001d0: 554d a4b6 8adc bebb 56ac 453c 8021 07bd
000001e0: 4c27 0d3c a501 cabc afa8 8b3b 6597 09ba
000001f0: 7db2 a538 3bc0 6e37 e437 543c 0535 24b8
00000200: ca02 33bd acdf aab5 0f34 8dbc 4f35 c63c
00000210: 2945 25b4 4c70 6db5 5847 46bb 2705 f136
00000220: 5587 0bbc 274b db3a f4cf 9e3b 9f80 1f3c
00000230: 794a aa35 072e 2fbd a343 a93c 3fa9 4636
00000240: 82d8 0e37 fc77 02b7 6e1f b53c 0f5a dd3c
00000250: e2f5 34b3 ed1c e73a 8f82 55bd 523b 87b7
00000260: 1860 35bd 4711 0837 ee97 a2bc 2268 4eb8
00000270: 2db6 953c 8930 663d ed81 0dbc f4b4 b1bb
00000280: fa3e 3036 2a9e 4839 bf00 87b5 22a5 ff36
00000290: 0bfb 60bc 9ee1 173a 0b84 773d c09c 02bb
000002a0: d56a cf3a 8cd1 0c3b 0696 023d 7f24 f6b6
000002b0: f60f 1335 d5cb b83c 6303 3a3c 4454 7d3d
000002c0: fee2 a535 b277 5e39 69fc 943c ef41 83bc
000002d0: 0238 4934 0db6 f534 786d 4a3c 1f51 83ba
000002e0: 3dec f6b6 22be 0a3c 067f 4abd b94e 1bbd
000002f0: 0009 4cbb 2a45 483c be09 783c 5ef9 86bc
00000300: 596c f236 944f 82bb 65e9 b4ba bcc9 263d
00000310: 9a46 003b 8434 55b5 8d2f ffb7 f8ff e536
00000320: c43a b4b7 f8eb 3236 62e3 fdbb 0a76 693c
00000330: db62 a835 16e4 f139 7ce2 dfb8 c598 023b
00000340: 7bc0 b13c 4cc5 173c fc9f adb6 bf89 7a3d
00000350: 2080 06b6 5aa8 80b3 e82c 623d a0d4 713d
00000360: fcad 10ba c316 403d e90d 2838 e99d 17b8
00000370: bdbb 2d3d 5d8c 5dbb d758 553c a5ad 7f3d
00000380: c80e 8dbc 6b4c 00bc 56af 7fbd 4011 1d35
00000390: ed16 45bd 0dd3 4336 27b3 beb6 2724 9d3c
000003a0: 4364 b53b d06a b13b 4e5c d639 42a0 28bc
000003b0: 57bc f9bc e788 9434 e7d8 613d b4af 9bb5
000003c0: 15f5 7036 3b34 83bc 8335 1fbb 5175 dfbc
000003d0: dac1 003d 6e69 bfb2 1d80 34bd 18ad e636
000003e0: 51bb 25b8 c3fa e433 d666 1d37 99a1 8f3b
000003f0: 7f5b 5bbd 3430 dabc 03be 29b5 751e 52bd
