Comparisons/GCNII-master/pretrained/d834fe33af4449f6b948ddb59aa6b1a2.pt (torch_old, 85412 bytes, 68 tensors)

convs.0.weight f4 [16, 16]
00000000: 131c abbc 7f4f babc ccee 4d3b c87c b2bc
00000010: fc3f 473b b620 25bb d437 83bb 3f9c d2bb
00000020: cb92 b9bc f766 9e3c 83b7 babc a53e f7ba
00000030: 42b1 a0bc 322c 903a 5cc7 8d3b 6db5 baba
00000040: cd86 adbc 4e9b 943a 32ef b3bb ebe4 0cbb
00000050: ad67 c1bb 1280 bdb9 65b0 01bc 5a4d 66bc
00000060: 29fb b23c 3fe2 c0bb 7a3c 05b9 47c2 013c
00000070: 2530 c3b9 ba0f 983c 8610 b6bc ab36 bb3c
00000080: 7ae5 adbc a669 7e39 bc8b 8dbb e994 1ebc
00000090: 136c 5f3a ff25 b7bc 7016 b0b8 ea3e 60bb
000000a0: 7849 92ba 1f20 693a 7410 fc3b e5fa b7bc
000000b0: d3b1 b1bb afba eabb df0f afbb 0cd9 3cba
000000c0: ef82 053b f3ee 0f3c c2f6 963c 73a8 00bc
000000d0: b604 ac3c 5e1d b9bc d0aa 1c3a d192 003c
000000e0: dcdc 613b 272e 29b9 6749 b1bc ecab 913c
000000f0: 90e9 89b7 a876 803c a148 323b 4682 c6bb
00000100: bc7f 283b cff0 3d3b 4d20 babc 2c4a e53b
00000110: 625e f23b a900 f33b 702c b7bc 9829 a63b
00000120: 2fd3 a3bc f2c5 b93c f2e4 953c 12c6 b03c
00000130: d4a9 733c f38a 013c 99a9 de3b e0ef b9bc
00000140: 4098 97ba 6311 803c 734f 95b9 dde7 01bc
00000150: 3fa7 0bbc 996a 443b af49 a0bb d975 af3c
00000160: 4034 18bb 858d 1c3b 5b43 40bb cffa 093b
00000170: 3383 f1bb 447a 7dbc 64fc 993c 965f 213a
00000180: 283b b3bc 785a b1bb 5b21 d8bb b275 a13c
00000190: ae5a 9e3b c241 21bb 933b 92ba 395a 9a3c
000001a0: 2de9 c0b9 64f9 803c f521 bb3c 959b 1d3b
000001b0: 0e24 ba3c 4a29 3d3c 9ae0 91bc f5c4 c7ba
000001c0: b73a 353b 7d5f ae3c 2b92 5c3c c026 a6bb
000001d0: e648 f239 5ab0 b93c 105a f5bb 43a5 fa3b
000001e0: 3c36 39b9 330f f5bb d515 8138 19eb 793c
000001f0: f126 833c b66a c43b 6e2f bebb 9659 b33c
00000200: 9fc6 babc a7c2 153b b210 bbbc cc8f 473b
00000210: bd19 bb3c 00cf 86bc 7c93 063a 9caf fdbb
00000220: 9320 ba3c 35c0 943c 0c7d ff39 8fa8 493b
00000230: 8b9d 003c f1ff b83c 9963 a2bc b37b 9e3c
00000240: cffa e139 3b9e 32bb 3c7d 983a 5a0f b7bc
00000250: b2a8 b4bc 16f4 b33c f049 25bb e465 f2bb
00000260: 6721 fe38 8933 a53c 8f8a b4bc 0df4 9d3c
00000270: 6a85 36ba 536a cf3b 29c0 8d3b b965 ad3a
00000280: bccc b4bc 59f7 4dbb 328c 733a ba79 b93c
00000290: 0679 fc3b ff37 91ba 0ae7 c6bb 231a bbbc
000002a0: bfc3 50bb 5d58 323b 8185 0fbb 91d4 b2b8
000002b0: c56f 56bb 854e 073b 3ab3 963b 78b6 bdbb
000002c0: 646a a43c 74a6 db3b 6d95 aebc e39f ab3c
000002d0: 6394 4ebb 41c2 963a b5d5 87ba ece1 dabb
000002e0: f014 1e3a 08d1 7b39 c42a f53b 426f fd39
000002f0: 3d4f ba3a 6a5b 27b9 9f3f 223a 69ef dcba
00000300: c05a 41bc 1017 bbbc e086 b339 07d0 513b
00000310: bde2 f038 1ea9 1338 eeda 3ebb 6afd 9bb8
00000320: eafa b43c ac4c efbb d0f9 babc 65ab 003c
00000330: 6e64 9ab8 bbb0 043c a405 143c b06d b73c
00000340: a3e6 8ebb 2d7f b13b 3be1 3ebc ae23 bd3b
00000350: eceb b83c c522 023c 5302 afba f39d a1bc
00000360: 4069 953a 03ae f13a 8046 003c bd17 01bc
00000370: ee01 4e3c aa8e 9cbc fc76 cdbb c3ff 3b3b
00000380: 746c 943c fed9 6ebc 29be a8bc 97af e83b
00000390: 0f15 8a3c 9070 983c cdc2 b73c dfcd a3bc
000003a0: 0032 933b 25f1 babc f91d d539 94e3 14bb
000003b0: dd5f 2638 bfcb a93c 9121 bb3c 63b6 ad3c
000003c0: 20fd 013c a08f 6abb b39e 233b 8615 a83b
000003d0: 662d 6e3a 9c1b 8e3c feab 573c 68eb a23b
000003e0: 32c2 d8ba 2f15 1dbc 7842 81bb 6eaf 9d3c
000003f0: c045 1d3a 6721 88bb bc35 24bb 6dfc a73c
-0.02088741 -0.022742985 0.0031422852 -0.021788016 0.0030403128 -0.00251965 -0.004004458 -0.0064273174
-0.022653004 0.019336207 -0.022792583 -0.0018863274 -0.019615773 0.0010999499 0.004326744 -0.0014244743
-0.021182442 0.0011337788 -0.005491161 -0.002149875 -0.0059022517 -0.0003614431 -0.007915591 -0.014056528
0.021848278 -0.0058863456 -0.00012706398 0.0079198545 -0.0003722917 0.018562187 -0.022224676 0.022853216
-0.021227587 0.00024262685 -0.004319636 -0.009679058 0.0008522879 -0.022356985 -8.396513e-05 -0.0034217187
-0.0011160811 0.0008893031 0.007692391 -0.022458503 -0.0054228096 -0.0071633677 -0.005342468 -0.00072039734
0.0020372232 0.008784997 0.01842821 -0.007852661 0.02099834 -0.022597011 0.0005976381 0.007847504
0.0034463918 -0.00016134289 -0.021641446 0.017782174 -1.6440434e-05 0.01568158 0.0027203935 -0.0060580103
0.0025710901 0.0028982644 -0.02272048 0.0069973674 0.007396505 0.00741585 -0.022360057 0.0050708763
-0.019998161 0.022677395 0.018297646 0.021578822 0.014872033 0.007906663 0.00679512 -0.02269739
-0.001156576 0.01563329 -0.0002847869 -0.007928816 -0.008523761 0.0029970764 -0.0048915963 0.021418499
-0.0023224503 0.0023888063 -0.0029337022 0.0021054035 -0.0073703765 -0.015471045 0.018797107 0.0006155906
-0.021878794 -0.005412396 -0.006595773 0.019709442 0.004832587 -0.0024605845 -0.001115667 0.01884185
-0.00036794823 0.015743919 0.02284334 0.0024049033 0.02272227 0.011545489 -0.017807294 -0.0015241193
0.0027653405 0.021285767 0.013462584 -0.0050705373 0.0004621215 0.022667099 -0.007487543 0.0076490953
-0.00017663179 -0.0074786185 6.155266e-05 0.015253806 0.01600978 0.0059941662 -0.005803994 0.021893304
-0.022799788 0.0022851618 -0.02283511 0.00304507 0.022839421 -0.016456127 0.0005133671 -0.0077418815
0.02272061 0.018158058 0.00048730557 0.0030770635 0.007850061 0.02258298 -0.019822882 0.019346094
0.0004310221 -0.0027254957 0.0011634002 -0.022346187 -0.022053096 0.021966975 -0.0025221072 -0.0073974
0.000121178855 0.020166175 -0.022038726 0.019281412 -0.0006962629 0.0063298135 0.004325886 0.0013229168
-0.022070281 -0.0031427948 0.0009290605 0.022641052 0.007704857 -0.001107931 -0.0060700225 -0.022839611
-0.0031854955 0.0027213313 -0.0021899643 -8.527295e-05 -0.0032720428 0.0020646167 0.004599002 -0.0057895742
0.020070262 0.0067031924 -0.021311486 0.020950263 -0.003152155 0.0011501984 -0.0010363372 -0.006679764
0.00060303416 0.00024015096 0.0074819047 0.00048338814 0.0014214289 -0.00015960415 0.000618929 -0.0016856018
-0.011801422 -0.022838145 0.0003424203 0.0032014863 0.00011486325 3.5205034e-05 -0.0029122191 -7.438178e-05
0.022092301 -0.007302841 -0.022824198 0.007853364 -7.361999e-05 0.008098776 0.009034548 0.02239117
-0.00436099 0.005416772 -0.011650379 0.0057720756 0.022573434 0.00794286 -0.0013352133 -0.019728636
0.0011399165 0.00184387 0.0078293085 -0.007879195 0.012573702 -0.019110996 -0.0062702876 0.0028686381
0.01811812 -0.014578341 -0.020598488 0.00710101 0.016855745 0.018608361 0.022431755 -0.019995628
0.0044920444 -0.022820065 0.00040648857 -0.0022718655 3.9666764e-05 0.020727037 0.022843154 0.021205133
0.007933885 -0.0035791174 0.0024966418 0.005129519 0.00090857444 0.01734715 0.013163565 0.0049719103
-0.0016537367 -0.00958757 -0.0039446913 0.01924869 0.0005999468 -0.0041543725 -0.0025056442 0.020506108

convs.1.weight f4 [16, 16]
00000000: 9743 5dbb d567 893c 8dd5 233b 6467 ce3b
00000010: 2858 94bc 903c ac3c 5005 97bc 297b a5bb
00000020: 0fff ef3b 1062 acbc fa64 a3ba 1eac 4bba
00000030: f41e 503b 198f ba3c e9a0 933b 6baa 953c
00000040: bb3c 23bc 6fe9 a4bc 7a24 aabc bf83 483b
00000050: 2b41 b93c 4b05 52bb fe2d 2cbb 2326 943c
00000060: 06e1 513b 2d72 fd3b 718b 8539 9643 63bb
00000070: f955 01bc f8ff 6dbb fc74 a83c 9e19 b9bc
00000080: 9cc6 babc 2830 54ba cd58 2db9 759f 01bc
00000090: 950a b63c 6601 9f3c 7eb2 f23b 6c33 143b
000000a0: e228 473c fa29 db37 8e59 a5bb 4f76 8abb
000000b0: 51a9 37b7 e4d4 413b d34d c2bb a1cd 96bb
000000c0: b437 b83c 82dd babc c72d 02bc 6d83 b8ba
000000d0: 5691 c8bb 4f85 b1b8 27aa aebc b9bc c13b
000000e0: 82b7 ba3c d969 013c dfed a8bc b4af daba
000000f0: a578 70bc 6c01 99bc 8d4a 7aba 0921 2bbb
00000100: 77cc 883c 4300 323b 0391 a1bc 7db0 c73a
00000110: 56ec 363c d1f9 b53c b8e4 803c a87b 983c
00000120: 00b7 ad3c 843e 2a3b 7add 76bc 4337 d2b8
00000130: 4edf a93c d3ff b53c fa0b 443b 921f a33c
00000140: b674 36ba 101e 943b f3d8 bcbb 83d2 2438
00000150: 12bf 4739 0694 463b fee3 0cbb 411f b83c
00000160: c839 b73c 4837 533a 1039 a2bc a869 8bbb
00000170: e907 723c 271e 3abb 8997 03ba 3898 0cbb
00000180: 79ad a9bc f6b1 4bbb 3c20 963c ffc3 9cb9
00000190: f5a5 09bc 2ec5 bd39 767c d93b 934e a7bc
000001a0: e3b0 f5bb 648c 923b dd59 b63c 06e6 1a38
000001b0: 58ee e13b 567a 51bb 3031 12bb dc0c a93c
000001c0: 1835 ae3c 8f69 a2b9 d02c b4bc bcfe adbb
000001d0: 370e c03b 2737 81ba 69bd 9f3c 2663 8cbb
000001e0: 44fe 7dba 6aa3 e6ba ef29 babc 8054 b23c
000001f0: d3e4 6dbc b0fa 8e3c 93e0 f53b 0fec babc
00000200: ca05 bd38 81a5 b4bc bf2e bb3c ebdd fcbb
00000210: 2d3a c4bb 8da0 4c3b cf45 2b3b 9de1 febb
00000220: 9815 85bc 3be1 6c3b 3243 803b e081 6f3b
00000230: 94cf b73c af85 deb8 11a9 c43a 517b bfbb
00000240: 7edc 1839 5391 77bc 30d8 83b8 d563 9538
00000250: 8a6a 2a3b be8e b53c c1f3 ab3c 4f22 98bb
00000260: 7b04 03bb 9309 463b 6b6e 81ba 8b97 02bc
00000270: 5445 a7bc 7f09 ca3b d678 93bc b09f 89bb
00000280: 7750 01bc 2f3f ed3b 8478 6a3c dde1 573c
00000290: 9213 ccb8 55c4 eabb e77b a53c 8d46 e7bb
000002a0: 7177 b6bc 3c6e 013a 1b2f d739 645d b03c
000002b0: 0e85 e8bb eaf8 0ebb eda9 a83b 9bc7 5dba
000002c0: b39d 01bc 0529 4ebb 7dbf b43c 9ccd 35bc
000002d0: d747 00bc 9f53 0e39 b099 0f3b 31b5 1a3a
000002e0: b837 0abb 76fd 9abc a014 ab38 f9a7 b0bc
000002f0: b60e a4bc d61d 80bb 272f 9c3c e507 b6bc
00000300: ff79 b1bc d9f6 aa3c b18b c837 82d7 983c
00000310: f7da b83c 38bc faba 2d72 adba 42aa 41bb
00000320: ab4e 533a 2572 b1bc 2ab4 a03a 6566 dc3b
00000330: db42 d137 6c91 3fbb 0425 cf3b 1504 903c
00000340: ad15 f73b a4cf e0ba 932f ba3c 7733 fd3a
00000350: 69f8 a2bc b729 bbbc e8c8 b7bc a876 d1bb
00000360: 1106 a8bc 4fd5 95ba 1fdc 1a3b b245 333b
00000370: 2fa9 81ba 8981 763c 10b8 79bb e56b 2cbb
00000380: 6d73 ae3a 3b68 00bc 4e05 d73b 72ae 943a
00000390: 831a da3b 29e3 533c 7f26 2e3a 657e 9eb8
000003a0: f2b9 b3bc 1f2b 9fbc 3e93 ea3a fe77 c13b
000003b0: 370e 50bb a978 1339 8758 efb7 4554 0239
000003c0: 1ea2 f53b d276 afbc 9c83 f03a d1a6 fbbb
000003d0: 8efb 373b d9f5 8abb fcc5 cdb8 951f a4bc
000003e0: 2116 b1bc 005e c43b 402c 9f3c 836b 663a
000003f0: 3ffe 4e3b 6562 9a3a 50b4 93b8 92c2 b23c
-0.003376221 0.016773144 0.0024999112 0.006298946 -0.018108442 0.021024972 -0.01843515 -0.005050082
0.0073241065 -0.021042854 -0.0012466006 -0.0007769483 0.003175673 0.022773312 0.004505266 0.018269738
-0.00996321 -0.020130841 -0.020769347 0.0030596105 0.022614082 -0.0032046612 -0.002627253 0.018084591
0.0032024994 0.007734558 0.0002547163 -0.0034677736 -0.007894033 -0.00363159 0.020563595 -0.022595223
-0.022799782 -0.0008094334 -0.00016531647 -0.007911553 0.022221843 0.019409847 0.007406532 0.0022613658
0.012155743 2.6126381e-05 -0.005046076 -0.0042255293 -1.0947072e-05 0.0029576356 -0.0059296875 -0.0046021496
0.022487499 -0.022810701 -0.0079454845 -0.0014077254 -0.006120841 -8.464848e-05 -0.02132137 0.00591239
0.022792581 0.007898771 -0.020621238 -0.0016684444 -0.014677201 -0.018677436 -0.0009547852 -0.002611222
0.016699059 0.00271608 -0.019722467 0.0015235093 0.011164745 0.022213848 0.015734062 0.018613651
0.021205425 0.0025977204 -0.015067453 -0.000100238736 0.020736363 0.022216713 0.0029914365 0.019912515
-0.00069601403 0.0045201853 -0.005763167 3.92967e-05 0.00019049298 0.0030300631 -0.0021498199 0.02247584
0.02236642 0.0008057249 -0.0198026 -0.0042545386 0.014772394 -0.002839932 -0.0005019834 -0.0021453034
-0.020712601 -0.0031081415 0.018325917 -0.00029900667 -0.008401384 0.000361958 0.0066371514 -0.02042321
-0.007497893 0.0044723023 0.022259647 3.6930687e-05 0.006894868 -0.0031963787 -0.002230715 0.020636015
0.021265551 -0.00030977695 -0.021994025 -0.0053099077 0.0058610695 -0.0009858356 0.019499497 -0.0042842804
-0.00096890726 -0.0017596309 -0.022725074 0.021768808 -0.014519888 0.017453521 0.007503578 -0.02281764
9.0133006e-05 -0.022051575 0.022849439 -0.0077168844 -0.0059883804 0.0031223625 0.0026134138 -0.00777836
-0.016245648 0.003614499 0.0039142603 0.0036545917 0.022437848 -0.000106106854 0.0015003999 -0.005843558
0.0001457799 -0.015110332 -6.286835e-05 7.123469e-05 0.0026003444 0.022162791 0.020990254 -0.004642762
-0.0019991684 0.003021811 -0.0009874826 -0.007970701 -0.0204188 0.006165683 -0.018001955 -0.0041999444
-0.0078927195 0.007240198 0.01431096 0.013176409 -9.731123e-05 -0.007164518 0.020200683 -0.007057971
-0.022273751 0.00049373857 0.00041043092 0.021528907 -0.0070959395 -0.0021815845 0.00514721 -0.00084602245
-0.007911134 -0.0031457555 0.022063965 -0.011096384 -0.007829628 0.00013573327 0.0021911673 0.00059016334
-0.002109034 -0.018919688 8.157757e-05 -0.02156447 -0.020026546 -0.0039098067 0.019065453 -0.022220561
-0.021664618 0.02086966 2.3906907e-05 0.01865745 0.022565348 -0.001912958 -0.001323288 -0.0029550944
0.00080607337 -0.021660874 0.0012260724 0.0067260736 2.4945874e-05 -0.0029230965 0.0063215513 0.017580071
0.0075404258 -0.0017151725 0.022727763 0.0019317706 -0.019893842 -0.02284704 -0.022434667 -0.0063923188
-0.020510705 -0.0011431369 0.0023629738 0.0027354774 -0.000989234 0.015045532 -0.0038104095 -0.0026309427
0.0013309546 -0.0078373505 0.0065619117 0.0011343493 0.0066559925 0.012932577 0.00066433096 -7.55757e-05
-0.021939252 -0.019429741 0.0017896665 0.0059041968 -0.0031746754 0.00014063962 -2.8532244e-05 0.00012429159
0.0074961325 -0.021418963 0.001834977 -0.007679798 0.0028073522 -0.004240733 -9.812039e-05 -0.02003459
-0.021616997 0.005992651 0.01943028 0.0008789824 0.0031584648 0.0011778591 -7.043092e-05 0.021821294

convs.2.weight f4 [16, 16]
00000000: 45df 463b fcbb aa3c 39c3 363c 3848 ba3c
00000010: b18b babc f6b2 a93c 8296 a7bc ac60 0b38
00000020: da37 bfb9 ecdc 2abc 0471 bf39 e044 2ebc
00000030: 3fde 98bc 5cad ba3c 5a11 ff3b 407e bbba
00000040: 120e 48bb 80b1 9b3a 0f29 34ba 2d74 90bb
00000050: 1d38 6fba 6d86 a8bc cb7d 72bc 3f33 e737
00000060: 46eb ab3c c07e 9d38 420c 7f3c aa15 b8bc
00000070: 29ed 0b3c 9475 f8b7 1ac8 503b 266f 3bba
00000080: 25c3 abbc 891f aeb9 f7aa b5bb 084b afbc
00000090: ad0e b7bc f680 c4bb 6031 513b ee4a 8e3b
000000a0: c529 433a e495 b03b 73a4 4d3b 5f47 7b3c
000000b0: ad93 013c 7ee4 803a fa86 dd3b 6514 95bc
000000c0: a6a7 80bc e959 a9bc 7951 eeb7 c313 bb3c
000000d0: 3da0 8c3c ade3 233c 616d b93c 84a0 2cbb
000000e0: 15f1 b13c 697a b13c c55c f63b d1c2 983c
000000f0: 4672 173c 1da1 fb3b c69c babc 2836 d7ba
00000100: 8991 77ba 4397 23ba ad34 5dbb 3e4d a6bb
00000110: 9e72 1bbc d779 ba3c abe5 b039 ea3e b9bc
00000120: 8f3c 49b9 998f 59ba 4ae4 c03b 9a65 55ba
00000130: ebca 2fb7 5f55 32bb d2aa 003c bc7c babc
00000140: 0be6 aa3c 9ecd 88b7 43ff 36bb 1c7a b33c
00000150: 0e1f 3a37 41a3 b93c f4c6 8abc 1b25 9b39
00000160: 67ae 993a 3baa 0e3a 5ce2 a93c 7419 00bc
00000170: 8f0c 053b 122d bb3c dd07 3c3c c0c2 d8b9
00000180: 6a29 a9bc 6c4e a2bc 1fab 3cbc 5a29 f53b
00000190: e3ad 583c d55b babc 4c2f d63b 1532 44b8
000001a0: 0416 953a 8256 b63c 78c1 a7bb 59a3 a3bc
000001b0: f482 2c3b d8a9 8bb8 bc2e ba3c d0d1 5d3b
000001c0: 6067 57b9 ba12 243c be0d 62ba e6f5 003c
000001d0: 1f9e 9c3c de2a ce3a bb5b 623c bc01 7abb
000001e0: ba5e fb3b 4a55 b4bc 80fb 3c3a 796a 02bc
000001f0: 7dd5 b53c 2967 a3ba e702 ba3c 0002 583b
00000200: e61f 2abb 8f27 ad3c a554 babc cb36 2ebc
00000210: de50 9c3c 4488 99bb 028d 913b 5538 2f3b
00000220: 0efd 6a38 afad d3bb ae41 b6bc 9f7a 5a3b
00000230: b819 babc da79 d9b6 b465 1fbb ea74 b0bc
00000240: 1696 89b9 1008 933b 6b5f 10ba 4bb6 b7bc
00000250: fc07 a23c 6f8b 52bb 465f 9a3c fb0a c439
00000260: b7d9 ed3b 023d f038 96f7 f33b a8ea 73b9
00000270: 8bb2 32bb 1592 b33c bdf1 93ba a003 e03b
00000280: 0cde 93bc 1e6d f43a 5700 9b3c 4af1 acbc
00000290: ef09 513b 3114 453b 93d4 b43c a9d3 4dba
000002a0: f82f 90bc f6f1 9f3a 852b c13b b7a2 2d3b
000002b0: 0cf5 80bb dbea b3bc e3af ba3c 7fe2 63bb
000002c0: 2d58 a23c dc6c 01bc ea66 5f3b 6397 a3bc
000002d0: 5c44 9438 7ca6 9bbc d953 0abb 7bcd afbb
000002e0: b8ee b5bc 3aa2 babc 85fe 5f3b 8256 b2bc
000002f0: 0ea5 09bc 2c62 b2bb 6ea4 9abb 13d2 ba3c
00000300: eb11 1cbb 579b b73c ecdc fa3b 6046 633b
00000310: 54a5 ba3c 33bb 4bba f165 c738 6e72 c93b
00000320: aa6e a2bb 5cc2 943c bfe3 b2bc c2ce babc
00000330: 03dd 013c 06aa b33c 7be2 dcbb 27b1 5fba
00000340: a806 053b 5a70 7cbb 7a4d e63b f3c4 b3bc
00000350: 2cfe f5bb e2c7 ae3b 2205 d73b 1863 ba3c
00000360: 9d56 a03c 3317 6fba 1017 82bc 5432 ab3c
00000370: 7c88 ba3c ba9f 64bb 49b2 a3ba 1e2f b9bc
00000380: f0ac a73c 8060 9d3c e4ae c53a 2498 babc
00000390: 5579 f9bb 605c 583a 6cfe 9a3b 2de5 a8bc
000003a0: 18ce 4a3c 8cf5 cebb 4178 8bbc aab4 813c
000003b0: d1e2 243b 9d73 9cbc 91a9 613b 0545 883b
000003c0: 0ee8 f8bb f448 2b39 ae69 b3bc 02ae ff3b
000003d0: be4b 1a39 fbc4 9e3b 38ca 853c 36e1 9fbc
000003e0: 9809 39bb 4203 3f3b 7ea6 773a 8bd3 533c
000003f0: 6c37 9b3c f7f1 7ebb b438 b5ba c652 ad3c
0.0030345481 0.020841591 0.011154943 0.022739515 -0.022771688 0.020715218 -0.02045751 3.3230215e-05
-0.00036471972 -0.010428648 0.00036514562 -0.010636538 -0.018660663 0.022787742 0.007784051 -0.0014304593
-0.0030525965 0.0011878461 -0.0006872573 -0.0044083805 -0.0009125488 -0.020571912 -0.014800499 2.756121e-05
0.02098621 7.5099524e-05 0.015566887 -0.022471268 0.00854043 -2.9618655e-05 0.003185755 -0.00071500463
-0.020967076 -0.00033211362 -0.0055440622 -0.021398082 -0.022345865 -0.0059968187 0.00319203 0.0043424284
0.0007444884 0.005388962 0.0031378537 0.01533684 0.007908744 0.0009833721 0.006760475 -0.018198201
-0.015704941 -0.020672755 -2.840975e-05 0.022836572 0.017166251 0.010003013 0.022635164 -0.0026340792
0.021721402 0.021664815 0.007518383 0.018647583 0.0092435535 0.0076791183 -0.022779834 -0.0016419338
-0.00094439887 -0.00062404963 -0.003375332 -0.005075126 -0.009487776 0.022763176 0.00033740452 -0.022613008
-0.00019191414 -0.0008299291 0.005886589 -0.0008140445 -1.0478058e-05 -0.002721153 0.007853227 -0.022764556
0.020861646 -1.6308211e-05 -0.0027923144 0.021908812 1.1093694e-05 0.022660853 -0.016940571 0.0002959155
0.001172495 0.00054422364 0.02073782 -0.0078185685 0.0020301675 0.02284864 0.011476484 -0.0004134383
-0.02064963 -0.019812785 -0.011515408 0.007481736 0.013225052 -0.022748867 0.0065364 -4.6776684e-05
0.0011374359 0.022258047 -0.005119499 -0.019975351 0.0026323171 -6.659672e-05 0.022727363 0.0033846982
-0.00020542508 0.01001423 -0.00086232636 0.007871127 0.019118367 0.0015729328 0.013815816 -0.0038148006
0.0076712044 -0.022013325 0.0007209107 -0.007959955 0.022196526 -0.0012466657 0.022706462 0.0032960176
-0.0025958954 0.021137027 -0.02274544 -0.010633181 0.01908153 -0.0046854336 0.0044418583 0.0026736457
5.6025623e-05 -0.0064599137 -0.022248115 0.0033337248 -0.022717342 -6.4812893e-06 -0.0024322094 -0.021540124
-0.000262425 0.004487045 -0.00055073824 -0.022425791 0.019779198 -0.0032126566 0.018844258 0.00037392214
0.0072586196 0.000114554554 0.007445286 -0.00023261702 -0.0027267064 0.021920243 -0.0011287254 0.0068363696
-0.018050216 0.0018648242 0.01892106 -0.02111115 0.003189679 0.003007185 0.02207402 -0.0007851669
-0.017600998 0.0012202847 0.0058950805 0.002649469 -0.003935462 -0.021962574 0.022788947 -0.0034772453
0.019817436 -0.007899489 0.0034088441 -0.019969648 7.069923e-05 -0.019000284 -0.0021107106 -0.0053650714
-0.022208557 -0.022782434 0.0034178805 -0.021769766 -0.0084011685 -0.005443832 -0.0047193086 0.02280525
-0.002381439 0.022412939 0.0076557305 0.0034679398 0.022783913 -0.00077717303 9.5080475e-05 0.0061476743
-0.00495704 0.018159084 -0.021837113 -0.022803668 0.007926228 0.02193166 -0.0067408658 -0.00085331727
0.0020298157 -0.0038519115 0.007028279 -0.021944499 -0.0075071063 0.0053338865 0.006561891 0.02275233
0.01957255 -0.00091205834 -0.015880138 0.020898022 0.022770159 -0.0034885244 -0.0012489046 -0.022605475
0.020468205 0.019211054 0.0015082029 -0.022777624 -0.007613341 0.0008253511 0.0047300365 -0.020617092
0.012378238 -0.0063158926 -0.017025115 0.015833218 0.0025159607 -0.019098097 0.0034433345 0.0041586184
-0.0075960224 0.00016335008 -0.021900978 0.007802726 0.000147148 0.0048452592 0.016331777 -0.019516569
-0.0028234478 0.002914623 0.00094471115 0.012928854 0.018947326 -0.0038901547 -0.0013826103 0.021157634

convs.3.weight f4 [16, 16]
00000000: 878c 483c b5b6 97bc 2ae8 fb3b 476e 013c
00000010: 180e f93b f9e6 e8bb 37af 9cba b0a8 953a
00000020: ee49 823c 0a8f 2fb9 d7b3 aeb9 3527 5dba
00000030: 924e 9e3a 1ee4 01bc 7471 edba 6b83 f63b
00000040: ab13 ecb8 c715 963c 5e4b ed39 048b 43bb
00000050: 4f7b feba 8e21 a3bc c94d d2bb 50ee 77bc
00000060: bc4a 073b e9cd ba3c 4070 4abc 653f b23c
00000070: c169 373b 5981 39b9 c289 753c 5346 9dbc
00000080: 1280 1d3b 56f4 013c 82e6 b73c 6926 a9bb
00000090: 6d1c 43bb e3e5 a93c db2c 9c3a e673 873b
000000a0: 0ddd babc 8c50 123c 4adc 63bb e519 f3ba
000000b0: 6a01 68ba 9075 fe3b eb11 13bb ff2d 533b
000000c0: c9f1 41bb 8202 a0bc 0184 dc3a 5788 92bc
000000d0: d1d2 773b 866b b9bc 69ef 8d3b 3b19 59bb
000000e0: ac3f 4fba 9f6f 16b8 1e23 00bc 6054 973b
000000f0: 4dba 303b 2686 dfbb fa09 07bc dba7 24ba
00000100: 9b1a ba3c 7fad 1d3b 1531 993c 96ee 4b3b
00000110: 188f 703c dc5b 1e39 a52d 53bb 6be0 0f3b
00000120: 334d 3c3a 1984 9d3c 1cc3 943c f434 b53c
00000130: 30c4 0bbb ab10 e9bb 9191 a13a 05fd b73a
00000140: ee68 ac3b c8f4 b2bc f49f df3b db81 01bc
00000150: d651 ad3c 5860 e53b 24a7 53bb 589e fa3a
00000160: c4ba 6dbc 0667 ff3b c2ae acbc 0ca7 a8bc
00000170: 8219 41bb bfc2 9b3c 88d4 b7bc 2de6 a1bb
00000180: 7ebd a6bb 40b3 babc 38d5 aebc 1360 093b
00000190: 9131 beb7 24ef ba3c a0e1 5239 8505 a5bc
000001a0: 0637 0dbb 8cf9 57b9 d70b 363b 33b7 ccbb
000001b0: 1659 f1bb 684e 00b8 ae2b 53bc 033f 2d3a
000001c0: c5c7 eb3b 12c6 003c 59c0 2c3a 43e8 2fbc
000001d0: 0b1f 2dbc 9835 b0bc d936 adbc 702c 0a3b
000001e0: 610e bb3c f9b5 92ba e30a b0b6 144c cc3a
000001f0: ea7a f7b8 3376 a338 0369 9cbc 3874 473b
00000200: dee1 d8bb 91e1 00bc ae00 293b 22e9 ffbb
00000210: 8fd0 b6bc 883e 47b9 d81a b6bc 2170 3b37
00000220: 84dc 21bb 81a6 c73b 41d2 a93c df77 b7b9
00000230: 2172 57b7 15a6 663b 722b af3c de02 b9bc
00000240: 24f3 b7bc 0c16 bc3b c1fd a6bc ce47 02bc
00000250: ff3d 5839 efe6 f93b bdfc c7b9 bf44 0c3b
00000260: 33c2 b93c b6bf 92ba 7ed7 063c 3590 8ab9
00000270: b12b 9ebc 40de 31bb 5426 60bb 7e73 05bc
00000280: ef5b edbb ebbc 6739 ea2c aebc fa3b 01bc
00000290: ffc0 943c 1d9b 5f3b 9275 b639 d572 a1bb
000002a0: e6f9 6fba eac4 013c 4278 97b8 6887 7fbb
000002b0: 567c af3c 30b2 5dbb 0545 fbbb 2b86 8fbb
000002c0: 6643 b63c cb5b 48bb fdbe 9e3c f10e b03c
000002d0: 98a0 b83c c994 fe3b 2511 033c c28b 00bc
000002e0: e68e b1bc 4aea abb9 d114 a1bb e8b8 a83c
000002f0: 41b1 953c 1715 f9bb 01cb b9bc f0c5 9ab9
00000300: f6bf a43c 3a48 2037 f868 af3c 4848 4e3b
00000310: f02f 123a 7cd5 babc 3eea 3b3b e1ca e139
00000320: 3b3e 9e36 fef5 41ba 2651 013c 6aa8 013c
00000330: 9243 92ba 02ba 00bc 5d30 bbbc 7b87 9fba
00000340: 0025 00bc 202d 2cbc 5b6a b8bc 163e 94bc
00000350: 2452 bc3a f3f0 b9bb b621 fe3a 3424 bbbc
00000360: 2157 9b3c a37d 3cba b40e 803c ce92 d5ba
00000370: f45d 003c ac6d 2e3b c89b 4739 580c d43b
00000380: a9b5 92b8 c8db ba3c 0599 b5bc 182a 20bb
00000390: b21f df37 2183 c2b9 5716 6fb8 b7e3 ab3c
000003a0: 2c66 c53b e485 cebb 6efd 76ba 2ca2 42bb
000003b0: 5f4f 21ba 6f5e bebb ebce afbb 2b37 f7bb
000003c0: c26b fdbb 196d 843a b10f eeba bc56 b73c
000003d0: afa8 083c 1b26 df38 ec0f 983a 32c0 2abb
000003e0: 492d 8d3c 0d29 773b 208f 8fbb 0afd 43bb
000003f0: cce1 ae3c fd54 fdbb 05fe ba3c f71a 373c
0.012240536 -0.018519739 0.007687588 0.007899827 0.007600557 -0.007107612 -0.0011954074 0.0011418071
0.015904393 -0.00016742587 -0.00033321857 -0.0008436323 0.0012077859 -0.0079279225 -0.0018115477 0.0075229905
-0.000112570204 0.018320931 0.00045260316 -0.0029837498 -0.0019415411 -0.019913461 -0.006417964 -0.015132502
0.002064391 0.022803264 -0.012355864 0.021758744 0.0027986618 -0.0001769116 0.014986457 -0.019198572
0.0024032635 0.007931789 0.022448782 -0.0051620496 -0.0029771582 0.020739501 0.0011915223 0.004133689
-0.022810483 0.008930337 -0.0034768754 -0.0018547146 -0.00088503084 0.0077654794 -0.00224411 0.003222346
-0.0029593578 -0.019532446 0.0016824008 -0.017887278 0.0037814865 -0.022634279 0.0043315184 -0.003312661
-0.0007905911 -3.5866742e-05 -0.007820873 0.0046182126 0.0026966513 -0.0068214117 -0.008242125 -0.0006281116
0.022717765 0.002405971 0.018700162 0.003111755 0.014682554 0.00015102274 -0.0032223251 0.0021953832
0.00071831344 0.019228028 0.018159442 0.022119977 -0.0021326654 -0.0071125827 0.0012326707 0.0014037198
0.005261532 -0.021845236 0.006824488 -0.007904495 0.021157186 0.0070000105 -0.0032295668 0.0019120676
-0.01450986 0.007794264 -0.021079425 -0.020587467 -0.0029464667 0.01901376 -0.02244021 -0.004940769
-0.005088507 -0.022790551 -0.021341905 0.0020961806 -2.2672846e-05 0.02281911 0.00020111213 -0.020144233
-0.002154769 -0.00020596961 0.0027778053 -0.006247425 -0.007365356 -3.05906e-05 -0.012888832 0.0006608816
0.0071954452 0.007859724 0.00065899413 -0.010736528 -0.010566483 -0.02150993 -0.021144317 0.0021083616
0.022834005 -0.0011193148 -5.246476e-06 0.0015586638 -0.00011800772 7.794462e-05 -0.019093042 0.0030434262
-0.0066187223 -0.007866279 0.0025787759 -0.007809774 -0.022316245 -0.00019001414 -0.022229597 1.1172176e-05
-0.0024698088 0.006092847 0.02073014 -0.0003499379 -1.2841571e-05 0.0035194207 0.021383021 -0.022584375
-0.022454806 0.005739933 -0.020384671 -0.00795169 0.0002062246 0.0076264064 -0.00038144542 0.002140328
0.02267561 -0.001119605 0.008230088 -0.00026428854 -0.019307943 -0.0027140528 -0.0034202533 -0.008145211
-0.0072436254 0.00022100254 -0.021261651 -0.007887835 0.018158434 0.0034119554 0.00034801342 -0.004927019
-0.0009154364 0.007920483 -7.222641e-05 -0.003899062 0.021421593 -0.0033828132 -0.00766814 -0.0043800077
0.022248935 -0.003057229 0.01937818 0.0214915 0.022537515 0.0077692014 0.007999693 -0.007845821
-0.021674585 -0.0003279022 -0.0049158116 0.020595983 0.018272998 -0.007601391 -0.022679808 -0.00029520644
0.020111065 9.55356e-06 0.021412358 0.0031476188 0.0005576601 -0.022806875 0.0028673555 0.000430665
4.7160115e-06 -0.00073990214 0.007892882 0.007913688 -0.0011159054 -0.007856848 -0.02285021 -0.0012171114
-0.0078213215 -0.0105088055 -0.022511652 -0.018096011 0.0014367742 -0.0056744753 0.0019388709 -0.022844411
0.018962445 -0.0007190352 0.015632011 -0.0016294362 0.0078349 0.0026615663 0.00019036152 0.006471198
-6.995659e-05 0.022809878 -0.022167692 -0.0024439152 2.659843e-05 -0.00037100262 -5.7002846e-05 0.020982606
0.0060241427 -0.006302582 -0.0009421919 -0.0029698713 -0.000615349 -0.005809597 -0.0053652427 -0.0075444183
-0.007733793 0.0010103314 -0.0018162635 0.022380225 0.008340999 0.00010640566 0.0011601425 -0.0026054499
0.017233508 0.0037713677 -0.0043810755 -0.0029905462 0.021347903 -0.0077310787 0.022826204 0.0111758625

convs.4.weight f4 [16, 16]
00000000: 03b2 4bbb 1b15 94ba 791e f83b c53d d13b
00000010: 2c52 733a b91b 083c 9f67 323b bd07 eabb
00000020: 7564 1f3b 97c2 ba3c 298c 31b8 f9f4 a8bc
00000030: f7dc 843b 9f90 1b3a 93f4 96b8 9a05 79b9
00000040: f69b b63c ca9f b1bc 3726 1a39 0814 3ebb
00000050: c9e0 01bc 0360 b1bb 95a0 9f39 1e2f f03b
00000060: d301 52bb c839 8ebb 1106 a0bc b1a3 9bba
00000070: c610 153c 57e3 b1bb f9ae 99bc 5f85 c539
00000080: 39ca 97ba 932c ffbb f047 d53a 03f3 ba3c
00000090: 8657 b43c b06f cbbb 9b2b bbbc 73ef a6bc
000000a0: 3647 983c e292 b4ba 3320 203c 8f55 f3bb
000000b0: 9c18 98bc 6887 aebc 2253 97bc 5f31 2bbc
000000c0: 7ae9 bf38 4277 c43b 1b79 debb 644f ec3b
000000d0: e516 84bb 72b8 3db9 4b6f ba3c 4bae dc3a
000000e0: b0e0 5eb9 d493 b1bb 8035 403c 128d b63c
000000f0: dc8f 84b5 45c7 50bc 4b80 b4bc dd9b c5bb
00000100: 4b70 7cba 3c5e 973c 9cfc f93b 051a 65bb
00000110: 7610 bb3c f64b df3b d940 bbbc fb74 60b8
00000120: 68c6 033c 0b01 b9bc 3887 f63b 5232 65bc
00000130: 02ad 783c 9ee9 bfbb c2d5 803c 2e05 97bc
00000140: 9da3 f9bb 7817 04bc aa67 1cbb c523 b8ba
00000150: 71e0 88ba 6404 013c da8b 00bc 5b3b ab3c
00000160: b677 febb c871 b1bc be67 ca3a 50aa 583b
00000170: d82f f0bb 31b5 a5bc 0407 fabb 3539 d43b
00000180: 983a ddba 19a4 b83c 58cb e0b7 a43b d03b
00000190: fa56 b9bc 0a44 a43c c5b4 db3b c24c 93bc
000001a0: a657 2f3b 7706 ba3b 20c4 a33c 40ef a3bc
000001b0: 5fb3 2939 5bef ad3c dc55 98bc 5fad 01bc
000001c0: e560 30b7 8965 b3bc f178 873c 6f3c 903c
000001d0: 61e9 a239 54fd 91ba 35fc 64bb d9c9 ba3c
000001e0: 0a0d acb9 9aa6 dfbb 2b51 67bb 96e1 b23c
000001f0: 8b29 83b9 d7dc fcba f0fb ba3c 2800 b4bc
00000200: 0f27 063b 2134 afba 18f3 d13b 9d6f 8c3a
00000210: 8d34 a3bc 59d1 82bc f80f b03c 6eef b3bc
00000220: bf01 50b8 eed0 903b 2e6f afbc 7b3e bbbc
00000230: 8949 b03c d31b babc 719b 7c3c c601 1c38
00000240: 6620 8b3c c549 513b 8733 d2b8 3548 15ba
00000250: bf12 61ba 0294 42b8 55c9 98bc 9b15 bcbb
00000260: 6854 5fbb 0bbf 013c 0cc6 aebc 89b9 e538
00000270: 78d3 80b8 3ef1 33bb bd4b ba3c d5d7 b63c
00000280: d873 2c3a f607 01bc 2d1e 2bb9 c9f8 4f3b
00000290: f656 643a b232 53bc 6984 a1bb ddbf b5bc
000002a0: 191f b3bc c465 ac3c ddf1 ad3c 404d b73c
000002b0: 50ce 0c3b e8ad 00bc b52a 2db7 5886 373b
000002c0: 9d34 14bb 12cb 6fbb 5fc3 e4bb 4154 9bbc
000002d0: 9b57 f1bb bf16 953c e458 ff3b 4159 e237
000002e0: 65b6 abbc 6af5 29bc 1b7d b2bc e093 9d3c
000002f0: 8925 47bc 59db babc 2ba0 59bb 2b56 b2bc
00000300: de7d a5bc 3278 e1b7 3ca3 8d3b 49f3 cdbb
00000310: 5466 ba3c 547c 15bb f781 dd3a 1cb1 573c
00000320: 2ee7 853b d02e bb3c 790d bbbc 931f a1bc
00000330: ed4b 51ba e741 2e3c a446 813b ad11 eab8
00000340: 7180 51ba 3ace 973b eb40 aabc 77c6 f4bb
00000350: 42f3 4c3b e2bf 48ba 67c4 28ba 9bde b6bc
00000360: 9b8e 96b9 cbbd 3439 a412 bcba b64c 983a
00000370: 770a 80bc 36e1 13b8 96df b03c f8af 31b9
00000380: eec8 cfbb be1d bfb9 36a5 9eb9 75e3 953c
00000390: deb8 8b3a 5965 c339 b1f3 b4ba 4a75 b2bc
000003a0: 2c59 4d3b 916d 46bc 78aa 28bb 3f07 bb3c
000003b0: 6a2a 4abb 760d babc 407b 583c 78a7 4c3c
000003c0: 5052 9cbc f659 b6bc 2a37 523b 47d5 02bc
000003d0: 36b8 7dba fff0 983c 905f d0b9 50e2 883b
000003e0: 081d f8ba a559 c93b b112 bb3c 26ed 87bc
000003f0: 5a30 bbbc 724b 26bb 85ee 00b8 d133 9a3b
-0.0031081445 -0.0011297794 0.007571992 0.0063855373 0.0009281959 0.008307391 0.0027222408 -0.0071420358
0.0024321352 0.022797866 -4.2330623e-05 -0.020624625 0.0040546614 0.0005934331 -7.198113e-05 -0.00023748577
0.022291165 -0.021682639 0.0001470082 -0.0029003639 -0.007927128 -0.005413057 0.00030446486 0.0073298356
-0.0032044544 -0.004340384 -0.019534143 -0.0011874345 0.009098237 -0.0054287123 -0.018760191 0.00037674137
-0.0011580653 -0.007787296 0.0016272049 0.022820955 0.02201439 -0.0062083825 -0.022847941 -0.02037785
0.018588644 -0.0013776685 0.009773302 -0.007425971 -0.018566422 -0.021304801 -0.018472258 -0.010448783
9.151078e-05 0.005995662 -0.0067893392 0.0072116125 -0.0040310496 -0.00018093156 0.022758147 0.0016836611
-0.00021255272 -0.005419234 0.011731505 0.022284064 -9.876635e-07 -0.012742822 -0.022033831 -0.0060305432
-0.000962977 0.018477552 0.0076289903 -0.0034958136 0.022834998 0.006814475 -0.02285807 -5.351471e-05
0.008042909 -0.022583505 0.0075234435 -0.013989048 0.015177967 -0.0058567068 0.015726928 -0.018435087
-0.007618381 -0.008062236 -0.00238655 -0.0014048746 -0.0010442865 0.007874582 -0.007845843 0.020902326
-0.0077657355 -0.0216607 0.0015442295 0.0033060499 -0.007329922 -0.020228 -0.007630231 0.006476546
-0.0016878424 0.022539185 -2.679757e-05 0.006354766 -0.022624481 0.020051975 0.006704899 -0.017980937
0.0026755123 0.00567704 0.01999098 -0.020011544 0.00016183917 0.021232298 -0.018595628 -0.00791487
-1.05129775e-05 -0.021899002 0.016537162 0.017606942 0.0003107293 -0.001113812 -0.0034940366 0.022801327
-0.0003281611 -0.0068252804 -0.0035296183 0.021836083 -0.0002501722 -0.001929189 0.022825211 -0.02197273
0.0020470058 -0.0013366976 0.006407153 0.0010714416 -0.01992252 -0.015968965 0.02149199 -0.021964755
-4.959269e-05 0.0044194376 -0.02141532 -0.022856941 0.02151944 -0.022718346 0.0154179195 3.719495e-05
0.016983222 0.003193484 -0.00010023178 -0.00056946586 -0.0008585862 -4.6391047e-05 -0.01865069 -0.0057398803
-0.003407741 0.007919083 -0.02133467 0.000109541295 -6.142905e-05 -0.0027457024 0.022741193 0.022319714
0.00065785414 -0.007875433 -0.00016319072 0.003173398 0.0008710468 -0.012890505 -0.0049291146 -0.022186214
-0.021865414 0.02104462 0.021233493 0.022375703 0.0021485277 -0.0078539625 -1.0321547e-05 0.002800366
-0.0022614368 -0.0036589545 -0.006981298 -0.018961074 -0.0073651797 0.018199323 0.007792579 2.6982862e-05
-0.020960996 -0.010373453 -0.02178817 0.019235551 -0.012154945 -0.022809671 -0.003320704 -0.021769604
-0.02020162 -2.687806e-05 0.0043224376 -0.0062851054 0.022753872 -0.00228097 0.0016899694 0.013164785
0.0040863967 0.02284947 -0.022833573 -0.019668376 -0.0007984031 0.0106358295 0.0039451886 -0.00011161282
-0.00079918565 0.0046327384 -0.020782908 -0.007469948 0.0031272923 -0.00076579873 -0.00064379576 -0.022322943
-0.0002871648 0.00017236841 -0.0014348817 0.0011619541 -0.01562999 -3.5257275e-05 0.02159099 -0.00016945589
-0.0063410914 -0.00036452519 -0.000302592 0.018296937 0.0010659953 0.00037268808 -0.0013805536 -0.021784443
0.0031333668 -0.012111084 -0.0025736373 0.022830604 -0.0030848035 -0.022711497 0.013212979 0.0124911
-0.019082218 -0.022259694 0.0032076337 -0.00798542 -0.00096786337 0.018669603 -0.0003974405 0.004177369
-0.001892955 0.0061447197 0.022836061 -0.016592573 -0.022850204 -0.0025374559 -3.0739717e-05 0.004705884

convs.5.weight f4 [16, 16]
00000000: 943b 993c de3d 1f3b bec4 bf39 b0c7 473b
00000010: f784 a03c 9d89 73bc cb3f 7cbc 64f9 b43c
00000020: 0d23 703b af78 013c c4a0 a8bc 2934 b4bb
00000030: 994f b2bc 881c 96bb 372a 8cbc 47ed b7bc
00000040: e7a1 aa3c 331f b63c f65b 24bb d4b4 fcba
00000050: 4a01 48bb 22cb a9b7 f25a 1db8 8b16 14bb
00000060: 13a9 833a 72f3 7ebb 98b9 68bc 8bf0 873c
00000070: 6cc3 28b8 20f5 cc36 9374 823b ced3 aebc
00000080: 2b35 9d3a ce42 523b de03 b7bc 7adf fbbb
00000090: 75ef 6fba af66 c337 ca34 aa3c a865 9fb8
000000a0: 5aa7 7b3c 8fe2 8cb9 468f c5b9 44ff 9a3a
000000b0: 9f05 bb3c 54a6 a83c ab9e c23b 861d bbbc
000000c0: 7bc6 b83c beb2 f03b 0861 9f3c 0349 26b8
000000d0: 8541 afbc 141c a9bc f7dc 9c3c 137f 1fbc
000000e0: e808 133a e193 2e38 9807 a1bc ebbc 02bc
000000f0: 4378 4d3b 0cfa 13bb bd4b a33a f622 b6ba
00000100: 70ac 96b8 7bd8 753b cb4c d6bb 1779 b73b
00000110: bfef b93c 854f 69ba 725f 8cb9 bca9 01bc
00000120: 8b50 e73b 89b0 f637 4013 8dbc 833b a339
00000130: b758 343c f4c8 8fbc 070f a13a f858 09ba
00000140: 7212 603c 4524 4cbb c525 a73c 0621 c9ba
00000150: d4c4 553b 29f5 b93c 42db 583c 2ead 963c
00000160: 1cec babc de2b bbbc 0c69 0bb8 a784 acbc
00000170: ced3 a8bb 0d0c a03c 005c cd3b 26c7 d63b
00000180: 60a2 9bbc 8eff 3a38 4fff abbc 0806 16bc
00000190: 8946 99bc 3cb3 953c bb7e b9bc 8330 bb3c
000001a0: 2d4f b7bc ee35 1eb8 34e1 b83c 436b 9cb9
000001b0: 977c 283b 99fa b63c 30e7 e5bb 0603 91b9
000001c0: bdf6 afbc bfd9 31bb 9b7f eabb cea4 2f3a
000001d0: 357a 4f39 3895 ecba 009e 5a3c 9c40 ba3c
000001e0: 76f7 5bbb 49ca ae3c 8d4e b5bb 4dcd 5439
000001f0: f64a 5f3c 5329 00bc ebd9 5d3a f370 01ba
00000200: 613f 293b 7aea a738 4bd9 a0ba 8788 f839
00000210: 936e ab38 238b 38bb d033 c2bb 8383 7737
00000220: ef82 283c fd79 45b8 4233 0bb8 bb06 003c
00000230: 612a 47bb 2bf8 a4bc 0974 a437 9dbd a03c
00000240: ca12 dc3b 58ff 773c 4ff6 a2ba b5e2 8bbb
00000250: 51e3 fabb 297d f0bb 7c81 b2bc ca86 9dbb
00000260: ad8a c3b9 9170 acbc 924c b53c 7fe6 ba39
00000270: d3e2 42bc fdd4 67bc fa83 b43c 88bd d83b
00000280: 88cc 933b c560 2cb7 37dd 383b bf8e ba3c
00000290: b912 a73c 273a 5e3c 7457 cf3b 6544 c83b
000002a0: be8d ba3c db03 f7bb c8df 1239 c7d3 ba3c
000002b0: 46dc 7abb c588 b5bc f44f 28ba c29c a23c
000002c0: a8db 4cbb e08e e63b 90ad b3bc 7947 e839
000002d0: e765 b73c 839e e73b 667c b0b8 42af 90bb
000002e0: 1198 fdbb cb7a a3ba 2171 b7bc 0f0b 8639
000002f0: 30e9 97bc 03f7 b7bc 9c91 5f3a 0646 43bb
00000300: 328b b5b7 4c6e 83bc 5275 b63c 61d9 013c
00000310: 6b99 e9b9 2ed9 c93b 6c7d 8bb7 e1de f0bb
00000320: 14f1 ed38 3670 a8ba 0d64 883c 3fe7 353c
00000330: 67d7 513b 2933 e6bb 194e 013c 2b0f 74bc
00000340: a7f4 bd38 1946 aabc 77df febb 8ac9 683b
00000350: 5a63 dabb 65da 843c 3a04 8c3c 8b30 b83c
00000360: 86c3 b83c 3268 e3ba d201 11bc 71f8 acbc
00000370: c82e bbbc df11 41b6 7e91 03bb 1c3a f93b
00000380: 8cd0 ff3b 3a22 a53c 786e a83b ac7b 98ba
00000390: de93 2b3b a655 eb3b bb07 c5bb bc1f bbbc
000003a0: b186 9a3b d0b5 5cbc c592 8b3a 4039 2fbc
000003b0: 821a 74bc 1e5f d03b 2352 aabc 9313 853a
000003c0: 1379 5dbc 9c05 4fbb 42c0 02bc 8baa 9ebc
000003d0: 4ed6 53bb 11f8 f1bb 24d9 04b7 6cda 7c38
000003e0: 5d1d d437 34f4 383a 6490 b1bc 8e1a 02bc
000003f0: 50d9 233c 27a8 d738 7573 ca39 e522 2d3c
0.018705167 0.002429835 0.00036576943 0.0030484013 0.019594653 -0.0148643525 -0.015396069 0.022091575
0.0036641986 0.007902308 -0.020584472 -0.005499382 -0.02176647 -0.004581038 -0.017109973 -0.02245201
0.020829154 0.022231674 -0.0025079227 -0.0019279965 -0.0030518346 -2.0240961e-05 -3.7516416e-05 -0.0022596444
0.0010044895 -0.003890243 -0.014204405 0.016594192 -4.0236322e-05 6.10821e-06 0.003981182 -0.02134123
0.0011993995 0.0032083276 -0.022340711 -0.0076865526 -0.00091528083 2.3293627e-05 0.020777125 -7.600646e-05
0.015359724 -0.0002687168 -0.00037681515 0.0011825343 0.022829829 0.020587124 0.005939325 -0.022841226
0.02255558 0.0073455265 0.019455448 -3.964548e-05 -0.021393547 -0.020643272 0.019148333 -0.009734887
0.0005608932 4.1622556e-05 -0.019656941 -0.007979612 0.00313522 -0.002257946 0.0012458485 -0.0013895917
-7.184676e-05 0.0037513066 -0.006539916 0.005599152 0.022697328 -0.0008900094 -0.00026773993 -0.007914003
0.007059162 2.940769e-05 -0.017221093 0.00031134122 0.011007479 -0.017551877 0.0012287804 -0.00052393926
0.013676273 -0.0031149548 0.020403752 -0.0015344925 0.003261854 0.02269991 0.013235869 0.018393125
-0.022817664 -0.022848066 -3.3238015e-05 -0.021059347 -0.005152202 0.019536996 0.006267071 0.006554502
-0.018998325 4.458386e-05 -0.020995764 -0.009156711 -0.018710392 0.018273942 -0.022643438 0.02285028
-0.022376621 -3.772036e-05 0.022568323 -0.00029834555 0.0025709027 0.022336291 -0.007016085 -0.00027658808
-0.021479959 -0.0027137843 -0.007156325 0.0006700278 0.00019786584 -0.0018049842 0.013343334 0.022735886
-0.0033564246 0.021336691 -0.0055330456 0.00020294376 0.013628712 -0.007822352 0.0008462953 -0.000493779
0.002582513 8.006855e-05 -0.001227179 0.00047403967 8.1745115e-05 -0.0028159104 -0.0059265867 1.4752967e-05
0.010285123 -4.708207e-05 -3.318792e-05 0.007814105 -0.003039025 -0.020137867 1.9604357e-05 0.019621665
0.006716107 0.015136562 -0.0012433025 -0.004268969 -0.0076564928 -0.007339139 -0.021790259 -0.004807328
-0.0003729662 -0.02104977 0.022131238 0.00035648418 -0.011894899 -0.014149901 0.022035588 0.0066143908
0.004510466 -1.027453e-05 0.0028208026 0.022773145 0.02039467 0.013563669 0.006327564 0.006111669
0.022772666 -0.0075383014 0.0001400701 0.022806061 -0.0038278266 -0.022159943 -0.00064206054 0.019850139
-0.0031258855 0.007036075 -0.021933347 0.0004430374 0.022387458 0.0070684566 -8.415505e-05 -0.0044154236
-0.007739075 -0.0012472508 -0.022392811 0.0002556671 -0.01854381 -0.022456652 0.00085284724 -0.0029796376
-2.16417e-05 -0.016043805 0.02227274 0.007925362 -0.00044555528 0.006159923 -1.6628495e-05 -0.007350788
0.00011345945 -0.0012850824 0.01664927 0.011102497 0.003201926 -0.0070251417 0.007892155 -0.014896194
9.057792e-05 -0.020785378 -0.007778104 0.0035520517 -0.0066646757 0.01621742 0.01709186 0.022484085
0.02255417 -0.0017349778 -0.008850532 -0.02111456 -0.022849455 -2.8769643e-06 -0.0020075734 0.007605804
0.007806843 0.020157922 0.005140122 -0.0011633537 0.0026180665 0.007181841 -0.0060128844 -0.02284228
0.0047157635 -0.013471082 0.0010648599 -0.010694802 -0.014898898 0.006358995 -0.020791119 0.0010152928
-0.013517636 -0.0031589037 -0.007980408 -0.01936843 -0.003232378 -0.007384308 -7.91837e-06 6.0284903e-05
2.5286043e-05 0.0007055432 -0.021675296 -0.007940901 0.010000542 0.0001028332 0.00038614465 0.010567402

convs.6.weight f4 [16, 16]
00000000: 9135 a13a 7959 2dbb 411a 9dba 44a8 84bb
00000010: 2ef8 dbbb b103 a6bc 2d76 fc3b 68da 99bc
00000020: 60b7 28ba 11dd 51bb 79e1 003c b6ce bcb9
00000030: 11ce b13c 9cbb e03b 72fe 363b 3889 82ba
00000040: 4319 f83b 97e3 fe3b aa09 b4bc 0707 28bb
00000050: 8dec babb 597c a63c a4a1 9d3c 0af8 f53b
00000060: 8cae 053b 8e35 acba 532e babc 405c 67bb
00000070: 97bf 5138 1733 ceba 3fe0 f0b7 64f1 813b
00000080: f2ef 46b7 a434 f038 1717 5f3a fd22 f33b
00000090: ac46 12bb 9050 f23b eeeb 48bb ea86 dcb9
000000a0: fddc d0bb 45ce fc3b 24ef 9fb7 3de9 a0ba
000000b0: d06b 88bb 5a47 89ba 8729 bb3c f89c 50bb
000000c0: f9ac 8838 446e 0bbc 3eb7 d837 77bc bab8
000000d0: 4873 59ba 8efd a9bc 5b19 a7bb 6abc f4bb
000000e0: 6097 31bb a0de 6b3c 9065 ca3b be9b fd3b
000000f0: 8ac7 5cbb 0e6e 9cbb bcef 7d3c cb6a b2bc
00000100: eacd b73c 8ce4 353b 66a1 b63c 6913 33ba
00000110: 78d1 23b9 1b37 92bc 4210 e6bb 55bf 2f3a
00000120: a874 6a3a 2f4b d6bb 67ac 45b8 4352 f33b
00000130: edbf 063c fd94 883c 0a47 b8bc 2eda 9b3c
00000140: 51a4 cf38 973c 16ba 38d2 9cbc 5c5d 4a3b
00000150: f31f aa3c 6e14 123b 20f1 9b3a 23be 013c
00000160: 0bec b9bc 50ce 2c3b 3816 aa3b 44c8 ab3c
00000170: 2001 003c c8f8 c33b a0ab 4abc ea10 a13b
00000180: fe8b a33a 20fe 3abb d70c 923c 3b8b b43c
00000190: d9d0 a33c 71a9 a4b7 299c 23bc 31b2 03bb
000001a0: cd1e 28b8 c74f cb3b e1d1 2f3c bf14 67b9
000001b0: c944 263b 4331 52bb eeff babc 3575 ae3c
000001c0: 7c6a a23a 41a8 b93c 1533 2b37 44de e0bb
000001d0: a574 983b 0f80 6d3b 5fc0 44bc dabc b73c
000001e0: 482f 01bc 5338 a63c 0873 59ba 5108 ffbb
000001f0: a23b c7b6 d19b 883a 0514 51bc 97a6 943b
00000200: 1d87 b93c 543a bbb9 6e67 853c 809b a4bc
00000210: 6aef b239 9b64 023b 9ef0 eaba a14e c63b
00000220: b04f fb3b e814 a23b 1cd5 f8ba c391 17bc
00000230: 6c6a deba 351e ba3c d0e9 96bc de36 3fbb
00000240: a29a b9ba f3c0 2d39 c812 9dbc 93e7 acbc
00000250: e374 5c3a 68d6 9a3b 41a3 ae3c 4a08 54b8
00000260: dff6 b83c ebcf b73b 49f1 923c c382 dfbb
00000270: 0c2f 8bbc d86b a6bc 531b 003c 2dd4 3d3b
00000280: 9710 3d3a 9a57 013c 7adc ecb9 9f3d 4dbb
00000290: bb9f 5c3c 02d1 f63b b6f1 9bbc 1860 88bb
000002a0: ff76 a83b a2de 783b b166 b6bc d97c 37b9
000002b0: dedc cbb6 42c3 9ebc 11fb 35bc 100d 98bc
000002c0: 48ae 0bba dfaf 013c 65bc 8abc 7428 7c3c
000002d0: 0c20 16bb c4b3 513b e22a 47bc b5e5 d7bb
000002e0: 2651 cd37 9057 f9bb df1c b33c c605 bb3c
000002f0: 5037 d0ba cceb 44bc 5ea5 70bc b9e3 803c
00000300: d261 e3ba 8929 6139 e8f0 b9bb bbfc babc
00000310: 9c55 8b3b c513 353a ae2c 9a3a 6b35 00bb
00000320: 385a 4bbb 8948 bdbb 8d30 d83b 6466 64bc
00000330: 4bc8 933a ffca fd3b 7401 fabb c4a2 873b
00000340: 2f33 9bbc 2ebe 0dbc 26b5 61ba b1fc 99bc
00000350: 58c7 db39 4fd7 44bb 12db a8bc d994 9fbc
00000360: 27ed fbbb e574 b6bc a5dc ee3b 53f2 78b9
00000370: 5850 babc 3adc 85ba 3240 52bc 3e44 96bc
00000380: 3f51 853c d56b dc3b 796d 963c 8820 6c3a
00000390: 86fc b43c e380 aabb 103b 123b 90e5 8fbc
000003a0: 1af1 4cbb 2ef0 3ebb 7805 003c 3240 223c
000003b0: 0e32 b43c fe90 3538 52ba a8bc 85b3 85b8
000003c0: 92ff 0e39 2cea 7b3c 11c2 4ebb bb83 ad3c
000003d0: 60c4 b5bc 35f1 edb9 0035 b93c 1ce2 0fb9
000003e0: c28f ee35 92bb 3bba 27cc dd3b 0d2f 93ba
000003f0: 5efd ab3c 81ca ab3c 5555 24b9 fe3a b03c
0.0012299289 -0.0026451035 -0.0011985974 -0.004048379 -0.006712935 -0.020265432 0.0077045173 -0.018780902
-0.00064360164 -0.0032022635 0.007866257 -0.00036012166 0.021704705 0.0068583023 0.0027922657 -0.0009959107
0.007571371 0.0077785957 -0.021977264 -0.0025638954 -0.0057044686 0.020322965 0.019242115 0.007506375
0.0020398227 -0.0013138519 -0.022727167 -0.0035302788 5.0007915e-05 -0.0015731779 -2.8714652e-05 0.0039655436
-1.1857586e-05 0.00011453897 0.00085102156 0.0074199424 -0.0022319956 0.0073948577 -0.0030658203 -0.0004206219
-0.006374 0.007715019 -1.9065636e-05 -0.0012276542 -0.004163243 -0.0010473535 0.02284695 -0.0031831842
6.517204e-05 -0.008510176 2.5834535e-05 -8.9042755e-05 -0.00082950713 -0.020750787 -0.005099458 -0.00746875
-0.0027098283 0.01439634 0.006176658 0.007739513 -0.003368827 -0.0047738617 0.015499052 -0.021779438
0.022437055 0.0027754633 0.022293758 -0.00068312004 -0.00015622925 -0.017848542 -0.007020981 0.0006704231
0.0008943775 -0.0065397243 -4.7129022e-05 0.007425578 0.00822447 0.016672606 -0.022494812 0.019024935
9.9011355e-05 -0.00057310745 -0.019143209 0.00308784 0.020767188 0.002229001 0.0011897422 0.007918867
-0.022695562 0.002636809 0.005190637 0.020969518 0.007812768 0.005980585 -0.01237002 0.0049153464
0.0012477634 -0.0028532818 0.017828388 0.022039047 0.019997047 -1.9629226e-05 -0.009985962 -0.0020095224
-4.0083007e-05 0.0062045786 0.010731191 -0.00022037605 0.002537059 -0.003207282 -0.022827115 0.021296123
0.0012391354 0.022663238 1.0204288e-05 -0.0068624336 0.004652577 0.003623966 -0.0120087555 0.022428919
-0.007884808 0.02029053 -0.0008295034 -0.007782974 -5.9376043e-06 0.0010422413 -0.012761121 0.0045364606
0.022647435 -0.00035710877 0.01628467 -0.02009368 0.00034129183 0.0019896391 -0.0017924493 0.0060518538
0.0076694116 0.00494634 -0.001898441 -0.009251061 -0.0016968972 0.022719482 -0.018422037 -0.002917699
-0.0014160464 0.00016570445 -0.019173995 -0.021106517 0.00084097515 0.0047252662 0.02131808 -5.055246e-05
0.022578655 0.0056095026 0.01793732 -0.006821008 -0.016990207 -0.020315096 0.007819015 0.0028965578
0.000721225 0.007894421 -0.00045177696 -0.0031317247 0.013465817 0.00753224 -0.019036155 -0.004161846
0.0051411386 0.0037974496 -0.022265764 -0.0001749875 -6.0755838e-06 -0.019380216 -0.011107222 -0.018560916
-0.0005328399 0.007915466 -0.016935537 0.015390504 -0.0022907285 0.0031998018 -0.01215622 -0.0065886625
2.4475692e-05 -0.007609315 0.021864353 0.022829901 -0.0015885625 -0.012019109 -0.014687864 0.015733587
-0.0017347878 0.00021473145 -0.00567447 -0.02282559 0.004252149 0.0006907548 0.0011762583 -0.001956309
-0.0031029116 -0.005776469 0.0065975846 -0.013940427 0.0011274902 0.0077451463 -0.0076295678 0.004139276
-0.018945305 -0.008651299 -0.0008610062 -0.01879725 0.00041919458 -0.003003556 -0.020612273 -0.019480156
-0.007688183 -0.022272537 0.0072894865 -0.00023741396 -0.022743389 -0.0010212727 -0.012832688 -0.018343087
0.016274093 0.006726722 0.018362748 0.0009007533 0.022093069 -0.005203353 0.0022313036 -0.017565519
-0.0031271637 -0.0029134857 0.007813804 0.009903001 0.021996524 4.3288797e-05 -0.020596657 -6.375372e-05
0.00013637383 0.015375655 -0.0031548778 0.021180978 -0.022188365 -0.00045383876 0.02260828 -0.00013721775
1.7774221e-06 -0.0007161434 0.0067687216 -0.0011229232 0.020994838 0.020970585 -0.00015672047 0.021512505
