Comparisons/GCNII-master/pretrained/e482bc5bb1b14952a06cb684c434b832.pt (torch_old, 85412 bytes, 68 tensors)

convs.0.weight f4 [16, 16]
0	0x373a8c96	1.1119197e-05
1	0xb80a6f28	-3.3005286e-05
2	0xb8dd457a	-0.00010551042
3	0xb85732cb	-5.13073e-05
4	0xb8cb2d71	-9.6882584e-05
5	0xb62b8ed2	-2.5564118e-06
6	0xb87bc6a7	-6.0028073e-05
7	0xb7ba78f5	-2.2229253e-05
8	0xb7de1021	-2.6471973e-05
9	0x37e2bd8d	2.7029566e-05
10	0xb81d6253	-3.752329e-05
11	0xb710608d	-8.605549e-06
12	0xb8353a8a	-4.320828e-05
13	0xb892de5b	-7.0032394e-05
14	0xb92a4eef	-0.00016241868
15	0x382bebd6	4.0989216e-05
16	0x36195a7a	2.285144e-06
17	0xb73d1185	-1.1269357e-05
18	0xb80b7a16	-3.3253884e-05
19	0xb86286ca	-5.400813e-05
20	0xb698f6a9	-4.558668e-06
21	0xb52bc38f	-6.398704e-07
22	0xb7e30a3c	-2.7065274e-05
23	0xb6b9c7bd	-5.5366822e-06
24	0xb6ac85ea	-5.141589e-06
25	0x37b8245b	2.1951439e-05
26	0xb72d0201	-1.031207e-05
27	0xb768eb91	-1.3883125e-05
28	0x37884439	1.6244232e-05
29	0xb71378b6	-8.789988e-06
30	0xb78126c4	-1.539605e-05
31	0xb639e179	-2.769839e-06
32	0x368f67d5	4.2738197e-06
33	0xb791a0d4	-1.7360238e-05
34	0xb7aa81c9	-2.0326015e-05
35	0xb6d76128	-6.41881e-06
36	0xb7ffd320	-3.0496682e-05
37	0x3490f970	2.700358e-07
38	0xb832c54a	-4.2622247e-05
39	0xb723ba63	-9.758954e-06
40	0x372dec53	1.0366627e-05
41	0x37e30cb3	2.7066422e-05
42	0xb74ecc6e	-1.2326154e-05
43	0xb716f432	-8.997553e-06
44	0xb72c06fa	-1.0253623e-05
45	0xb5bef361	-1.4226936e-06
46	0xb820e2f5	-3.8358343e-05
47	0x36a61aab	4.95029e-06
48	0x37e909df	2.7780361e-05
49	0xb7afa4db	-2.0938392e-05
50	0xb8585488	-5.157714e-05
51	0xb92aee92	-0.00016301338
52	0xb7bd8872	-2.2594093e-05
53	0xb53b9332	-6.9877126e-07
54	0xb8b6ab42	-8.7103355e-05
55	0xb7dd19c7	-2.6357257e-05
56	0xb7c8b048	-2.3923945e-05
57	0xb8172dbd	-3.6043803e-05
58	0xb81b792d	-3.7067734e-05
59	0xb83fd1d5	-4.573337e-05
60	0x39bda020	0.00036168192
61	0xb6c8c717	-5.9836416e-06
62	0xb9007c02	-0.00012253228
63	0xb80b3e21	-3.3198045e-05
64	0x38803b99	6.1146166e-05
65	0xb8d14423	-9.978588e-05
66	0xb8866a0d	-6.4093714e-05
67	0xb93218b5	-0.00016984607
68	0xb7fbc8e8	-3.0015086e-05
69	0xb5f7bd40	-1.8458013e-06
70	0xb8a9aa26	-8.0902406e-05
71	0xb88048a9	-6.1170496e-05
72	0xb7cdcd13	-2.45334e-05
73	0x37f0c197	2.8700377e-05
74	0xb8605902	-5.3488657e-05
75	0xb8715b9e	-5.7544203e-05
76	0xb862c184	-5.4062824e-05
77	0xb78f331e	-1.7070732e-05
78	0xb9512278	-0.00019944634
79	0xb7a10524	-1.919509e-05
80	0xb20b49ae	-8.107618e-09
81	0xb221e3df	-9.423245e-09
82	0xb29392f0	-1.7179872e-08
83	0x32026f2b	7.592273e-09
84	0x3219ff1e	8.963779e-09
85	0xb0b56cc5	-1.3200397e-09
86	0x3185b37b	3.891214e-09
87	0xb3815c84	-6.023859e-08
88	0xb19cf362	-4.567867e-09
89	0x31dbeebd	6.4008803e-09
90	0x3368b346	5.4179758e-08
91	0x317ea6bd	3.7056644e-09
92	0xb2cb00ee	-2.3632733e-08
93	0xb1ff89e3	-7.4371527e-09
94	0xb2e7d588	-2.6989042e-08
95	0x32ab7665	1.996086e-08
96	0x3616aa93	2.245103e-06
97	0x377e2fa8	1.5150676e-05
98	0xb818e173	-3.644959e-05
99	0xb76c1cce	-1.4073403e-05
100	0xb5bc4544	-1.402725e-06
101	0x339e9b28	7.385671e-08
102	0xb8ef1911	-0.00011401077
103	0x34c72347	3.7092306e-07
104	0x3800919b	3.0653184e-05
105	0x37160bc0	8.9434325e-06
106	0xb7869d61	-1.604733e-05
107	0xb69c6b85	-4.661679e-06
108	0xb704a9fa	-7.907389e-06
109	0xb60481e6	-1.9745144e-06
110	0xb79de8aa	-1.8824201e-05
111	0x36ef37f4	7.129269e-06
112	0x38bfa5cd	9.1384725e-05
113	0xb8538802	-5.0432987e-05
114	0xb8bf4325	-9.1200964e-05
115	0xb98da9a3	-0.00027020005
116	0xb954fd44	-0.00020312244
117	0xb60207a9	-1.9375968e-06
118	0xb86ed941	-5.6945955e-05
119	0xb7c32d52	-2.3266915e-05
120	0x366f7939	3.5684336e-06
121	0x3913b35c	0.00014085829
122	0xb9d1fe7b	-0.0004005319
123	0xb89dca4a	-7.524023e-05
124	0xb8731eb5	-5.7964313e-05
125	0xb7363a18	-1.0861571e-05
126	0xb98c1315	-0.00026717098
127	0xb7d88324	-2.5810274e-05
128	0x35145348	5.5255487e-07
129	0xb818f4fb	-3.646778e-05
130	0xb807305a	-3.223154e-05
131	0xb88e81bd	-6.795253e-05
132	0xb6b0bc62	-5.2671394e-06
133	0xb33b1613	-4.3559407e-08
134	0xb88a82ed	-6.6047396e-05
135	0xb6d918e5	-6.470002e-06
136	0xb693d70d	-4.4059766e-06
137	0xb6bb4fd8	-5.5823293e-06
138	0xb73fa1b5	-1.14221375e-05
139	0xb592a0da	-1.0924662e-06
140	0xb6d7438c	-6.415363e-06
141	0x350b4f28	5.189672e-07
142	0xb81c378a	-3.7245023e-05
143	0xb5fce3ac	-1.8841724e-06
144	0x3903395f	0.00012514506
145	0xb8d38582	-0.00010086132
146	0xb8c2fcdf	-9.297742e-05
147	0xb8c8d065	-9.57556e-05
148	0xb8159d00	-3.5670586e-05
149	0xb5a6d41f	-1.2429699e-06
150	0xb92f369f	-0.00016709648
151	0xb81e8356	-3.779245e-05
152	0x3868be28	5.5490207e-05
153	0x37e5d869	2.7399701e-05
154	0xb834463f	-4.2980766e-05
155	0xb888c285	-6.5212174e-05
156	0xb7d4402c	-2.5302252e-05
157	0xb7963d86	-1.7910043e-05
158	0xb94310bb	-0.00018602882
159	0xb82ab828	-4.0702667e-05
160	0x35f68e11	1.8369775e-06
161	0xb709f36e	-8.222514e-06
162	0xb70c8691	-8.375981e-06
163	0xb6c79f06	-5.949175e-06
164	0xb60104b8	-1.9225245e-06
165	0xb502703e	-4.859211e-07
166	0xb77e0116	-1.5139833e-05
167	0xb60618d7	-1.9982015e-06
168	0x32e7c627	2.6982049e-08
169	0x37003db7	7.643764e-06
170	0xb79e4aaf	-1.8869845e-05
171	0xb7b8f3ab	-2.2047976e-05
172	0xb55ace0f	-8.1511183e-07
173	0xb5927327	-1.0911361e-06
174	0xb7e7bf57	-2.7626445e-05
175	0xb6461747	-2.9517848e-06
176	0x378d54d9	1.684802e-05
177	0x37e7f9c5	2.7653654e-05
178	0xb8c012e1	-9.15879e-05
179	0xb8d7a264	-0.000102822465
180	0xb910c800	-0.00013807416
181	0xb6076ce2	-2.0179946e-06
182	0xb9abae5a	-0.00032745564
183	0xb880bd9e	-6.1388346e-05
184	0xb87ddd17	-6.0525806e-05
185	0x389b5ccf	7.408263e-05
186	0xb8cac434	-9.668656e-05
187	0xb7c34c3f	-2.3281316e-05
188	0x3960031a	0.0002136346
189	0xb8a8cf7d	-8.049512e-05
190	0x39336400	0.00017108023
191	0xb880793b	-6.1260966e-05
192	0x3781bf2e	1.5467023e-05
193	0xb81bb1fe	-3.7120648e-05
194	0xb863244b	-5.4154818e-05
195	0xb968cb61	-0.00022201009
196	0xb980fbd8	-0.000246017
197	0x36e27a2e	6.7495484e-06
198	0xb909a183	-0.00013125506
199	0xb8968d68	-7.178896e-05
200	0xb80fe648	-3.4308323e-05
201	0x38ab3eb5	8.1655955e-05
202	0xb82e12bd	-4.1502284e-05
203	0xb824824c	-3.9221995e-05
204	0x3a00460f	0.0004893252
205	0xb6ccd0c6	-6.103978e-06
206	0xb9113488	-0.00013847847
207	0xb78d8857	-1.6871998e-05
208	0x38966e6b	7.173124e-05
209	0x379af5f0	1.8472754e-05
210	0xb8bf6176	-9.125743e-05
211	0xb9742a56	-0.00023285425
212	0xb82bdedc	-4.097713e-05
213	0xb5ff2e51	-1.901246e-06
214	0xb9b556f4	-0.00034587795
215	0xb6a017ac	-4.7711274e-06
216	0xb8889813	-6.5133114e-05
217	0x3954fabb	0.000203113
218	0xb8a88319	-8.035283e-05
219	0xb850659d	-4.96857e-05
220	0xb886aa65	-6.4213564e-05
221	0xb6265c01	-2.478948e-06
222	0xb9739ab6	-0.0002323192
223	0xb75b6386	-1.3076589e-05
224	0xb72d55a9	-1.0331548e-05
225	0xb72668de	-9.918787e-06
226	0xb7613a51	-1.3424623e-05
227	0xb8257a5c	-3.945302e-05
228	0xb67d25f3	-3.7722027e-06
229	0xb7046d37	-7.893242e-06
230	0xb7d3cae8	-2.5247646e-05
231	0xb3d235f7	-9.788703e-08
232	0xb792e116	-1.750937e-05
233	0x3674a207	3.6453146e-06
234	0xb763ea7b	-1.3584849e-05
235	0xb6af63d7	-5.2270293e-06
236	0x382e8375	4.160726e-05
237	0xb4b11ff5	-3.299207e-07
238	0xb81efaed	-3.790383e-05
239	0xb6a9a20b	-5.0554568e-06
240	0x3832edce	4.265998e-05
241	0xb6f4c7d1	-7.2950284e-06
242	0xb8f049f0	-0.00011457864
243	0xb91c43c3	-0.00014902563
244	0xb90afb37	-0.0001325429
245	0xb5c92727	-1.4987062e-06
246	0xb888cb06	-6.5228014e-05
247	0xb880b31c	-6.136877e-05
248	0xb7728fb3	-1.4457782e-05
249	0x38303f6e	4.2020743e-05
250	0xb875ae03	-5.8574613e-05
251	0xb8798956	-5.949413e-05
252	0x39845e1e	0.00025247125
253	0xb734fdae	-1.07879005e-05
254	0xb931fa20	-0.00016973214
255	0xb7ae7fde	-2.080196e-05

convs.1.weight f4 [16, 16]
0	0x37471238	1.1865566e-05
1	0xb803f589	-3.1461506e-05
2	0xb8548bb5	-5.067485e-05
3	0xb865b568	-5.4766802e-05
4	0xb75451b4	-1.2655208e-05
5	0x35887b79	1.0168725e-06
6	0xb881c483	-6.1878025e-05
7	0xb7098bc5	-8.198379e-06
8	0xb889ec5d	-6.576695e-05
9	0x373ce2ea	1.1258506e-05
10	0x39562dbf	0.00020425672
11	0x39983e6a	0.000290382
12	0x38d70d35	0.00010254459
13	0xb6593d8d	-3.2371347e-06
14	0xb9183a13	-0.00014517484
15	0xb771116b	-1.4368775e-05
16	0x36058af6	1.989943e-06
17	0xb6c0f242	-5.7502484e-06
18	0xb6ea636e	-6.9853186e-06
19	0xb78df140	-1.692085e-05
20	0xb5ee190f	-1.7739675e-06
21	0xb46b6b8a	-2.1925203e-07
22	0xb71a5f80	-9.201351e-06
23	0xb73ee378	-1.1377844e-05
24	0x35634e1b	8.467775e-07
25	0x36c632fc	5.906795e-06
26	0xb82c7c5b	-4.112381e-05
27	0xb6e8dee7	-6.940088e-06
28	0xb62797d6	-2.497332e-06
29	0xb60f1401	-2.1320304e-06
30	0xb78e0b57	-1.6933e-05
31	0xb53a09a6	-6.930444e-07
32	0x3599084a	1.1401801e-06
33	0xb6dad49f	-6.5216586e-06
34	0xb6e9ebf9	-6.971412e-06
35	0xb6f497fa	-7.289459e-06
36	0xb68e2427	-4.2361385e-06
37	0xb6c4fdf9	-5.8708215e-06
38	0xb5de5082	-1.656372e-06
39	0xb60ed13a	-2.1281435e-06
40	0xb69e84c7	-4.7242243e-06
41	0x37efd53d	2.8590317e-05
42	0xb6c7a34f	-5.949674e-06
43	0xb5f64ae4	-1.8350224e-06
44	0x381c30fa	3.723891e-05
45	0xb5dfa9e2	-1.6664237e-06
46	0xb80827a2	-3.2461838e-05
47	0xb627e985	-2.5020865e-06
48	0x367ac320	3.736648e-06
49	0xb803a8ba	-3.1389973e-05
50	0xb8655bd7	-5.4683387e-05
51	0xb8d3a1c5	-0.00010091396
52	0xb7b5c6dc	-2.1669483e-05
53	0xb5fe801c	-1.896176e-06
54	0xb85c907f	-5.258666e-05
55	0xb7716a71	-1.4389502e-05
56	0xb68c4250	-4.180045e-06
57	0x380bfcc7	3.33756e-05
58	0xb80399ec	-3.1376185e-05
59	0xb69d8f67	-4.695659e-06
60	0xb7adafa7	-2.0705002e-05
61	0x36e669eb	6.8668646e-06
62	0x387d4135	6.038063e-05
63	0xb659aa34	-3.243459e-06
64	0x372140e0	9.611453e-06
65	0xb89e44b9	-7.546828e-05
66	0xb85c9857	-5.2593965e-05
67	0xb8a3662c	-7.791477e-05
68	0xb778dbbb	-1.4833112e-05
69	0x35980952	1.1327595e-06
70	0xb88d06ec	-6.724693e-05
71	0xb741a95a	-1.1543127e-05
72	0x3619ffac	2.2947597e-06
73	0x38ce42ad	9.835265e-05
74	0xb89249b8	-6.975554e-05
75	0xb72f69f7	-1.0455485e-05
76	0xb7feeed5	-3.0390374e-05
77	0xb575e370	-9.160058e-07
78	0xb93d318a	-0.000180429
79	0xb73bc0f9	-1.11909985e-05
80	0xb19bf37c	-4.5387747e-09
81	0xb1f077db	-6.9985453e-09
82	0x319afd2a	4.5107713e-09
83	0x321c59f7	9.100851e-09
84	0xb21b7c06	-9.050387e-09
85	0xb021f931	-5.892558e-10
86	0x325a8595	1.2719643e-08
87	0xb5890d99	-1.0211253e-06
88	0xb3c7eebb	-9.3100844e-08
89	0xb1f2bcd5	-7.0645947e-09
90	0x36b3770d	5.348475e-06
91	0xb1547d49	-3.0921277e-09
92	0xb220ce5d	-9.360147e-09
93	0xafd20e85	-3.8209094e-10
94	0x3307818f	3.154997e-08
95	0x322b14ad	9.958211e-09
96	0x35a515ea	1.2299836e-06
97	0x35e103b9	1.676489e-06
98	0xb796950f	-1.7950804e-05
99	0xb7129aa6	-8.738285e-06
100	0xb5b31509	-1.3342661e-06
101	0xb57f24bc	-9.504836e-07
102	0xb783ae0e	-1.5697467e-05
103	0x368e16c0	4.2345782e-06
104	0xb73b8bc1	-1.1178608e-05
105	0x36877f58	4.0381383e-06
106	0xb74b0740	-1.2101431e-05
107	0xb7c75cae	-2.3765806e-05
108	0xb63b310e	-2.7893725e-06
109	0xb5f5c28a	-1.8310541e-06
110	0x374b68e3	1.2124164e-05
111	0xb5a0349f	-1.1936244e-06
112	0x3609d659	2.0539358e-06
113	0xb86ddb2e	-5.670933e-05
114	0xb8510cd1	-4.984142e-05
115	0xb86a6cd3	-5.5891298e-05
116	0xb78daf56	-1.6890157e-05
117	0xb71b79b4	-9.267056e-06
118	0xb8c9d116	-9.623372e-05
119	0xb7854715	-1.5887936e-05
120	0xb7b2f34c	-2.1332547e-05
121	0x380de6c3	3.3831933e-05
122	0xb88a541f	-6.5960216e-05
123	0xb8093607	-3.2713662e-05
124	0xb7f0f332	-2.8723476e-05
125	0xb63401c3	-2.6823116e-06
126	0xb96da014	-0.00022661715
127	0xb723d747	-9.76568e-06
128	0x37620df9	1.3473903e-05
129	0xb6eb9de9	-7.021929e-06
130	0xb7a10ab2	-1.9197676e-05
131	0xb7e3bcf1	-2.7148491e-05
132	0xb589a490	-1.0255189e-06
133	0xb4adc6c2	-3.2368376e-07
134	0xb83adda2	-4.4552267e-05
135	0xb655e6c5	-3.18738e-06
136	0xb6493931	-2.9984624e-06
137	0x36a4f7a8	4.916412e-06
138	0xb6b3d534	-5.359436e-06
139	0xb6e0816f	-6.6907883e-06
140	0xb6e6e9ef	-6.8817676e-06
141	0xb61cbafb	-2.3354648e-06
142	0xb78d5f38	-1.685285e-05
143	0xb629d07a	-2.5304312e-06
144	0x38129f98	3.4957746e-05
145	0xb825740a	-3.9447135e-05
146	0xb8b5a831	-8.662081e-05
147	0xb8fefeb0	-0.00012159103
148	0xb85abbb1	-5.215005e-05
149	0xb5296d9b	-6.3116903e-07
150	0xb8c80b6b	-9.53887e-05
151	0xb78a8fbc	-1.6517813e-05
152	0xb847e1fe	-4.765577e-05
153	0x387e6fd9	6.0662485e-05
154	0xb84f3a31	-4.940684e-05
155	0xb7d177af	-2.4970474e-05
156	0xb7ce78cd	-2.4613366e-05
157	0xb64ffb8c	-3.0991823e-06
158	0xb8ddb8f4	-0.000105725514
159	0xb7abd584	-2.0484214e-05
160	0x35b18b6a	1.3228102e-06
161	0x3635974b	2.7059166e-06
162	0xb6e63136	-6.860263e-06
163	0xb63b69f2	-2.792684e-06
164	0xb6bfbeb7	-5.7144457e-06
165	0x34385387	1.7166722e-07
166	0xb6ea0bb6	-6.9751068e-06
167	0xb5e3c480	-1.6970007e-06
168	0xb5ae9670	-1.3007793e-06
169	0x37808999	1.5322863e-05
170	0x376db3e2	1.4168183e-05
171	0xb68944ad	-4.090913e-06
172	0x36590c1c	3.2342568e-06
173	0xb58a2291	-1.0291861e-06
174	0xb7bc54c5	-2.245082e-05
175	0x36a55d93	4.9282767e-06
176	0x37ccc40e	2.440999e-05
177	0xb81cc879	-3.7380003e-05
178	0xb873d483	-5.813363e-05
179	0xb8a22b1a	-7.73279e-05
180	0xb81b24ce	-3.6989157e-05
181	0xb73e6631	-1.1348676e-05
182	0xb97d3134	-0.0002414629
183	0xb7318148	-1.0580123e-05
184	0xb83b3160	-4.463026e-05
185	0x37d4a941	2.5351184e-05
186	0xba50dfcf	-0.00079679204
187	0xb81b939b	-3.7092348e-05
188	0xb80754d4	-3.226551e-05
189	0xb5f56c42	-1.828543e-06
190	0xb92eb039	-0.00016659581
191	0xb763f54b	-1.3587366e-05
192	0x3613f6a8	2.204828e-06
193	0xb813e61f	-3.5261848e-05
194	0xb870a5c7	-5.737485e-05
195	0xb7e0eda8	-2.6813548e-05
196	0xb77286f6	-1.4455747e-05
197	0xb6852555	-3.968055e-06
198	0xb9083bb4	-0.00012992212
199	0xb871cfd9	-5.765245e-05
200	0x379b97e1	1.8548164e-05
201	0x3748a7ee	1.1960028e-05
202	0x3984e5e8	0.00025348295
203	0xb7e2c655	-2.7033655e-05
204	0x390c9be3	0.00013409513
205	0xb625a71f	-2.4684193e-06
206	0xb8f30647	-0.00011588312
207	0xb72782e7	-9.984454e-06
208	0x37ea8e61	2.7961274e-05
209	0xb8118251	-3.469206e-05
210	0xb8619866	-5.3786112e-05
211	0xb896ff18	-7.200072e-05
212	0xb75e3bb2	-1.324613e-05
213	0x35c887ca	1.4940681e-06
214	0xb8c56914	-9.413264e-05
215	0xb7550d1d	-1.26988425e-05
216	0xb5471ffc	-7.417982e-07
217	0x398e2ddd	0.0002711852
218	0xb89fcd62	-7.619966e-05
219	0xb8060a79	-3.1957843e-05
220	0xb7afa64c	-2.0939064e-05
221	0xb5ebda69	-1.757243e-06
222	0xb9231121	-0.00015551272
223	0xb7397b48	-1.1055563e-05
224	0x350f119f	5.3297293e-07
225	0xb68345ff	-3.912253e-06
226	0xb7364b12	-1.0865524e-05
227	0xb6fa7c20	-7.4650306e-06
228	0xb61be88e	-2.3232164e-06
229	0x348a0eeb	2.5715357e-07
230	0xb76a7bdb	-1.3976324e-05
231	0xb7048422	-7.898578e-06
232	0xb539b236	-6.91772e-07
233	0x36f5992d	7.319401e-06
234	0xb70f5f88	-8.545707e-06
235	0xb66c7e6f	-3.5240334e-06
236	0x373b9d5f	1.1182709e-05
237	0x37611256	1.3415314e-05
238	0xb70f1788	-8.528943e-06
239	0x37aa0cd9	2.0271562e-05
240	0x37d175f6	2.4969671e-05
241	0xb8243a13	-3.9154733e-05
242	0xb8a97ab8	-8.081406e-05
243	0xb8b76130	-8.7442226e-05
244	0xb85c10d6	-5.2467767e-05
245	0x36029ead	1.946387e-06
246	0xb955674c	-0.00020351744
247	0xb7067360	-8.013885e-06
248	0xb6d02d27	-6.2041395e-06
249	0x3819ead9	3.669676e-05
250	0xb83685c4	-4.351676e-05
251	0xb7e287a8	-2.700447e-05
252	0x38f78cfe	0.0001180414
253	0xb7486e52	-1.1946615e-05
254	0x381705ca	3.6006597e-05
255	0xb72d9476	-1.034617e-05

convs.2.weight f4 [16, 16]
0	0x37978d57	1.806642e-05
1	0xb7cb0c1d	-2.4205126e-05
2	0xb81e8678	-3.779537e-05
3	0xb7a9b412	-2.0230222e-05
4	0xb71abf33	-9.223632e-06
5	0xb61016dc	-2.1470978e-06
6	0xb84c414f	-4.8698214e-05
7	0x393ea1ac	0.0001818004
8	0x387b9b55	5.9987728e-05
9	0x3782523c	1.5535501e-05
10	0xb8769754	-5.8791906e-05
11	0xb78df274	-1.692141e-05
12	0xb768d0da	-1.3876905e-05
13	0xb62602ef	-2.4737635e-06
14	0xb8d3d479	-0.0001010084
15	0x36a4515f	4.8970537e-06
16	0x36420a2d	2.8914176e-06
17	0xb685e4e0	-3.9903534e-06
18	0xb768c4f7	-1.3874137e-05
19	0xb71dd375	-9.407163e-06
20	0xb7829c49	-1.5569984e-05
21	0x368fb9af	4.2833485e-06
22	0xb71e4c66	-9.435322e-06
23	0x381230ea	3.4854667e-05
24	0xb6d5a1f4	-6.3667485e-06
25	0x370f61ae	8.546207e-06
26	0xb6fada00	-7.475959e-06
27	0xb69b01ec	-4.6195837e-06
28	0xb69b752d	-4.633001e-06
29	0x32ec5c8f	2.7516107e-08
30	0xb61a1fbe	-2.2966265e-06
31	0x35626e11	8.435173e-07
32	0x367093f6	3.5848911e-06
33	0xb6e155c5	-6.7155074e-06
34	0xb6fd5e6e	-7.5509806e-06
35	0xb607fae3	-2.0262603e-06
36	0xb60001ea	-1.90746e-06
37	0x34c780f6	3.716047e-07
38	0xb6aac0be	-5.088833e-06
39	0xb5e821bb	-1.7295164e-06
40	0x36b43c94	5.3714703e-06
41	0x369e5132	4.7182193e-06
42	0x36a9c998	5.060061e-06
43	0xb63ed7c0	-2.843779e-06
44	0xb63d06fa	-2.8167256e-06
45	0xb659429e	-3.2374296e-06
46	0xb7e16487	-2.6868902e-05
47	0x370fa686	8.562236e-06
48	0x36ad8d28	5.1722345e-06
49	0xb7b720f2	-2.1830641e-05
50	0xb84405f3	-4.6735582e-05
51	0xb7b9be3f	-2.2142309e-05
52	0xb70759fe	-8.06758e-06
53	0x35b2fd57	1.3335765e-06
54	0xb84dd306	-4.907234e-05
55	0xb6837d3d	-3.918684e-06
56	0xb735d4d0	-1.083799e-05
57	0x36958108	4.4555673e-06
58	0xb8335a40	-4.2760978e-05
59	0xb7c8c4e0	-2.3933535e-05
60	0xb77aa758	-1.4940124e-05
61	0xb590ceda	-1.0789038e-06
62	0xb866ad60	-5.499774e-05
63	0xb6ae99bd	-5.2035016e-06
64	0x37a6b0de	1.9871102e-05
65	0xb802d082	-3.1188603e-05
66	0xb867841b	-5.5197725e-05
67	0xb867ca27	-5.526296e-05
68	0xb73be66f	-1.1199721e-05
69	0x35bf807a	1.4268e-06
70	0xb904f4a3	-0.00012679635
71	0xb64a80d9	-3.0175345e-06
72	0xb890ebaf	-6.9103546e-05
73	0x387a439c	5.966761e-05
74	0xb88f5b09	-6.835728e-05
75	0x394fc089	0.00019812783
76	0x3789b92f	1.6417905e-05
77	0xb6ad62bc	-5.167296e-06
78	0xb904e3b8	-0.00012673333
79	0xb6a9fec7	-5.0662525e-06
80	0xb28cc707	-1.6388652e-08
81	0xb2a259a4	-1.8900046e-08
82	0x309f7ba3	1.1603912e-09
83	0xb32af2cb	-3.980203e-08
84	0xb1f14a54	-7.0224733e-09
85	0xb54838e8	-7.4588615e-07
86	0x31536856	3.076385e-09
87	0xb2a7275b	-1.9459256e-08
88	0xb2776799	-1.4400848e-08
89	0xb1e102c5	-6.5486767e-09
90	0xb66ed2c1	-3.5587439e-06
91	0xb084ba04	-9.657133e-10
92	0xb2a78acf	-1.9504482e-08
93	0xb4aba4d9	-3.1971175e-07
94	0xb2024c5c	-7.584358e-09
95	0xb1dbd6bc	-6.3981513e-09
96	0x3599fd4c	1.1473107e-06
97	0x356ed4b9	8.897146e-07
98	0xb728a1f1	-1.0051285e-05
99	0xb71855ce	-9.079884e-06
100	0xb5a2e895	-1.2137631e-06
101	0x358e1342	1.0585429e-06
102	0xb7814b7b	-1.5413147e-05
103	0x3744a2fe	1.172046e-05
104	0x3756d3b8	1.2804689e-05
105	0x35e60915	1.7138979e-06
106	0xb742190f	-1.15691355e-05
107	0x36200a04	2.3847688e-06
108	0x3648a3d2	2.9897678e-06
109	0x35cfab18	1.5472497e-06
110	0xb7668e79	-1.374224e-05
111	0xb57bc748	-9.379478e-07
112	0xb8803bbd	-6.114643e-05
113	0xb81edfce	-3.787857e-05
114	0xb858e9f4	-5.17163e-05
115	0xb89b97fe	-7.419287e-05
116	0xb7a05049	-1.9110872e-05
117	0x351c0834	5.8126466e-07
118	0xb8ac552a	-8.217462e-05
119	0xb73c5c08	-1.1227101e-05
120	0xb8c95f26	-9.60215e-05
121	0x37887a2b	1.6269352e-05
122	0xb8077049	-3.2291082e-05
123	0xb7e2aa23	-2.7020526e-05
124	0xb7cb7d38	-2.4257795e-05
125	0xb6b78937	-5.469799e-06
126	0xb8d3182c	-0.000100657664
127	0xb6e9d6ee	-6.968962e-06
128	0x34d46f96	3.9569267e-07
129	0xb717c441	-9.045995e-06
130	0xb75d106e	-1.3176452e-05
131	0xb762829d	-1.35010605e-05
132	0xb7149dcd	-8.858228e-06
133	0x34c34937	3.637485e-07
134	0xb7bf43cc	-2.2800545e-05
135	0xb74d39a2	-1.2232371e-05
136	0x36b9cca4	5.537253e-06
137	0x36a2a4fa	4.847182e-06
138	0xb6656000	-3.4179538e-06
139	0xb6824e9e	-3.883454e-06
140	0xb6d0d7d5	-6.224009e-06
141	0x360bfe01	2.0860464e-06
142	0x369e7950	4.7228896e-06
143	0xb536ab5c	-6.8049644e-07
144	0x38256f6e	3.9442843e-05
145	0xb7e74be9	-2.7572694e-05
146	0xb89b1cac	-7.3963165e-05
147	0xb7cfff2e	-2.479515e-05
148	0xb759b170	-1.2975521e-05
149	0xb5e413c1	-1.6993073e-06
150	0xb8a8d565	-8.050612e-05
151	0xb6fde732	-7.5669022e-06
152	0xb8a8a94c	-8.042398e-05
153	0x386a1bf3	5.5815977e-05
154	0xb87a7ec7	-5.9722715e-05
155	0x39215ebd	0.00015389449
156	0xb765600a	-1.36718245e-05
157	0xb5d0e738	-1.5564501e-06
158	0x37c8e292	2.3947363e-05
159	0xb74f63f1	-1.2361431e-05
160	0x371f9ddb	9.513892e-06
161	0xb59690c9	-1.1218009e-06
162	0xb6b12951	-5.279821e-06
163	0xb6162aa8	-2.237657e-06
164	0xb647b08e	-2.975608e-06
165	0xb4959771	-2.78636e-07
166	0xb6edbc1b	-7.0850488e-06
167	0xb6abfc47	-5.125566e-06
168	0xb5d27185	-1.5679258e-06
169	0x37706fc7	1.433114e-05
170	0xb6a7300d	-4.9825817e-06
171	0xb5bbeaea	-1.4000955e-06
172	0x3698cc85	4.553762e-06
173	0x35e68785	1.7175777e-06
174	0xb724121a	-9.779376e-06
175	0xb3d907b9	-1.0106255e-07
176	0xb6982dbf	-4.5352785e-06
177	0xb6acb99d	-5.1476077e-06
178	0xb8c271f7	-9.2718685e-05
179	0xb803574e	-3.1314143e-05
180	0xb8bdb10c	-9.0452e-05
181	0x371dfefc	9.417297e-06
182	0xb9250ff7	-0.00015741574
183	0xb68c7566	-4.185992e-06
184	0xb7a8e42b	-2.013341e-05
185	0x378ada57	1.6552554e-05
186	0xb8922a05	-6.969649e-05
187	0xb7cd645d	-2.448464e-05
188	0xb7c0383b	-2.2914368e-05
189	0xb621e3d8	-2.4123492e-06
190	0xb90f3b3a	-0.00013659606
191	0xb70689ae	-8.019078e-06
192	0x3778ef2c	1.4837638e-05
193	0xb7e8f7c7	-2.7771935e-05
194	0xb850a705	-4.9746614e-05
195	0xb8894b67	-6.546714e-05
196	0xb74fe9a6	-1.2392562e-05
197	0xb4fa2f09	-4.660035e-07
198	0x38874443	6.4500164e-05
199	0xb6f2d782	-7.2372504e-06
200	0xb7ce9523	-2.462656e-05
201	0xb50f3f1d	-5.3363493e-07
202	0xb80b127e	-3.3157405e-05
203	0xb7b33eaa	-2.1367643e-05
204	0x3708c210	8.151415e-06
205	0xb5f29970	-1.8075061e-06
206	0xb8b8054b	-8.7747896e-05
207	0xb6fb8f66	-7.4970767e-06
208	0x379dd0d1	1.8813096e-05
209	0xb80d1b92	-3.3642697e-05
210	0xb8a848fd	-8.0244594e-05
211	0xb80f9c12	-3.423921e-05
212	0xb7e3cbc3	-2.7155393e-05
213	0x35b79bda	1.3679921e-06
214	0xb8d9bffa	-0.00010383125
215	0xb6d45a12	-6.328578e-06
216	0xb795b3d6	-1.7845927e-05
217	0x37fb2371	2.9938035e-05
218	0xb85d9db3	-5.2837375e-05
219	0xb7e10a0a	-2.6826765e-05
220	0xb7e10e3a	-2.6828715e-05
221	0xb6091cd1	-2.0431364e-06
222	0xb8f9ec80	-0.00011917297
223	0xb6c0a095	-5.74074e-06
224	0xb3a9fcd1	-7.915663e-08
225	0xb6a7b45f	-4.997986e-06
226	0xb72d62e5	-1.0334629e-05
227	0xb674bbf3	-3.6468234e-06
228	0xb5c955ae	-1.5000603e-06
229	0xb594ddc6	-1.1091404e-06
230	0xb784f0e9	-1.5847809e-05
231	0x36809776	3.8323296e-06
232	0xb609ac0f	-2.0514742e-06
233	0x3691ee70	4.3490945e-06
234	0xb6ec5570	-7.0432943e-06
235	0xb643fa3b	-2.9202918e-06
236	0xb691c245	-4.3439527e-06
237	0x34af2d37	3.2629188e-07
238	0xb78ce570	-1.679614e-05
239	0xb61c9855	-2.333448e-06
240	0x3764b9b9	1.3633101e-05
241	0xb7e8eb24	-2.7766051e-05
242	0xb802a8a6	-3.115148e-05
243	0xb81c1594	-3.7213395e-05
244	0x38930ed5	7.012269e-05
245	0x360d9f1f	2.1103258e-06
246	0xb87baef0	-6.0005987e-05
247	0x36564c16	3.1932773e-06
248	0xb83a7c8f	-4.446186e-05
249	0x389b86d7	7.416092e-05
250	0xb7524fcc	-1.2535555e-05
251	0xb7c7cf96	-2.3819313e-05
252	0xb7d5863e	-2.545409e-05
253	0xb61ab39c	-2.3052335e-06
254	0xb8833b54	-6.2576175e-05
255	0xb70f9f2c	-8.560524e-06

convs.3.weight f4 [16, 16]
0	0x36ca6f85	6.0330517e-06
1	0xb77476cc	-1.4571193e-05
2	0xb845770a	-4.7079324e-05
3	0xb84f4434	-4.9416165e-05
4	0xb702d98f	-7.799258e-06
5	0x35f5bd78	1.8309065e-06
6	0xb8caa8e6	-9.6635704e-05
7	0xb7ef61c6	-2.853655e-05
8	0xb6f8b166	-7.411628e-06
9	0x3977efde	0.00023645113
10	0x37384c84	1.098507e-05
11	0xb6e6f9ae	-6.8836007e-06
12	0x37d2a2f3	2.510983e-05
13	0x33e4335e	1.0626421e-07
14	0xb82eef97	-4.170797e-05
15	0xb6089987	-2.0354944e-06
16	0x3614c7e4	2.217007e-06
17	0xb768ef52	-1.3883999e-05
18	0xb71ffd92	-9.5361775e-06
19	0xb74c2829	-1.2168698e-05
20	0xb5bb57d8	-1.3958152e-06
21	0x36b66166	5.4353613e-06
22	0xb7277ec0	-9.983487e-06
23	0xb5da1dd0	-1.6250942e-06
24	0xb710a33c	-8.621075e-06
25	0x36032621	1.9542715e-06
26	0xb703f976	-7.866291e-06
27	0xb6bda9fb	-5.6524273e-06
28	0xb68040b8	-3.8222315e-06
29	0xb66cb0eb	-3.526972e-06
30	0xb73dd3d4	-1.1314598e-05
31	0x36d6f497	6.406171e-06
32	0x363ba5e3	2.796173e-06
33	0xb4ee351a	-4.436959e-07
34	0xb6e3f745	-6.793913e-06
35	0xb61d7fa5	-2.3469122e-06
36	0xb68de3de	-4.2286547e-06
37	0x350dca74	5.28212e-07
38	0xb72ce154	-1.0304462e-05
39	0xb5f5e90a	-1.8321746e-06
40	0xb617705b	-2.2566153e-06
41	0x3621928f	2.4076178e-06
42	0xb6f044ff	-7.1605896e-06
43	0xb5711507	-8.9810095e-07
44	0x354d5eed	7.6506586e-07
45	0x34968284	2.803464e-07
46	0xb7c8b762	-2.3927252e-05
47	0x30ca0667	1.4699254e-09
48	0x36e6abc1	6.874529e-06
49	0xb7c8eaff	-2.3951286e-05
50	0xb83f4971	-4.5606346e-05
51	0xb7cc0e9f	-2.4325504e-05
52	0xb6e9a1aa	-6.9627613e-06
53	0x360a224c	2.0583566e-06
54	0xb817ee56	-3.6223173e-05
55	0xb69572ea	-4.453924e-06
56	0xb7914005	-1.7315158e-05
57	0x38ada2e5	8.279624e-05
58	0xb824860e	-3.9225495e-05
59	0xb7a9cc36	-2.0241463e-05
60	0xb75521a5	-1.2703623e-05
61	0x3617c79c	2.2616941e-06
62	0xb88d5cbc	-6.740677e-05
63	0x37b8c7e3	2.2027589e-05
64	0x34a0753f	2.988763e-07
65	0xb7de7dd9	-2.6523065e-05
66	0xb80b4ca7	-3.321157e-05
67	0xb840da9b	-4.597996e-05
68	0xb7264c54	-9.912143e-06
69	0xb69783c5	-4.5154907e-06
70	0xb9047d95	-0.00012635284
71	0xb7131c48	-8.7684675e-06
72	0xb82b753e	-4.0878767e-05
73	0x363c9109	2.8098605e-06
74	0xb8802e3c	-6.1121274e-05
75	0xb7abe8b1	-2.0493144e-05
76	0x3791a89e	1.7363865e-05
77	0x34edc9cc	4.4291517e-07
78	0x38395b48	4.419245e-05
79	0x37030ac4	7.810715e-06
80	0xb094fcad	-1.0840232e-09
81	0x35f7e355	1.8469096e-06
82	0xb100c6cf	-1.873946e-09
83	0x31c454bf	5.7139853e-09
84	0xb641d07e	-2.88806e-06
85	0x2fab10ba	3.1116604e-10
86	0x3256c23c	1.2500603e-08
87	0xb2aa24e4	-1.980738e-08
88	0xb1e4a6eb	-6.6546497e-09
89	0xb1c72b39	-5.796576e-09
90	0x364ad954	3.0226847e-06
91	0x3681105f	3.8464054e-06
92	0xb21d79dd	-9.166311e-09
93	0xb1bb5508	-5.4520832e-09
94	0x358c06ba	1.043277e-06
95	0x314d2a91	2.9855622e-09
96	0x364ef78f	3.084049e-06
97	0xb66e8e39	-3.5547548e-06
98	0xb70c487f	-8.36153e-06
99	0xb75c4e75	-1.3131289e-05
100	0x346ef19b	2.2253373e-07
101	0x3421a0fd	1.505286e-07
102	0xb7de0eb3	-2.6471307e-05
103	0x368fc283	4.2843762e-06
104	0x34be6448	3.5463222e-07
105	0x3794ae11	1.772403e-05
106	0x3745167e	1.1747352e-05
107	0xb60cb03b	-2.0964205e-06
108	0xb64f3535	-3.0876374e-06
109	0x36022914	1.939542e-06
110	0xb7916bc7	-1.7335535e-05
111	0x359f4695	1.1866965e-06
112	0x375f12ac	1.3296183e-05
113	0x374db063	1.226002e-05
114	0xb89384ee	-7.034266e-05
115	0xb7c504a5	-2.3486393e-05
116	0xb6f89314	-7.408098e-06
117	0x36a72a45	4.9819087e-06
118	0xb8963753	-7.162862e-05
119	0xb81951fa	-3.655439e-05
120	0xb7930f0f	-1.7530778e-05
121	0x390f8d46	0.00013690171
122	0xba806371	-0.0009795261
123	0xb77e86df	-1.5170982e-05
124	0x38893e93	6.5443244e-05
125	0x35dd379a	1.6481965e-06
126	0xb904128c	-0.0001259541
127	0xb6c729ad	-5.935514e-06
128	0x35d796e9	1.6062669e-06
129	0xb49e42b8	-2.9478338e-07
130	0xb790f1be	-1.7278708e-05
131	0xb7c181c9	-2.3067829e-05
132	0x33112ba9	3.3800152e-08
133	0x34b4b006	3.3655687e-07
134	0xb72034eb	-9.549064e-06
135	0x38d1257f	9.972881e-05
136	0xb5a9a298	-1.2638802e-06
137	0x36a3acaa	4.8778793e-06
138	0xb70773f7	-8.073627e-06
139	0x343f9a73	1.784445e-07
140	0x3757e3a4	1.2868e-05
141	0x352cddbd	6.4397665e-07
142	0xb75a38fd	-1.3007081e-05
143	0x34ad6716	3.2298766e-07
144	0x368e3e0c	4.239153e-06
145	0xb6ef4f62	-7.1319964e-06
146	0xb7f36bc0	-2.9018032e-05
147	0xb8758f73	-5.854615e-05
148	0xb84fed7f	-4.957383e-05
149	0x3601a25d	1.9317006e-06
150	0xb90e626a	-0.00013578837
151	0xb81557df	-3.5606205e-05
152	0xb73a9e70	-1.1123353e-05
153	0x386c42d0	5.632901e-05
154	0xb8635c57	-5.4207016e-05
155	0xb8f8146f	-0.000118293676
156	0xb72cd594	-1.0301726e-05
157	0x36f710dc	7.3631363e-06
158	0xb8aa4a23	-8.120041e-05
159	0xb6c3afed	-5.8319333e-06
160	0x358d8a8d	1.0545642e-06
161	0xb60fb75b	-2.1415387e-06
162	0xb5073709	-5.0371506e-07
163	0xb682af76	-3.8947283e-06
164	0xb4c481e8	-3.6602364e-07
165	0x34668472	2.1468603e-07
166	0xb73ba5c6	-1.1184666e-05
167	0xb5ae884d	-1.3003679e-06
168	0xb64d4206	-3.0585811e-06
169	0x36683bd2	3.4605514e-06
170	0x370794d5	8.08128e-06
171	0xb590331d	-1.0743712e-06
172	0xb5c924dc	-1.4986394e-06
173	0xb46a33b5	-2.1811759e-07
174	0xb78343e2	-1.5648027e-05
175	0xb40f53ee	-1.3348446e-07
176	0xb5daf481	-1.6313426e-06
177	0xb8676297	-5.516651e-05
178	0xb824ed0e	-3.932142e-05
179	0xb8149c5a	-3.5431563e-05
180	0xb75735c0	-1.2827513e-05
181	0x361ba31c	2.3191742e-06
182	0xb88b89d5	-6.65371e-05
183	0xb76150ee	-1.3429888e-05
184	0xb7c37805	-2.33017e-05
185	0x381f774f	3.801967e-05
186	0xb883c5b7	-6.283394e-05
187	0xb7dfdac1	-2.6685537e-05
188	0xb7ad4286	-2.0654184e-05
189	0x3396eb5b	7.02773e-08
190	0xb8bb1b7c	-8.921974e-05
191	0x381bd787	3.7155605e-05
192	0x362cc41b	2.5744146e-06
193	0xb873b0c0	-5.8100326e-05
194	0xb7ffce58	-3.0494455e-05
195	0xb83011c5	-4.197822e-05
196	0xb7bdc9fa	-2.2624608e-05
197	0x361ec2b6	2.3657171e-06
198	0xb88caf1c	-6.708337e-05
199	0xb7e94436	-2.7807528e-05
200	0xb8263f9b	-3.963672e-05
201	0x3886a612	6.420551e-05
202	0xb83dd0f8	-4.525573e-05
203	0xb76f700d	-1.4271599e-05
204	0x38272cbd	3.985757e-05
205	0x3423b459	1.5246168e-07
206	0xb87dc836	-6.050636e-05
207	0x3793789b	1.7579927e-05
208	0x37492c7f	1.1990894e-05
209	0xb808fb4b	-3.265896e-05
210	0xb837bb34	-4.3804946e-05
211	0xb77b45a7	-1.4976983e-05
212	0xb7f28cb9	-2.8914177e-05
213	0x359d10b6	1.1702275e-06
214	0xb8815787	-6.1675026e-05
215	0xb6c53690	-5.8774094e-06
216	0xb7ab011a	-2.0385301e-05
217	0x39879424	0.0002585958
218	0xb83b6a43	-4.468324e-05
219	0xb70ab253	-8.26696e-06
220	0xb6e25fd6	-6.7464816e-06
221	0xb68cb242	-4.193077e-06
222	0xb5e27511	-1.6872383e-06
223	0xb703369b	-7.820922e-06
224	0x34ed532c	4.4205206e-07
225	0xb6a72dcb	-4.982319e-06
226	0xb6c3ce7e	-5.8354917e-06
227	0xb6d9fe68	-6.4967207e-06
228	0xb6d4cfcd	-6.3422835e-06
229	0xb59c16e9	-1.1629573e-06
230	0xb8581eb2	-5.1527e-05
231	0xb65e8e9e	-3.3163592e-06
232	0xb717f3f1	-9.057098e-06
233	0x3668fcb4	3.4717787e-06
234	0xb70e7777	-8.491675e-06
235	0xb5bb86af	-1.3971784e-06
236	0xb6637476	-3.3893425e-06
237	0x35029e96	4.8659547e-07
238	0xb7919c34	-1.7358085e-05
239	0xb59f3c30	-1.186394e-06
240	0x37604cc9	1.3369318e-05
241	0xb703f2f4	-7.864775e-06
242	0xb88aa3c2	-6.610855e-05
243	0xb7b6c305	-2.1786904e-05
244	0xb70f2e11	-8.53419e-06
245	0xb796c18f	-1.7971526e-05
246	0xb94d1d14	-0.00019561156
247	0xb6f5e592	-7.3282945e-06
248	0xb7508dec	-1.243081e-05
249	0x384c71bb	4.874331e-05
250	0xb809fde0	-3.2899785e-05
251	0xb7a16415	-1.92393e-05
252	0xb7a15a73	-1.9234814e-05
253	0x354a3827	7.5332576e-07
254	0xb8b471f2	-8.604293e-05
255	0xb703f563	-7.865342e-06

convs.4.weight f4 [16, 16]
0	0x370d3e0a	8.4186995e-06
1	0xb7a68f87	-1.9855577e-05
2	0xb828b9a7	-4.0227224e-05
3	0xb7be7831	-2.2705733e-05
4	0xb8761cb2	-5.8677695e-05
5	0x35b02d25	1.3126161e-06
6	0xb82dcecf	-4.143902e-05
7	0xb65e3e2f	-3.3116773e-06
8	0x379a03a0	1.8359919e-05
9	0x36fbf567	7.5089515e-06
10	0x391abbc0	0.00014756527
11	0xb7201bca	-9.543213e-06
12	0xb6db0c94	-6.528173e-06
13	0xb48b6ad1	-2.5968487e-07
14	0xb822cd84	-3.881521e-05
15	0x380cdf32	3.3586468e-05
16	0xb380a88d	-5.991124e-08
17	0xb6a9461a	-5.0447534e-06
18	0x372aae93	1.0173436e-05
19	0xb71b1c14	-9.245257e-06
20	0xb5d8cfd1	-1.6153737e-06
21	0x347d8c8f	2.3613596e-07
22	0xb7c33ac4	-2.3273176e-05
23	0xb593c28d	-1.1008975e-06
24	0xb61e55c3	-2.3593755e-06
25	0x363cb6a2	2.812049e-06
26	0x3531ca41	6.6231956e-07
27	0xb5faa33b	-1.8673958e-06
28	0xb66230e6	-3.3705087e-06
29	0xb48fbded	-2.6774015e-07
30	0xb5ce4c09	-1.5370325e-06
31	0xb8068fb4	-3.2081924e-05
32	0x3684e1c8	3.960191e-06
33	0xb4785472	-2.3127521e-07
34	0xb6f9719c	-7.434004e-06
35	0xb5cf051e	-1.5424191e-06
36	0xb5e2d64a	-1.6900678e-06
37	0x34d8a51a	4.0353262e-07
38	0xb6e7a84f	-6.90393e-06
39	0x36578fff	3.2121313e-06
40	0xb60469ee	-1.9731192e-06
41	0x35e323a0	1.6923186e-06
42	0xb6ec44e0	-7.041366e-06
43	0xb6010c1f	-1.9229553e-06
44	0xb685bc28	-3.985613e-06
45	0x330d8152	3.2946737e-08
46	0xb79ea19c	-1.8910323e-05
47	0xb558aabc	-8.071472e-07
48	0x369258f4	4.3614946e-06
49	0xb6db0138	-6.5268505e-06
50	0xb844caf5	-4.691906e-05
51	0xb83145b5	-4.226501e-05
52	0xb74bd61c	-1.2149594e-05
53	0xb6686fb8	-3.4635723e-06
54	0xb81ea136	-3.7820275e-05
55	0xb737f947	-1.0965689e-05
56	0xb7d683e5	-2.5572206e-05
57	0x37b6a1b9	2.1771399e-05
58	0xb81bc9b2	-3.7142723e-05
59	0xb7813c43	-1.540606e-05
60	0x38a9dd2c	8.0997444e-05
61	0x354f777a	7.728737e-07
62	0xb86b4bf5	-5.6099107e-05
63	0xb5fb9923	-1.8745526e-06
64	0x371736d7	9.01307e-06
65	0xb82bef2d	-4.0992327e-05
66	0xb85dbab6	-5.2864394e-05
67	0xb82543a2	-3.9402054e-05
68	0xb72c9b8b	-1.0288214e-05
69	0x35ff5ddc	1.9026297e-06
70	0xb8774c45	-5.896042e-05
71	0x3826b1b7	3.9742994e-05
72	0xb7c26904	-2.3175504e-05
73	0x3717ca33	9.0473795e-06
74	0xb87f92f4	-6.09336e-05
75	0xb7c03336	-2.291203e-05
76	0xb7af3188	-2.088469e-05
77	0x3596cf2e	1.1236168e-06
78	0xb8b11b03	-8.445049e-05
79	0x36fafc0e	7.4799236e-06
80	0xb0b695c9	-1.3284814e-09
81	0xb1eec8fe	-6.949562e-09
82	0x31261bc6	2.4171967e-09
83	0x31c02e27	5.5931824e-09
84	0x30ae93b9	1.2702152e-09
85	0x2ffb41bc	4.570334e-10
86	0x327776c6	1.4404298e-08
87	0xb65e820a	-3.315627e-06
88	0xb303a5d0	-3.065162e-08
89	0x32f4c580	2.8495151e-08
90	0x302ff705	6.4015665e-10
91	0xb04281bd	-7.076116e-10
92	0xb1be6982	-5.5417226e-09
93	0x31cde5ec	5.9924243e-09
94	0xb0889de9	-9.940183e-10
95	0x31613358	3.2770995e-09
96	0x36145ad6	2.2106592e-06
97	0xb682d838	-3.899473e-06
98	0x3707f4df	8.1036405e-06
99	0xb6a43bc5	-4.894539e-06
100	0xb58f2b8a	-1.0667002e-06
101	0xb697d24f	-4.524634e-06
102	0xb720ba57	-9.580129e-06
103	0x371adb68	9.2302e-06
104	0xb6b8a732	-5.5030914e-06
105	0x36898682	4.098577e-06
106	0xb74eaa06	-1.23181435e-05
107	0x365e3c93	3.3115837e-06
108	0x36c24228	5.789352e-06
109	0xb62ca7c8	-2.5727659e-06
110	0xb68ec5e6	-4.254968e-06
111	0xb575aea5	-9.1523754e-07
112	0xb8284aed	-4.01241e-05
113	0xb7e38eaf	-2.7126951e-05
114	0xb8099588	-3.2802607e-05
115	0xb7a5cad1	-1.9763977e-05
116	0xb8541aa1	-5.056954e-05
117	0xb7021247	-7.752859e-06
118	0xb922a294	-0.00015510089
119	0xb67a72b1	-3.7319662e-06
120	0x3727ebe6	1.00089e-05
121	0x37b13a65	2.1127236e-05
122	0xb8709d0f	-5.736673e-05
123	0xb79b1cb4	-1.8490806e-05
124	0xb77493cf	-1.4577948e-05
125	0xb7332642	-1.0678139e-05
126	0xb8f46571	-0.000116537216
127	0xb5cbddf4	-1.5189275e-06
128	0x35983f40	1.1343291e-06
129	0xb738f336	-1.1023882e-05
130	0xb7678a41	-1.3800863e-05
131	0xb6864d72	-4.002527e-06
132	0x3679cb65	3.7222283e-06
133	0x3491095f	2.7015173e-07
134	0xb72a4732	-1.0149366e-05
135	0x3541c535	7.2185077e-07
136	0xb6c90612	-5.9909735e-06
137	0x363beb20	2.8002032e-06
138	0xb6b1d71b	-5.3000526e-06
139	0xb64afd48	-3.0247775e-06
140	0xb6b40ad6	-5.3656795e-06
141	0x358f8cba	1.0695287e-06
142	0xb784bc36	-1.5823269e-05
143	0x3507211c	5.03396e-07
144	0x37041c09	7.874341e-06
145	0xb849cd8f	-4.8113576e-05
146	0xb80a95fe	-3.3041455e-05
147	0xb7a7bacf	-1.999494e-05
148	0xb88fb9f1	-6.853406e-05
149	0xb5d86edd	-1.612552e-06
150	0xb84ffac2	-4.9586182e-05
151	0xb6979499	-4.5174497e-06
152	0xb7eded4f	-2.8363107e-05
153	0x37fde11a	3.0264771e-05
154	0xb818537a	-3.6317368e-05
155	0xb894c61d	-7.0940914e-05
156	0x38d31094	0.00010064352
157	0x36338bf8	2.675455e-06
158	0xb8787cb3	-5.9243943e-05
159	0xb5d2298c	-1.5658311e-06
160	0x35a8c424	1.257406e-06
161	0x34da32c0	4.064259e-07
162	0x3690e512	4.3182017e-06
163	0xb67fabbf	-3.809793e-06
164	0xb690472c	-4.29982e-06
165	0x34225b86	1.5120722e-07
166	0xb6f8b954	-7.412551e-06
167	0xb52db6df	-6.4713635e-07
168	0xb500ebf1	-4.8027056e-07
169	0x3537297f	6.82332e-07
170	0xb6584993	-3.2229334e-06
171	0xb5b618c8	-1.3567269e-06
172	0xb59fe33f	-1.191256e-06
173	0xb3a0be1e	-7.485163e-08
174	0xb681881d	-3.8603453e-06
175	0xb3e685fb	-1.07345805e-07
176	0x3739a44e	1.1065114e-05
177	0x374f9201	1.2372156e-05
178	0xb87c5347	-6.015904e-05
179	0xb78c0f53	-1.6696436e-05
180	0xb7a7b132	-1.9990464e-05
181	0x35f720c6	1.8412472e-06
182	0xb8bc4a0e	-8.978332e-05
183	0x3838d10f	4.406372e-05
184	0xb78a7308	-1.6504448e-05
185	0x378aa443	1.6527372e-05
186	0xb8351b25	-4.3179043e-05
187	0xb7ce87a0	-2.4620269e-05
188	0xb79b1b16	-1.8490053e-05
189	0x3562b47f	8.4454217e-07
190	0xb8eba3af	-0.00011236162
191	0x35ce21be	1.5358016e-06
192	0x3677e9ac	3.6941883e-06
193	0xb8214a2f	-3.845448e-05
194	0xb816a36a	-3.5914978e-05
195	0xb866e73e	-5.5051634e-05
196	0xb7258e44	-9.86789e-06
197	0xb43bc9a1	-1.7489084e-07
198	0xb8910c5b	-6.91644e-05
199	0xb67d6278	-3.7757254e-06
200	0xb829f5e9	-4.052176e-05
201	0x3700139f	7.633963e-06
202	0xb800ca79	-3.0706145e-05
203	0xb7756f01	-1.4628983e-05
204	0x3809be6c	3.284069e-05
205	0xb53b9f79	-6.989499e-07
206	0xb8b5e23d	-8.672893e-05
207	0x36dbeabf	6.5540366e-06
208	0x37652846	1.36588405e-05
209	0x3697c521	4.5230995e-06
210	0xb8424105	-4.631376e-05
211	0xb86fb8c0	-5.7154102e-05
212	0xb827f9be	-4.0048493e-05
213	0xb3183307	-3.5436667e-08
214	0xb94bda7a	-0.00019440977
215	0xb6546f55	-3.1655266e-06
216	0xb84108a5	-4.6022837e-05
217	0xb844faa7	-4.696348e-05
218	0x3890f60d	6.9122856e-05
219	0xb6de6f0e	-6.629044e-06
220	0xb7b482b9	-2.1518545e-05
221	0xb7c1fc3b	-2.3124847e-05
222	0xb8a6169e	-7.9197096e-05
223	0x37e53d15	2.732737e-05
224	0x3576a261	9.1878434e-07
225	0xb6461c65	-2.9520827e-06
226	0xb7066a11	-8.011718e-06
227	0xb73d7828	-1.1293254e-05
228	0xb6c21491	-5.784045e-06
229	0xb55cdfba	-8.228195e-07
230	0xb76e47aa	-1.4202591e-05
231	0x35d26cf7	1.5677932e-06
232	0x364d24f0	3.056888e-06
233	0x35c7aab8	1.4876341e-06
234	0xb5bd9b3c	-1.4126776e-06
235	0xb6304229	-2.6264554e-06
236	0x36943bf7	4.4177245e-06
237	0x3508ba7a	5.093531e-07
238	0xb78408cf	-1.5739728e-05
239	0xb50ab881	-5.1677495e-07
240	0x3719531f	9.138864e-06
241	0xb7bdc1bc	-2.262077e-05
242	0xb8164ff5	-3.5837253e-05
243	0xb8092b8a	-3.2703894e-05
244	0xb84f2da7	-4.9395163e-05
245	0xb6cd7497	-6.123049e-06
246	0x3730baa8	1.0533877e-05
247	0xb748757f	-1.1948286e-05
248	0xb7e6b471	-2.7502161e-05
249	0x37df98ca	2.665482e-05
250	0xb7d6cfb8	-2.5607515e-05
251	0xb792a80c	-1.748281e-05
252	0xb799ec7f	-1.8349148e-05
253	0xb5c7efc5	-1.4896438e-06
254	0x3825c7db	3.9525195e-05
255	0xb720f4e7	-9.593764e-06

convs.5.weight f4 [16, 16]
0	0x36a5e654	4.944197e-06
1	0xb76a3208	-1.3959136e-05
2	0xb8a8244a	-8.0176236e-05
3	0xb7b97131	-2.2106427e-05
4	0xb6f780ae	-7.376154e-06
5	0x35bb2eed	1.3946243e-06
6	0xb838eddb	-4.409054e-05
7	0xb69be817	-4.646379e-06
8	0xb84d6bb0	-4.89761e-05
9	0x37c48d27	2.343075e-05
10	0xb7ac5a72	-2.0546115e-05
11	0xb785c533	-1.5946664e-05
12	0xb74c5758	-1.2179684e-05
13	0x36a7ed43	5.0046087e-06
14	0xb86f101a	-5.6997036e-05
15	0xb5016e43	-4.8216697e-07
16	0xb65d7cc3	-3.3004187e-06
17	0xb6ad6c66	-5.168421e-06
18	0xb76ad274	-1.3996487e-05
19	0xb6b3f389	-5.362967e-06
20	0xb5b626e8	-1.357138e-06
21	0xb4f98932	-4.6479687e-07
22	0x390c92f6	0.00013406188
23	0xb685e002	-3.989787e-06
24	0xb70fdffd	-8.5756155e-06
25	0x360ff530	2.1451378e-06
26	0xb69e63f8	-4.720405e-06
27	0xb69464bb	-4.4224703e-06
28	0x372c41c5	1.0267312e-05
29	0x37bbd6bb	2.2392129e-05
30	0xb759e476	-1.2987401e-05
31	0x361c3ca1	2.3281102e-06
32	0x3609959e	2.050168e-06
33	0xb6c9d78e	-6.0153607e-06
34	0xb6aa3e48	-5.0736453e-06
35	0xb6c17cf5	-5.766395e-06
36	0xb6ac9772	-5.14363e-06
37	0xb48c1981	-2.609559e-07
38	0xb6ebd620	-7.028473e-06
39	0x36227b3f	2.421162e-06
40	0xb60a4a35	-2.0606797e-06
41	0x3795942a	1.7831178e-05
42	0xb7246008	-9.797521e-06
43	0xb55d4f6a	-8.244448e-07
44	0xb68c4df2	-4.181399e-06
45	0xb676c816	-3.6773322e-06
46	0xb7e0b38a	-2.6786485e-05
47	0xb3a1f03d	-7.540846e-08
48	0x359f7a97	1.1882101e-06
49	0x367ca210	3.764526e-06
50	0xb7d0de83	-2.4899147e-05
51	0xb86f631b	-5.707434e-05
52	0xb60d44e8	-2.1050746e-06
53	0x35d7cd19	1.607844e-06
54	0xb81bae04	-3.7116944e-05
55	0xb693ad26	-4.4010985e-06
56	0xb81dc53a	-3.76154e-05
57	0x388a43de	6.592994e-05
58	0xb7ce8fb6	-2.4624034e-05
59	0xb72c765c	-1.0279557e-05
60	0x379a0141	1.8358814e-05
61	0x358a1306	1.0287338e-06
62	0x38829ae1	6.2277315e-05
63	0xb442c143	-1.8137966e-07
64	0xb798b68f	-1.8204822e-05
65	0xb7ec32c8	-2.815704e-05
66	0xb849fe6d	-4.8159087e-05
67	0xb882c263	-6.2350904e-05
68	0xb72f80e3	-1.0460822e-05
69	0xb699eafd	-4.5871116e-06
70	0xb9878bcf	-0.00025853372
71	0xb68260e5	-3.885582e-06
72	0xb8d68576	-0.00010229174
73	0x38d2faa6	0.00010060267
74	0xb826e803	-3.9793562e-05
75	0xb73ed428	-1.1374279e-05
76	0xb7bfa2fd	-2.2844872e-05
77	0x35bdbead	1.4137091e-06
78	0x38315602	4.228019e-05
79	0x34e45ed8	4.2537317e-07
80	0xb11c9279	-2.2784248e-09
81	0xb2b6a62d	-2.1263157e-08
82	0xb68c5edc	-4.183368e-06
83	0x31df84eb	6.505265e-09
84	0x31eb07ad	6.840273e-09
85	0xb538b668	-6.881078e-07
86	0x31e6c58d	6.71634e-09
87	0xb2182ac3	-8.857287e-09
88	0x3476295d	2.2925583e-07
89	0x34a95d0a	3.1546398e-07
90	0x322e3ef4	1.0142447e-08
91	0x364c3d25	3.043396e-06
92	0xb18b439f	-4.05312e-09
93	0xb6c5b888	-5.89254e-06
94	0x31c1448c	5.624832e-09
95	0x30ab8aa5	1.2481293e-09
96	0x370309be	7.810477e-06
97	0xb61b3a30	-2.313067e-06
98	0xb7093628	-8.178446e-06
99	0xb6575573	-3.2087235e-06
100	0xb594c03c	-1.1082807e-06
101	0xb70eefe5	-8.519714e-06
102	0xb72fd530	-1.0480449e-05
103	0xb5919241	-1.0845907e-06
104	0xb58fbde1	-1.0709592e-06
105	0xb667d9e9	-3.4548523e-06
106	0xb6fcb677	-7.531427e-06
107	0xb575aad1	-9.1518183e-07
108	0x365a8c40	3.2566168e-06
109	0xb58d00b4	-1.0505523e-06
110	0xb7b46a3d	-2.1507143e-05
111	0x3674d2ef	3.6481613e-06
112	0x36b91fad	5.517117e-06
113	0x3821c9df	3.85734e-05
114	0xb8330a74	-4.268666e-05
115	0xb84139d3	-4.606864e-05
116	0xb8fc621e	-0.00012034572
117	0xb5ce5b7e	-1.5374824e-06
118	0xb8806d34	-6.123856e-05
119	0xb690f465	-4.3199857e-06
120	0xb8b8a836	-8.8051354e-05
121	0x363f5dcc	2.8515815e-06
122	0xb83d1277	-4.5078308e-05
123	0xb8cf287f	-9.878072e-05
124	0xb7b4a7fb	-2.1535894e-05
125	0xb4e7c692	-4.3171582e-07
126	0x388f825a	6.843051e-05
127	0x37de7273	2.6517757e-05
128	0x356466a7	8.5086e-07
129	0x369a28b0	4.5942943e-06
130	0xb76417a3	-1.3595362e-05
131	0xb789cc39	-1.6426771e-05
132	0xb79c192a	-1.8608367e-05
133	0x34a6327a	3.0956636e-07
134	0xb7375b59	-1.09289185e-05
135	0x37969a7e	1.7953334e-05
136	0xb63fe0db	-2.85921e-06
137	0x37971c7e	1.801387e-05
138	0xb86c5752	-5.6348108e-05
139	0xb6548929	-3.16703e-06
140	0xb599152b	-1.1405549e-06
141	0x353cd501	7.034542e-07
142	0xb77506fc	-1.4604764e-05
143	0xb52a5d6d	-6.346589e-07
144	0x379029be	1.7185575e-05
145	0xb7e8b249	-2.7739576e-05
146	0xb84b87dc	-4.85255e-05
147	0xb8739753	-5.8076646e-05
148	0xb7b1b638	-2.1184896e-05
149	0x35d0a773	1.5545942e-06
150	0xb86db4fa	-5.667375e-05
151	0xb6d5e510	-6.374561e-06
152	0x3672bcc4	3.6170686e-06
153	0x371fa002	9.514393e-06
154	0xb80a66ca	-3.2997494e-05
155	0xb6842575	-3.938267e-06
156	0xb7c4a5e0	-2.3442262e-05
157	0xb5fc75ef	-1.8809786e-06
158	0xb8771091	-5.8904818e-05
159	0xb65cdfdc	-3.2912858e-06
160	0x35134e00	5.487527e-07
161	0xb5a47bb3	-1.2254953e-06
162	0xb6a7bba1	-4.9988307e-06
163	0xb55cfb44	-8.2322026e-07
164	0xb69cd763	-4.6742366e-06
165	0x3416f5e7	1.4059297e-07
166	0xb6807513	-3.8283265e-06
167	0xb562ed43	-8.453682e-07
168	0xb53ad24c	-6.959642e-07
169	0x35f5cdd8	1.8313831e-06
170	0xb88e694b	-6.7907e-05
171	0xb5fc0ec4	-1.877976e-06
172	0xb5b0c068	-1.316902e-06
173	0x35befab2	1.4229065e-06
174	0x3684f36b	3.962244e-06
175	0xb49e30c4	-2.9465275e-07
176	0x3744da1b	1.1733292e-05
177	0x378f49d3	1.7081305e-05
178	0xb8215650	-3.8465776e-05
179	0xb82957a4	-4.037436e-05
180	0xb75541af	-1.27110825e-05
181	0x360f0263	2.131005e-06
182	0x3988ba64	0.00026078813
183	0xb7696f2a	-1.3913765e-05
184	0xb8e334b3	-0.000108340195
185	0x37c0146b	2.2897691e-05
186	0xb847e4fd	-4.765856e-05
187	0xb714faf8	-8.879921e-06
188	0xb7eea832	-2.8450133e-05
189	0x35df5601	1.6639825e-06
190	0x37b43210	2.1480984e-05
191	0x352b9431	6.391811e-07
192	0xb74eea8b	-1.2333166e-05
193	0xb7cfbc64	-2.476405e-05
194	0xb7e3b685	-2.7145501e-05
195	0xb832c68d	-4.2623422e-05
196	0xb83deaf0	-4.5279914e-05
197	0x35cb4d2c	1.5147139e-06
198	0xb9acc090	-0.00032949867
199	0xb6b74d60	-5.4628326e-06
200	0x3843ad36	4.665294e-05
201	0x377a99c0	1.4936959e-05
202	0xb7fc96b7	-3.0110923e-05
203	0xb7b2bc2f	-2.1306883e-05
204	0x38309c23	4.2107084e-05
205	0x3629f5ef	2.5326115e-06
206	0xb8b3f8e0	-8.581742e-05
207	0xb5b1a13c	-1.3234453e-06
208	0x3764b2cd	1.3631489e-05
209	0xb817898d	-3.612931e-05
210	0xb89f0895	-7.583309e-05
211	0xb81fc731	-3.8094066e-05
212	0xb7a5cdc3	-1.9765348e-05
213	0x360925f0	2.0436673e-06
214	0xb858876e	-5.162454e-05
215	0xb68998d7	-4.100711e-06
216	0xb799de5d	-1.8342567e-05
217	0x389af8d8	7.389643e-05
218	0xb83b3112	-4.4629975e-05
219	0xb75fffd7	-1.3351403e-05
220	0xb7cb1d2d	-2.4213072e-05
221	0x36e03d31	6.682844e-06
222	0x3814260d	3.5321387e-05
223	0xb6a0ac69	-4.7884428e-06
224	0x3586306d	9.997872e-07
225	0xb71563c2	-8.904319e-06
226	0xb752ebf7	-1.2571915e-05
227	0xb6c4ff01	-5.8709415e-06
228	0xb62fef2b	-2.6216246e-06
229	0x34958e65	2.7857018e-07
230	0xb6f26bcc	-7.224711e-06
231	0xb4ff787e	-4.758512e-07
232	0xb71e3d86	-9.431858e-06
233	0x35de68b4	1.6570762e-06
234	0x37ae9bae	2.081491e-05
235	0xb659286b	-3.2359046e-06
236	0xb6536c10	-3.150435e-06
237	0x3598a39c	1.1372499e-06
238	0xb7681df1	-1.3835249e-05
239	0x344c8d90	1.905048e-07
240	0x36d13766	6.2351346e-06
241	0xb840666f	-4.5871766e-05
242	0xb80b0406	-3.314393e-05
243	0xb72611f1	-9.898548e-06
244	0xb80788c5	-3.2313885e-05
245	0x3614d5b8	2.217812e-06
246	0xb9093f48	-0.00013088912
247	0xb77d84ef	-1.5110926e-05
248	0xb8a03f77	-7.641216e-05
249	0x38099f25	3.281156e-05
250	0xb7e59fca	-2.7373335e-05
251	0xb7b8bca5	-2.2022354e-05
252	0xb79ed5f6	-1.8934701e-05
253	0x37966a4d	1.7930894e-05
254	0x37deabf2	2.654453e-05
255	0xb6bff4f8	-5.7207617e-06
