Comparisons/GCNII-master/pretrained/fcaf58125a8645ea80b67d327e8c320c.pt (torch_old, 85412 bytes, 68 tensors)

convs.0.weight f4 [16, 16]
-0.008805708 -0.010646658 -8.941215e-05 -0.011235882 9.44992e-05 3.3388893e-05 -0.00046509094 -0.0015780786
-0.011365274 0.007495339 -0.011305175 -0.00014588497 -0.007860655 -0.00012450111 0.0006887176 -0.00017522264
-0.009022989 1.2152611e-06 -0.0008014361 4.808915e-05 -0.0008213598 -3.9258228e-07 -0.0005730434 -0.004718058
0.009623499 -0.0008117708 -2.1709693e-05 0.002148777 9.8346234e-08 0.010271967 -0.011370795 0.010720366
-0.009057087 -3.273684e-06 -9.192607e-05 -0.0028435849 9.798705e-07 -0.010125614 -8.692171e-05 -4.378121e-05
5.5619625e-05 -2.4187339e-05 0.00077785144 -0.011398671 -0.0013859472 -0.00087387674 -0.001368844 -0.000113899296
0.0002808063 0.0024827144 0.010223938 -0.0003513084 0.008914494 -0.010415608 -0.00042044802 0.00090040313
-2.2893142e-05 0.0010612736 -0.009484971 0.0067135794 3.5908315e-06 0.005486282 5.937518e-06 -0.0011046426
-9.2035436e-05 -6.92953e-05 -0.01057216 0.0016447094 0.0020807353 0.0020599812 -0.011343139 0.00019796123
-0.010869689 0.01040003 0.010077054 0.009462609 0.005133001 0.0006759644 0.00030215515 -0.011124067
-0.00024681483 0.0055203396 -8.204977e-05 -0.00071803003 -0.0024091355 -3.749365e-05 -0.0011788858 0.009285331
-0.0004307442 2.1755668e-05 3.7275542e-05 -1.4736329e-05 -0.0020120672 -0.0054413676 0.0073226644 0.000127033
-0.011342347 -0.00017070698 -0.00029942868 0.010726114 0.0012170394 3.2564374e-05 -0.00020713262 0.0073614237
0.00043700944 0.005573365 0.010952257 0.00035903984 0.011271756 0.003584927 -0.009953023 -8.288343e-05
-0.00016976445 0.0112148225 0.0044831126 -0.00014162571 9.663537e-05 0.01132826 -0.00062635145 0.00230263
0.0003131956 -0.0003566373 0.00029514983 0.005150215 0.005714915 0.0014214747 -0.00026334726 0.00896303
-0.010795639 -2.5513531e-05 -0.011124538 4.5776233e-05 0.01094127 -0.0059517925 -5.0233153e-05 -0.00054451433
0.010621137 0.010089787 -2.1938595e-05 -7.4515533e-06 0.000601865 0.010415424 -0.00799954 0.007667268
-2.8071665e-05 -1.8878012e-05 0.0001753881 -0.010038076 -0.011356498 0.0097494265 -0.00049191783 -0.00070155424
9.364708e-05 0.00803586 -0.011432989 0.00773001 -0.00014342398 0.0002911264 2.9058749e-05 -0.00040113178
-0.01136388 2.7486569e-05 6.971946e-06 0.011313455 0.0008031957 1.3029482e-06 -0.0007830011 -0.011099649
3.985895e-05 0.00063660747 -0.00047476566 -0.00046955724 -0.0007730384 -3.791644e-05 0.0011447612 -0.00020643318
0.008177376 0.00030688662 -0.0091175465 0.011141759 5.142376e-05 0.00022917247 -4.3824977e-05 -0.0002986847
0.00011633959 6.360463e-05 0.00044708344 -0.00028837688 -1.4058196e-05 -1.1260811e-05 -5.0295603e-06 -0.00012448158
-0.0037058638 -0.0111160455 -5.2488495e-08 -3.1518688e-05 0.0012980402 2.4242146e-09 -1.7508528e-05 -5.0132443e-05
0.011365008 -0.0004186042 -0.01087655 0.0005906952 9.749269e-06 0.0022616207 0.002620855 0.011360287
-0.00024162115 7.645353e-05 -0.003632721 0.0011231517 0.011349579 0.0022602119 0.0011264303 -0.010649195
5.6245986e-05 -4.5630823e-05 0.00048325336 0.0002102304 0.0040468317 -0.00760246 -0.00086734415 -0.0007614348
0.010087276 -0.004981045 -0.008551391 0.00039044445 0.0061800857 0.010294195 0.010214649 -0.0081098685
0.00069554255 -0.010876569 6.522363e-05 4.38934e-05 7.3352625e-05 0.008650477 0.0110808965 0.011170421
0.00065212767 -0.0006841502 -7.860253e-06 0.0010891721 7.57534e-06 0.0064954474 0.004420945 0.00020026093
-0.00017960298 -0.0027945992 -0.0003929 0.007810308 -2.7386263e-06 -0.0007440256 -5.4402874e-05 0.010520132
00000000: d145 10bc 526f 2ebc c882 bbb8 b416 38bc
00000010: df2d c638 0d0b 0c38 73d7 f3b9 88d7 ceba
00000020: 6a35 3abc 769b f53b 5739 39bc b3f8 18b9
00000030: fac9 00bc 838c 02b9 0e8b 343a f8bb 37b9
00000040: 29d5 13bc 0e1c a335 7717 52ba 55b3 4938
00000050: 8650 57ba 19c4 d2b4 4b38 16ba f099 9abb
00000060: e1ab 1d3c 04cd 54ba 361d b6b7 7fd2 0c3b
00000070: 6a32 d333 c14b 283c 924c 3abc 79a4 2f3c
00000080: 2d64 14bc 76b1 5bb6 6fc8 c0b8 705b 3abb
00000090: 1884 8335 e7e5 25bc bd49 b6b8 b7a1 37b8
000000a0: 1e49 6938 eae5 cab7 bae8 4b3a 7ec1 3abc
000000b0: aca8 b5ba e014 65ba c86a b3ba 38dd eeb8
000000c0: 2f39 9339 09b5 223b 4e82 273c d12f b8b9
000000d0: 190e 123c 3aa6 2abc 946f dcb9 0809 6c3a
000000e0: a60a c0b7 6f1a 8b3a da66 1bbc 96fd db3b
000000f0: 04fa 7036 45c6 b33b e43a c736 a8c9 90ba
00000100: 2603 c1b8 a252 91b8 da36 2dbc 4a93 d73a
00000110: f25c 083b c000 073b 93d8 39bc d093 4f39
00000120: c816 32bc e364 2a3c 3a1a 253c 0f09 1b3c
00000130: bc32 a83b 3433 313a 946a 9e39 b841 36bc
00000140: ed66 81b9 f7e3 b43b 2312 acb8 2e3a 3cba
00000150: 96e2 1dbb 8042 1db8 d884 9aba 8021 183c
00000160: 82d5 e1b9 f17f b637 4f58 1c38 0d3c 77b7
00000170: e3dc 03bb 804d b2bb f6f2 ef3b 2934 0539
00000180: 40d5 39bc ceff 32b9 a3fc 9cb9 95bc 2f3c
00000190: 1185 9f3a bb95 0838 bd31 59b9 1938 f13b
000001a0: 6a1e e539 c6a0 b63b 1871 333c 833d bc39
000001b0: 2cad 383c 18f1 6a3b 0112 23bc b4d1 adb8
000001c0: cc02 32b9 60be 373c 13e7 923b 5d81 14b9
000001d0: b8a8 ca38 2b9a 393c bc31 24ba b9e7 163b
000001e0: 6734 a439 0cfb bab9 57be 9a39 22c3 a83b
000001f0: 2f44 bb3b c750 ba3a df11 8ab9 acd9 123c
00000200: 31e0 30bc e405 d6b7 b243 36bc dbff 3f38
00000210: 0343 333c 4107 c3bb 70b1 52b8 bdbd 0eba
00000220: 4704 2e3c a24f 253c c608 b8b7 5b08 fab6
00000230: 7ac6 1d3a 74a5 2a3c 8110 03bc b53d fb3b
00000240: 717b ebb7 395c 9eb7 62e8 3739 be76 24bc
00000250: 9b10 3abc 0fbc 1f3c 0cf4 00ba 82e8 37ba
00000260: 6564 c438 d7a8 033c 6e51 3bbc 064c fd3b
00000270: 1564 16b9 53a2 9839 30c3 f337 ff4e d2b9
00000280: 912f 3abc f592 e637 8ff0 e936 125c 393c
00000290: 8d8d 523a f6e0 ae35 5042 4dba 4ddb 35bc
000002a0: 392e 2738 01e2 263a f8e9 f8b9 e82e f6b9
000002b0: bba5 4aba 7808 1fb8 d00b 963a fc75 58b9
000002c0: 67fa 053c a0e5 a039 c361 15bc ed8b 363c
000002d0: d8af 5738 044e 7039 b6d0 37b8 c898 9cb9
000002e0: 57fb f338 7a63 8538 8666 ea39 4a31 97b9
000002f0: 7edb 6bb7 d1ec 3cb7 98c3 a8b6 4587 02b9
00000300: 14de 72bb 1320 36bc b66f 61b3 ef32 04b8
00000310: 0023 aa3a 3c97 2631 47df 92b7 4d45 52b8
00000320: 4c34 3a3c 1b78 dbb9 8f33 32bc e2d8 1a3a
00000330: cb90 2337 b337 143b a7c2 2b3b 7f20 3a3c
00000340: af5b 7db9 ad55 a038 f212 6ebb b836 933a
00000350: 96f3 393c 1020 143b bba4 933a f679 2ebc
00000360: abe9 6b38 b963 3fb8 2b5d fd39 4b71 5c39
00000370: 499b 843b 0f1e f9bb 7b5e 63ba 069b 47ba
00000380: 1a45 253c 0938 a3bb 221b 0cbc 91b4 cc39
00000390: 5182 ca3b fca8 283c 585b 273c 41df 04bc
000003a0: 1255 363a a333 32bc abc8 8838 2e1a 3838
000003b0: e4d4 9938 bbba 0d3c a68c 353c 2404 373c
000003c0: 8cf3 2a3a 8b58 33ba 88df 03b7 8dc2 8e3a
000003d0: ad2f fe36 c3d7 d43b 93dd 903b 22fd 5139
000003e0: cf53 3cb9 9825 37bb 25fe cdb9 9ded ff3b
000003f0: 3ec9 37b6 b60a 43ba a42e 64b8 a25c 2c3c

convs.1.weight f4 [16, 16]
-0.0008542451 0.0061420114 0.00040446463 0.0010133954 -0.006875131 0.008909566 -0.0070423638 -0.00069958746
0.00035923996 -0.011232893 3.9936265e-05 -0.0009419103 -4.2192114e-05 0.010699101 0.0006791579 0.009901853
-0.0029583536 -0.008217834 -0.011082829 -3.206879e-05 0.010456669 4.4918743e-05 -0.00059843727 0.010075941
-2.937272e-05 0.0021368254 7.28083e-06 -0.00061352784 -0.00073749496 -6.00117e-05 0.011018835 -0.010556116
-0.010792783 -1.8676266e-06 -4.4369e-06 -0.00073184137 0.011371799 0.010612533 0.0004937439 0.00052183913
0.003881647 -1.6318394e-05 -0.0001449367 -8.685754e-05 -2.0323807e-06 -5.9418962e-05 -0.00022316568 -0.0007597827
0.01027037 -0.010796614 -0.00070700404 0.00013367776 -0.00020069361 -4.3755023e-07 -0.0112550305 0.00090725604
0.0111474665 0.00075070705 -0.011079708 -0.00021492806 -0.005032566 -0.010333605 1.4176649e-06 -0.0003758558
0.0060607903 -6.197158e-05 -0.007905111 0.00029940408 0.003469892 0.009977438 0.0056186635 0.010329592
0.0089665 -9.793891e-07 -0.0053465273 -0.00012213894 0.008670612 0.00993646 0.00049465534 0.007747112
-5.479429e-07 0.0007274655 -0.0008323203 3.006304e-08 1.7737126e-08 -4.0085848e-05 -0.00037680275 0.011386614
0.01010137 0.00017022254 -0.010759261 -0.0006547178 0.0050803605 4.1194697e-05 4.955286e-06 -0.0004888225
-0.008650426 -0.0007333885 0.010175178 -5.818646e-06 -0.00236743 -3.3389714e-08 0.0017800496 -0.010969817
-0.00045887587 0.0011068304 0.011364569 0.0006018319 0.0008515181 4.0827737e-05 1.261531e-05 0.008559644
0.011203245 0.0002765397 -0.011337143 -0.0015251595 0.0015576965 -1.9351355e-06 0.007920761 -0.00056084903
-0.00010791782 -0.00027954945 -0.010684159 0.011321874 -0.0049544987 0.006462312 0.00036145185 -0.011286029
0.00028112496 -0.01136375 0.01101501 -0.0005267835 -0.0015573587 -4.26062e-05 -7.2197494e-05 -0.00077568187
-0.005844998 0.00063390995 5.4853263e-05 0.0008608573 0.010222841 9.2848195e-06 -1.05198205e-05 -0.0008310247
-9.211624e-05 -0.0052493406 3.263769e-05 -3.0570733e-05 1.4576218e-05 0.011379834 0.011084952 -0.0006555761
-0.00041369902 -0.00022953976 -0.00018832131 -0.00015633933 -0.010971202 0.00025027856 -0.0068420134 -0.0010841833
-0.0007368185 0.00040121013 0.0048578023 0.004317707 -2.4477067e-05 -0.0003888099 0.00827564 -0.0019015649
-0.010027063 -6.781912e-06 -2.0366706e-05 0.011278905 -0.00037854703 2.1807204e-05 0.0007609814 -1.7594688e-05
-0.0006504285 -0.0007411961 0.009816099 -0.0034154726 -0.0005860159 0.0005423383 -9.5607895e-05 5.0098606e-06
-3.272457e-05 -0.0074090464 0.000516901 -0.009325697 -0.010838773 -0.00065119157 0.0074980822 -0.01000742
-0.009430396 0.00876881 1.2187698e-10 0.010308355 0.010390899 2.0715133e-05 4.3935315e-06 2.6015256e-05
-3.0716953e-06 -0.011307871 4.4078402e-05 0.0017841981 2.1441863e-06 3.976776e-05 0.00026598244 0.006583883
0.00041160977 -0.00037241247 0.010676027 0.00036778834 -0.010773595 -0.01104219 -0.011395478 -0.0016248182
-0.008573194 -0.00014134067 0.00035024693 0.0003591818 -0.0001872411 0.005160687 -0.00018028996 -0.00036927074
0.00025474676 -0.0005975788 0.0017418909 -4.6084115e-06 0.001776002 0.0042087263 0.00013721186 -2.4149783e-06
-0.011354796 -0.0106288465 -1.00885745e-05 0.0002051998 4.494077e-05 0.0006337008 1.1338191e-05 0.00084248866
0.00041271548 -0.011249847 -3.0281524e-05 -0.0005746846 1.6560946e-06 -0.00067545596 0.00035173865 -0.008100567
-0.009433369 0.0010228675 0.007681641 -0.00023675669 -3.628031e-05 -0.00014384712 0.00012811676 0.011080712
00000000: 6bef 5fba ed42 c93b 530e d439 e8d3 843a
00000010: c748 e1bb 6ef9 113c a1c3 e6bb 8564 37ba
00000020: 5f58 bc39 2b0a 38bc 3d81 2738 88ea 76ba
00000030: 70f7 30b8 484b 2f3c 8409 323a 623b 223c
00000040: f0e0 41bb 18a4 06bc c194 35bc 9a81 06b8
00000050: 7352 2b3c 2267 3c38 72e0 1cba 8f15 253c
00000060: 7065 f6b7 fb09 0c3b da4d f436 28d5 20ba
00000070: 7354 41ba 12b5 7bb8 5888 343c 8ff3 2cbc
00000080: 37d4 30bc 29ab fab5 aee0 94b6 0bd9 3fba
00000090: c850 3a3c 31e0 2d3c 986e 013a 08cc 083a
000000a0: 3b63 7e3b 7ce3 88b7 26fa 17b9 4927 b6b8
000000b0: 0964 08b6 a038 79b8 9501 6ab9 272c 47ba
000000c0: 0e45 283c 48e4 30bc 3d56 39ba da2b 0c39
000000d0: 4871 52b9 72e8 eab4 0567 38bc ecd4 6d3a
000000e0: dda3 363c 19cb 443a aa87 35bc 505e 61b9
000000f0: 39e8 a4bb 484e 29bc 9846 be35 830e c5b9
00000100: 9899 c63b bdf6 81b8 7084 01bc 56f9 9c39
00000110: 2167 633b 6878 233c c41c b83b 733d 293c
00000120: 3ae8 123c 8e73 83b5 ec31 afbb 6c12 00b9
00000130: 2f0f 0e3c 89cc 223c c2ab 013a 7cdb fd3b
00000140: 5916 13b5 62b3 3e3a 1230 5aba a91e 0133
00000150: 5a5c 9832 da21 28b8 9c8d c5b9 ec8e 3a3c
00000160: 3780 253c c47d 3239 9d47 30bc 5ea1 2bba
00000170: 2779 a63b 78c8 2c38 9545 a636 5324 00ba
00000180: 84ba 0dbc de40 40ba cab5 263c ca3d c3b6
00000190: e226 1bbb 6168 0fb3 8e50 e93a bfba 33bc
000001a0: 4795 f0b9 1113 913a 7532 3a3c 41c4 1d3a
000001b0: 6a38 5f3a 733e 2b38 58a6 5337 c03d 0c3c
000001c0: d18d 373c 88fc 9039 6dbf 39bc dce7 c7ba
000001d0: 9f2b cc3a 60dd 01b6 14c6 013c f105 13ba
000001e0: f051 e2b8 7e90 92b9 9c0c 2fbc 627f 393c
000001f0: 5959 a2bb cdc1 d33b 3f81 bd39 09e9 38bc
00000200: f463 9339 062f 3abc 4d78 343c d817 0aba
00000210: 4920 ccba 0fb4 32b8 bc68 97b8 2157 4bba
00000220: 6687 bfbb fa2c 263a 3e12 6638 28ab 613a
00000230: b47d 273c ffc5 1b37 497e 30b7 20d9 59ba
00000240: 882e c1b8 a902 acbb 74e4 0838 1339 00b8
00000250: 618c 7437 7c72 3a3c a99d 353c f8da 2bba
00000260: bee5 d8b9 9cb0 70b9 1e78 45b9 05ef 23b9
00000270: 8ec0 33bc d237 8339 f832 e0bb 281b 8eba
00000280: 0d27 41ba 8359 d239 332e 9f3b 8d7b 8d3b
00000290: 1a54 cdb7 2ed9 cbb9 8d96 073c ee3d f9ba
000002a0: 8d48 24bc 2e90 e3b6 2bd9 aab7 28cb 383c
000002b0: b977 c6b9 9dee b637 997c 473a 4e98 93b7
000002c0: 8581 2aba d44c 42ba b4d3 203c 1fd6 5fbb
000002d0: dd9e 19ba b52b 0e3a 1981 c8b8 601a a836
000002e0: bd41 09b8 96c7 f2bb a480 073a cfca 18bc
000002f0: 1c95 31bc bab4 2aba 79b2 f53b 29f6 23bc
00000300: f381 1abc 0eab 0f3c 5201 062f 60e4 283c
00000310: 973e 2a3c 69c5 ad37 266c 9336 563b da37
00000320: 5323 4eb6 a644 39bc d3e0 3838 c1db e93a
00000330: d7e4 0f36 4fcc 2638 8f73 8b39 9dbd d73b
00000340: 54cd d739 5b40 c3b9 81ea 2e3c b7d3 c039
00000350: bc83 30bc 4dea 34bc 19b4 3abc daf7 d4ba
00000360: 9576 0cbc d934 14b9 59a1 b739 9150 bc39
00000370: 2656 44b9 fb1a a93b 380c 3db9 ae9a c1b9
00000380: 888f 8539 d6a6 1cba 2950 e43a f4a1 9ab6
00000390: bdc8 e83a 5be9 893b 87e0 0f39 0311 22b6
000003a0: 7709 3abc 9d24 2ebc 1942 29b7 e72a 5739
000003b0: c97e 3c38 f11e 263a 2939 3e37 75da 5c3a
000003c0: bc61 d839 4751 38bc 1405 feb7 6ea6 16ba
000003d0: fa46 de35 1511 31ba 9069 b839 3eb8 04bc
000003e0: 6b8e 1abc bd11 863a 46b6 fb3b e441 78b9
000003f0: b02b 18b8 abd5 16b9 1557 0639 e08b 353c

convs.2.weight f4 [16, 16]
-1.1468314e-05 0.008768217 0.0034402593 0.0106994845 -0.011228489 0.011071833 -0.008458698 0.0002447007
3.879623e-05 -0.0031414996 -1.7438015e-05 -0.0035585258 -0.0072398153 0.011182349 0.00047289333 -0.0003255552
4.45628e-05 5.6118824e-07 3.130643e-06 -0.0006978499 2.617074e-06 -0.01102136 -0.0050916784 1.3078289e-05
0.011142184 6.217987e-05 0.005479698 -0.010266381 0.0024222436 -9.010846e-06 -5.0828236e-05 -5.4357206e-05
-0.011139009 4.0353157e-07 -0.0014255892 -0.009198082 -0.010110727 -0.00021837294 -5.9659873e-05 0.000705498
2.2749759e-05 0.0007892006 -4.4597324e-05 0.0053516207 0.0007298417 -7.898804e-06 0.00084111205 -0.010130768
-0.0055705225 -0.011046651 -2.7022841e-05 0.011154384 0.0063741156 0.0029833787 0.011281404 -0.00041539725
0.011283919 0.01126444 0.0019851292 0.010278418 0.0026814805 0.0005318098 -0.010718401 -0.00031305064
-3.1980187e-05 -0.0001626931 -0.0006203602 -0.0006664681 -0.0027501062 0.011244168 0.00032448536 -0.011288882
1.3079941e-05 -6.199982e-05 0.0013865451 -0.0010041376 -1.2214617e-05 -4.3249784e-05 0.00051861285 -0.011378913
0.008771175 0.00016535101 -0.00050854584 0.009663519 -2.6193716e-08 0.011312396 -0.006193135 3.6595063e-07
0.00024159465 0.00010788343 0.011074487 -0.00054714526 -2.257904e-05 0.010980163 0.0035580178 1.6128587e-06
-0.0086026685 -0.010760728 -0.0035886306 0.0020478086 0.0043439027 -0.01125011 0.0002875426 -0.00030154188
-3.4271625e-06 0.01001507 -0.0001620318 -0.010818046 -3.4656154e-05 -2.9433144e-05 0.010640248 0.0007840712
0.00042194367 0.0029720354 -1.5896507e-05 0.0009407829 0.010512522 1.5205398e-05 0.0047989516 -0.0005339109
0.00055580324 -0.009817555 -0.00022133774 -9.3807896e-05 0.011371604 -0.0003032238 0.01127395 -0.00044355483
3.6746813e-05 0.01118645 -0.011255453 -0.0032258853 0.010485489 -0.0007302324 8.6933935e-05 -2.9454946e-05
-2.7110302e-06 -0.0008324897 -0.0100066485 0.0007774017 -0.010620047 -2.0372809e-05 2.4325822e-05 -0.0093292305
2.1400658e-05 0.0010950387 2.8018374e-05 -0.010171404 0.00799773 4.6435838e-05 0.010323152 0.00013876228
0.0003850126 -0.0001804181 0.0007128568 -0.0008338819 -0.0006285699 0.009644349 3.9282575e-05 0.0005353958
-0.010057822 0.0003464138 0.007407937 -0.00896053 -4.287015e-05 -3.964645e-05 0.011366382 3.634707e-06
-0.006595258 -8.148465e-06 0.0015126799 -7.487292e-05 -6.907617e-05 -0.011358204 0.0112082865 -5.621628e-05
0.010764317 -0.00063781807 4.6164332e-05 -0.010816469 9.0222153e-07 -0.010451322 -2.7787893e-05 -0.0013607055
-0.009971587 -0.010752736 0.0008012938 -0.011322614 -0.0023713177 -0.00079848996 -0.00073971925 0.010779714
3.5726785e-05 0.010192499 0.0007950234 4.8245576e-05 0.011218942 5.077183e-06 -1.2876899e-06 0.00083126477
-0.001245245 0.010102895 -0.011355499 -0.010813951 0.0006725336 0.011349006 -0.00030732728 -3.777645e-06
-3.2325886e-05 -0.00095080317 0.00036858892 -0.009649814 -0.00045646876 0.00016547329 0.0002393637 0.0107248835
0.010605434 -0.00012304186 -0.005722641 0.011021219 0.011231752 -0.00088850793 -0.00028730152 -0.010652185
0.008465175 0.007597341 0.00028477094 -0.011222306 -0.002092822 -1.9101751e-06 0.000105209 -0.011031826
0.003952268 -0.00082764414 -0.0062772017 0.005612588 0.0005784164 -0.0075222184 3.6970443e-05 5.895737e-05
-0.0008290044 0.0018886608 -0.01132826 0.0020986395 -0.00020141306 0.0007560711 0.005880937 -0.0106252795
-0.00045932885 5.22689e-05 -0.00017083368 0.004001971 0.010432003 -0.001004501 -7.707521e-05 0.01100121
00000000: 0968 40b7 91a8 0f3c f975 613b e44c 2f3c
00000010: b2f7 37bc a266 353c 5a96 0abc 2c4b 8039
00000020: 22b9 2238 9ee1 4dbb da47 92b7 2836 69bb
00000030: f93b edbb 2c36 373c abee f739 47af aab9
00000040: f1e8 3a38 90a4 1635 0a18 5236 eaef 36ba
00000050: fda0 2f36 ef92 34bc 18d8 a6bb d36a 5b37
00000060: b58d 363c 9066 8238 0a8f b33b 5334 28bc
00000070: 81be 1e3b 4a2d 17b7 6730 55b8 9bfd 63b8
00000080: 6480 36bc f5a4 d834 d6da baba 8db3 16bc
00000090: 76a7 25bc 0afb 64b9 4d3b 7ab8 2bf1 383a
000000a0: bcd6 be37 5be2 4e3a 030e 3bb8 a65c af3b
000000b0: d952 3f3a 1b85 04b7 137e 5c3a 85fb 25bc
000000c0: ee88 b6bb 03fd 34bc 1caf e2b7 e1c0 363c
000000d0: f5dd d03b ca84 433b a3d5 383c adc9 d9b9
000000e0: 30e0 383c 7c8e 383c f118 023b cf66 283c
000000f0: c7bb 2f3b 2769 0b3a 3b9c 2fbc f220 a4b9
00000100: 7722 06b8 9998 2ab9 ab9f 22ba ebb5 2eba
00000110: 203b 34bb 7539 383c b01f aa39 01f5 38bc
00000120: eb71 5b37 e605 82b8 bcbc b53a 449d 83ba
00000130: 61ed 4cb7 1a67 35b8 85f3 073a 9f6e 3abc
00000140: f9b4 0f3c 1362 2d39 ef4f 05ba bd53 1e3c
00000150: 9700 e1b2 a157 393c c8ef cabb df77 c434
00000160: 9254 7d39 7a3f e238 c471 353c 4c6e 0fba
00000170: 1f68 bdb7 24e6 333c a22d 693b 6779 d835
00000180: 35f2 0cbc c44d 30bc 3b2f 6bbb 8734 063b
00000190: 4c57 8e3b 6252 38bc 51c1 9639 4418 9eb9
000001a0: 34fe 65b6 4016 243c 15e7 29b9 2c3e 31bc
000001b0: c35b 11b8 32e7 f6b7 6f54 2e3c 218a 4d3a
000001c0: 5238 dd39 7bc6 423b 7d59 85b7 df9e 763a
000001d0: b73c 2c3c b01a 7f37 8640 9d3b 27f6 0bba
000001e0: 53b3 113a cfd9 20bc e616 68b9 bbba c4b8
000001f0: f74f 3a3c 02fa 9eb9 60b6 383c ec8c e8b9
00000200: 9720 1a38 5f47 373c cb68 38bc 6069 53bb
00000210: 54cb 2b3c 116d 3fba 4d50 b638 0416 f7b7
00000220: 25ef 35b6 703b 5aba edf2 23bc 8cca 4b3a
00000230: b5ff 2dbc 46e6 aab7 4e0f cc37 a1d9 18bc
00000240: 9085 b337 6787 8f3a 0009 eb37 f6a5 26bc
00000250: e908 033c 1ac4 4238 7022 293c b780 1139
00000260: 84db c939 9d2e 3db9 03df 3a3a de98 5aba
00000270: 9dc6 24ba 5503 1e3c 58c3 2438 ce59 0c3a
00000280: 90c9 24bc e09e b539 48be f23b 30cf 12bc
00000290: 79cf 33b8 0d4a 26b8 103a 3a3c caeb 7336
000002a0: 091d d8bb 64b5 08b7 1d45 c63a 1805 9db8
000002b0: fddc 90b8 c317 3abc f6a2 373c c5c9 6bb8
000002c0: d15c 303c 3f33 27ba 93a0 4138 8f37 31bc
000002d0: 3130 7235 063c 2bbc 0c1a e9b7 b359 b2ba
000002e0: de5f 23bc 3e2c 30bc eb0d 523a 7c82 39bc
000002f0: 1c68 1bbb c151 51ba b8e9 41ba 669d 303c
00000300: 58d9 1538 70fe 263c 1e69 503a 4b5b 4a38
00000310: a7cf 373c ab5c aa36 b0d4 acb5 3ce9 593a
00000320: 7d37 a3ba 9d86 253c 6a0c 3abc ff2c 31bc
00000330: f74c 303a 2ef1 393c c520 a1b9 7283 7db6
00000340: a895 07b8 523f 79ba 2b3f c139 411a 1ebc
00000350: 3352 efb9 e682 2d39 b4fd 7a39 6cb7 2f3c
00000360: 6ac2 2d3c cc04 01b9 fe84 bbbb 5892 343c
00000370: 6205 383c c2ea 68ba f5a0 96b9 8186 2ebc
00000380: 84b1 0a3c 1ef3 f83b 4f4d 9539 c3dd 37bc
00000390: ba27 09bb 8f30 00b6 a7a3 dc38 d5be 34bc
000003a0: 0782 813b 42f6 58ba fcb0 cdbb cde9 b73b
000003b0: dea0 173a f17c f6bb b610 1b38 fe48 7738
000003c0: 8b51 59ba f18c f73a 2b9a 39bc 5489 093b
000003d0: 6832 53b9 1333 463a e0b4 c03b a715 2ebc
000003e0: 13d2 f0b9 4e3b 5b38 d121 33b9 f722 833b
000003f0: feea 2a3c 76a9 83ba 70a3 a1b8 6b3e 343c

convs.3.weight f4 [16, 16]
0.0038716686 -0.01023563 0.00051018136 0.0008337132 0.0021018675 -0.000838899 0.00083221745 1.7234055e-05
0.005577624 -7.793312e-05 -5.064365e-05 -0.0010681703 -4.2744405e-06 -0.0006924897 -6.202093e-05 0.00017078499
-2.6122625e-05 0.010173353 8.807359e-05 4.7727266e-05 -0.00036256772 -0.010798621 -0.0008138341 -0.0052566254
0.0004046969 0.010794749 -0.0039550494 0.011314842 0.00065063033 -5.2907308e-06 0.0051875007 -0.010567424
-1.9541276e-05 0.0006602054 0.011362246 -0.0013060012 -3.3722972e-05 0.008670705 2.9074097e-05 0.00068069465
-0.011185048 0.0025643753 -0.0006151626 -7.897841e-06 5.5510095e-06 0.00055609184 -0.0005136961 -5.8352096e-05
-0.0007220858 -0.0077979746 -1.9632651e-05 -0.00677746 0.00064720935 -0.011313833 0.0010903596 -0.00051663205
1.0349563e-05 0.00042284402 -0.0022513273 0.0009226649 0.0004873805 -0.00032276157 -0.002327971 -0.00011045367
0.0112724155 0.0005266081 0.007286792 0.0005993374 0.0050563687 -1.3919968e-06 -0.00043014082 0.00056143344
-4.4021603e-05 0.010519104 0.0068549076 0.011306436 -2.0832913e-05 -0.00039014287 9.642337e-05 -0.00023594454
0.0007718759 -0.01132209 0.0003272353 -0.000638034 0.011192483 0.00036901023 -0.0005541568 0.0003895729
-0.0049809692 0.0005721243 -0.011169917 -0.011046892 3.891393e-05 0.007462457 -0.011359863 -0.00075688545
-0.0007681534 -0.010764689 -0.009152901 1.6126492e-05 -3.321332e-06 0.01084514 4.097728e-06 -0.01087729
2.7190661e-05 -2.2951217e-06 -3.9713155e-05 -0.00024911223 -0.0020094442 -7.781019e-06 -0.004189233 -2.2241346e-05
0.0007988224 0.0007147487 4.307159e-05 -0.0033230684 -0.0031671922 -0.011269439 -0.008973992 -1.9730254e-05
0.010865959 -5.079901e-05 0.00058412016 -0.000167606 1.931229e-06 -0.0001324642 -0.0075093783 -0.00017033298
-0.00030137805 -0.000757137 -3.5997884e-05 -0.0005708708 -0.011370739 -3.8588343e-05 -0.011380982 7.7912286e-05
2.0342806e-05 0.00022540196 0.0110666035 -5.276354e-05 3.3318585e-07 0.0008342883 0.009187775 -0.011340216
-0.010254653 0.00078401394 -0.010944297 -0.0005884707 -3.180708e-05 0.0005196358 0.0004742912 -2.1722437e-05
0.010493375 -5.4441578e-05 0.002225868 0.0016339928 -0.010572883 -4.820852e-05 -0.00016623647 -0.0024340737
-0.00041179694 4.6663763e-06 -0.011217267 -0.0007376906 0.006931663 0.00081447454 -2.9759785e-05 -0.0007485098
-0.00017251987 0.0007110366 -1.0404137e-05 -0.00011916619 0.009220696 -5.0516683e-05 -0.0008123142 -9.826266e-05
0.0113727255 4.0600524e-05 0.0077049546 0.009283478 0.01035155 0.0007856465 0.0022310906 -0.00075508887
-0.009449286 -6.517052e-05 -0.0012446223 0.0110292975 0.0070007783 -0.0005027412 -0.010554923 1.4575027e-06
0.008209158 0.00014355512 0.009216983 -3.65905e-05 -7.652564e-06 -0.01118457 5.1605464e-05 -3.6853003e-06
4.170029e-07 2.7141807e-06 0.00055952644 0.0006329934 4.3728205e-06 -0.0006053205 -0.011028386 -1.7508333e-06
-0.00063463923 -0.0031786922 -0.010285509 -0.010029938 -1.3191352e-06 -0.00017772528 0.00041141393 -0.011056053
0.010369978 7.8036035e-05 0.005440143 2.1924301e-05 0.00077545305 -0.000116502044 0.00010548888 0.0006143237
6.8627783e-06 0.010822573 -0.00991677 -0.00044208355 3.9892025e-06 -3.7867032e-08 1.6992028e-06 0.011147876
0.00083021144 -0.0008287817 -0.00019720984 6.014537e-05 -0.00012294353 -0.00082275114 -0.0001682682 -0.000501277
-0.0008011291 -3.93783e-05 2.2191345e-05 0.0101789255 0.0023682038 0.00033528442 0.0007877746 -0.00053890684
0.006369392 -5.1149753e-05 -0.0011872279 -0.0010549882 0.011240265 -0.0005595998 0.011117418 0.0032189589
00000000: d2bb 7d3b 58b3 27bc b1bd 053a 8c8d 5a3a
00000010: 7cbf 093b 8fe9 5bba 2b29 5a3a da91 9037
00000020: 80c4 b63b 0670 a3b8 356a 54b8 d901 8cba
00000030: 2a6d 8fb6 3288 35ba 3c11 82b8 bf14 3339
00000040: e921 dbb7 23ae 263c 26b4 b838 c32e 4838
00000050: 0417 beb9 b3ec 30bc 7b57 55ba c53f acbb
00000060: 802d d439 75dc 303c 5c99 81bb e361 393c
00000070: 108f 2a3a 0887 b1b6 e9fb a93b fd22 2dbc
00000080: 92ec a3b7 a211 2d3a b728 3a3c 212e abba
00000090: c471 0db8 930f 0e3c 26e4 f337 a570 323a
000000a0: 7e41 37bc 140f 283b dd42 21ba f880 04b7
000000b0: cf42 ba36 b1c6 113a 90a9 06ba 16bf 74b8
000000c0: 5c4a 3dba 2786 ffbb ccb0 a4b7 7515 debb
000000d0: 7ca9 293a a85d 39bc 66ea 8e3a 976e 07ba
000000e0: 09a3 2d37 2ab1 dd39 018b 13bb fede 713a
000000f0: 1a87 ff39 5338 a9b9 df90 18bb 5da3 e7b8
00000100: f0af 383c 120c 0a3a 0bc6 ee3b da1c 1d3a
00000110: e5af a53b a5d4 bab5 8684 e1b9 292d 133a
00000120: d6a3 38b8 5258 2c3c 229f e03b a13e 393c
00000130: 57c2 aeb7 178c ccb9 e736 ca38 e167 77b9
00000140: b757 4a3a 4a80 39bc c790 ab39 bd41 27ba
00000150: ad60 373c b777 c139 d544 11ba 973f cc39
00000160: 6637 a3bb 9dfa 153a 0702 37bc 06fe 34bc
00000170: 8437 2338 a087 f43b b81e 3abc b969 46ba
00000180: e75d 49ba 615e 30bc 0df6 15bc 6147 8737
00000190: 0de4 5eb6 d0af 313c 377f 8936 a936 32bc
000001a0: 8017 e437 e405 1ab6 ad91 26b8 479b 82b9
000001b0: e1b0 03bb 398b 02b7 d545 89bb ed92 bab7
000001c0: 1068 513a f95d 3b3a c5a7 3438 d6c7 59bb
000001d0: ab90 4fbb 74a3 38bc a707 13bc 6682 a5b7
000001e0: 2307 323c 0611 55b8 a41f 193a 65bf 2fb9
000001f0: 439a 0136 17e6 0ab9 3b11 f6bb 699b 32b9
00000200: 4702 9eb9 9b7a 46ba 6ffc 16b8 7ea6 15ba
00000210: 564c 3abc ebd9 21b8 4c77 3abc d764 a338
00000220: d8a5 aa37 e159 6c39 b350 353c 6b4e 5db8
00000230: b7e0 b234 24b4 5a3a 5288 163c 50cc 39bc
00000240: 2203 28bc 4986 4d3a b54f 33bc 9a43 1aba
00000250: 9868 05b8 2b38 083a 4aaa f839 9438 b6b7
00000260: 68ec 2b3c 3358 64b8 dedf 113b b32b d63a
00000270: e339 2dbc 8133 4ab8 c34f 2eb9 fb84 1fbb
00000280: 73e6 d7b9 de93 9c36 a1c8 37bc 9461 41ba
00000290: 0123 e33b 7682 553a a7a4 f9b7 a437 44ba
000002a0: 73e6 34b9 dc64 3a3a 6e8d 2eb7 dce8 f9b8
000002b0: 6712 173c e0e1 53b8 7cf1 54ba 5d12 ceb8
000002c0: ab54 3a3c 7b4a 2a38 d879 fc3b bb19 183c
000002d0: 8c99 293c d8f3 4d3a 7d37 123b 28f1 45ba
000002e0: 2ed1 1abc 28ac 88b8 9822 a3ba 3ab4 343c
000002f0: c966 e53b 64ca 03ba 8eee 2cbc 699f c335
00000300: b47f 063c 4987 1639 d402 173c c078 19b8
00000310: 8363 00b7 7d3f 37bc f272 5838 fa50 77b6
00000320: 71e0 df34 4525 3636 2fad 123a 78ef 253a
00000330: 3eba 9236 5fae 1eba 67b0 34bc 2dfe eab5
00000340: eb5d 26ba 9b51 50bb 8d84 28bc 9c54 24bc
00000350: 240d b1b5 c45b 3ab9 0bb3 d739 7324 35bc
00000360: d7e6 293c 47a7 a338 3a43 b23b 14ea b737
00000370: c647 4b3a 8f52 f4b8 e939 dd38 910a 213a
00000380: d146 e636 2951 313c f379 22bc 73c7 e7b9
00000390: fdda 8536 3ea3 22b3 2a10 e435 95a5 363c
000003a0: 8ca2 593a 9942 59ba 1dca 4eb9 9944 7c38
000003b0: 67ea 00b9 e5ad 57ba 2771 30b9 2168 03ba
000003c0: dd02 52ba 212a 25b8 8d27 ba37 82c5 263c
000003d0: de33 1b3b 1dc9 af39 a982 4e3a 6d45 0dba
000003e0: 55b6 d03b a189 56b8 c29c 9bba 8847 8aba
000003f0: 1729 383c 1bb2 12ba d525 363c 2bf5 523b

convs.4.weight f4 [16, 16]
-0.0007636422 9.75005e-06 0.00076994626 0.0016464972 -9.991656e-07 0.002351628 0.0005524162 -0.0007914156
-6.0732433e-05 0.011173877 0.0009253193 -0.01107203 0.00067107193 6.814665e-05 0.0009721919 -6.904924e-05
0.0100506 -0.009447996 0.00035752234 3.5281068e-05 -0.00070888817 -0.0007929094 3.7284858e-06 0.00043276203
5.7477322e-05 -0.0006954933 -0.010662023 4.9106813e-05 0.0026272044 -0.00079799147 -0.01035461 0.0022847564
7.735215e-06 -0.00078024133 -1.6283653e-05 0.010861119 0.009765077 -0.0016287707 -0.011072485 -0.010955729
0.0071905875 -0.00030245163 0.0028665585 -0.0020455301 -0.007181353 -0.009124574 -0.0071233716 -0.003156025
-3.1283966e-05 0.0008032057 -0.00034542716 0.0009352623 -5.7867514e-05 -0.0010281688 0.011183478 -3.5362416e-06
-6.6092343e-06 -0.00020745455 0.0035997801 0.01131883 8.012507e-06 -0.0041669407 -0.011357346 -0.0017677428
-0.00021987269 0.010242227 0.00047397127 -0.0008473573 0.011111653 0.00033197628 -0.010947984 7.483449e-05
0.0021960067 -0.010447664 0.00061547227 -0.0048729624 0.0052861096 -0.0015840644 0.005568933 -0.0103341285
-0.00082035275 -0.002237999 2.8300296e-05 1.3606629e-05 1.7844133e-06 0.0007594292 -0.00078649184 0.011141795
-0.00055468414 -0.009434672 -1.5209574e-05 6.325293e-05 -0.00042941986 -0.008292086 -0.0021113148 0.00028198774
-0.00032324114 0.010353301 -1.6789685e-05 0.0016765365 -0.010467642 0.010848433 0.00085396686 -0.010025089
0.00048014126 0.00018989823 0.010822346 -0.010837439 -6.909525e-07 0.011208306 -0.010287414 -0.00074468914
-0.0003423778 -0.011334856 0.0060114814 0.0066127977 -1.0501593e-05 -3.0145104e-06 -0.00027297938 0.010846215
-0.00011068448 -0.0008205391 -0.0007858376 0.011264941 -4.6478843e-05 -8.29808e-05 0.010920126 -0.009876183
9.991389e-06 1.2401827e-05 0.0016898911 4.064807e-06 -0.010801553 -0.0056932606 0.009274177 -0.011350379
-1.5707481e-05 0.00071077794 -0.009217136 -0.011034653 0.009304957 -0.011278188 0.005407769 2.149897e-05
0.0062211985 -5.771714e-05 -0.00012620527 -1.9941937e-05 -6.5774685e-07 9.296812e-07 -0.010377513 -0.0014247557
-0.0008546436 0.0007540251 -0.009196525 0.0014186273 -1.0258883e-05 -5.3478387e-05 0.011247636 0.009976326
4.9971995e-06 -0.0006214701 -0.0007865435 -3.2415566e-05 -5.575584e-06 -0.0041855336 -0.00012381465 -0.009933743
-0.00961674 0.00890874 0.009054729 0.0101467185 0.0004866729 -0.0006040218 1.5708576e-05 -5.3260785e-05
-0.00042036033 -5.8324236e-05 -0.00035953813 -0.01043484 -0.00043458538 0.006957264 0.0007715823 -3.4457776e-06
-0.008849124 -0.0031192058 -0.011332982 0.0076094293 -0.0038613065 -0.010813642 -0.0005767879 -0.011338428
-0.0082688 -0.00049591233 0.0006859709 -0.00025810953 0.011250029 2.7675076e-05 1.945402e-05 0.0043168883
0.00066924613 0.011045447 -0.011151936 -0.010732868 5.794115e-07 0.00322321 0.00066057156 -2.2173544e-06
-1.866868e-05 6.7944355e-05 -0.008679557 -0.0006739965 -1.2962772e-05 1.0065048e-05 -0.00045314775 -0.010044394
-6.342021e-05 -0.00024621282 -1.6629205e-05 3.3246204e-05 -0.0055160285 5.9113994e-05 0.011291111 -4.810701e-05
-0.0008443627 1.7668701e-07 -4.1359426e-06 0.010163833 -7.971181e-06 1.2075365e-07 -7.5778335e-06 -0.011324244
-4.3496693e-05 -0.0038425098 2.5516863e-05 0.010883718 4.3249212e-05 -0.010611619 0.004334859 0.00399976
-0.010489903 -0.010001765 0.00072137883 -0.002246886 6.6215995e-05 0.010321551 -0.00069051137 0.00011061182
-2.5194808e-05 0.00018520617 0.011006732 -0.0061520645 -0.011022218 -0.0006431497 1.1434789e-05 -0.00019675973
00000000: 292f 48ba 2594 2337 38d6 493a 47cf d73a
00000010: 121b 86b5 c51d 1a3b 06d0 103a 0077 4fba
00000020: f4ba 7eb8 a312 373c 2191 723a 7667 35bc
00000030: e0ea 2f3a f4e9 8e38 b2da 7e3a 87ce 90b8
00000040: 46ab 243c c4cb 1abc d671 bb39 c2fa 1338
00000050: aed4 39ba 40db 4fba e636 7a36 56e4 e239
00000060: ce13 7138 c451 36ba c4af 2ebc 0af8 4d38
00000070: 2d2d 2c3b 4d30 51ba 62a6 29bc dabb 153b
00000080: 7fc6 0137 1c89 4cba e198 88b7 d6f2 313c
00000090: b4fd 1f3c 7a7c d5ba 5e69 35bc a87f 33bc
000000a0: 059f eb3b 5f92 9eb9 dfdc 3b3b 4d0e 06bb
000000b0: 8e51 ebbb 3d7f 15bc 2c6b e9bb 50d5 4ebb
000000c0: e736 03b8 398e 523a 731a b5b9 642c 753a
000000d0: c5b6 72b8 9fc3 86ba e83a 373c 2b50 6db6
000000e0: e4c4 ddb6 2888 59b9 4aea 6b3b 9d72 393c
000000f0: 756d 0637 d58a 88bb 2914 3abc 9bb3 e7ba
00000100: a08d 66b9 04cf 273c 597f f839 3021 5eba
00000110: a70d 363c 1a0d ae39 2c5f 33bc 76f0 9c38
00000120: e1ea 0f3b ae2c 2bbc a557 213a 5fad 9fbb
00000130: 1a37 ad3b 62a0 cfba 997b b63b 7a50 29bc
00000140: f10c 57ba 65ab 12bb 6c66 ed37 0748 6437
00000150: f97f ef35 6e14 473a 932c 4eba 138c 363c
00000160: 3968 11ba e293 1abc 9f2c 7fb7 a9a6 8438
00000170: c223 e1b9 88db 07bc fc5d 0abb c1d7 9339
00000180: b178 a9b9 e4a0 293c 93d7 8cb7 3bbf db3a
00000190: 7980 2bbc a0bd 313c bfdc 5f3a 4540 24bc
000001a0: 78bb fb39 6b1f 4739 3650 313c 848f 31bc
000001b0: e579 39b5 0ba3 373c 8b8c 28bc 3e37 43ba
000001c0: 2c81 b3b9 d5b5 39bc f6fb c43b 2bb0 d83b
000001d0: 0030 30b7 e54c 4ab6 ac1e 8fb9 53b4 313c
000001e0: 471f e8b8 7219 57ba ab00 4eba 9690 383c
000001f0: 47f2 42b8 fa05 aeb8 54ea 323c b7cf 21bc
00000200: b0a0 2737 7111 5037 567f dd3a 6d64 8836
00000210: fff8 30bc 888e babb b8f2 173c f1f6 39bc
00000220: 8fc3 83b7 8053 3a3a 7803 17bc b0ca 34bc
00000230: d273 183c 26c8 38bc a733 b13b b058 b437
00000240: 32db cb3b 4f15 72b8 f855 04b9 fc48 a7b7
00000250: 0590 30b5 358f 7935 7206 2abc debe baba
00000260: 290a 60ba c5a9 453a 06ad 16bc 3cf1 b93a
00000270: 911d 2cb7 fb4d 60b8 0148 383c be73 233c
00000280: 9ead a736 27ea 22ba 0a30 4eba f3f5 07b8
00000290: e715 bbb6 cd26 89bb 3ed4 01b9 23c1 22bc
000002a0: 888f 1dbc f7f5 113c 495a 143c 6c3e 263c
000002b0: 2228 ff39 3857 1eba e9c5 8337 5564 5fb8
000002c0: cf63 dcb9 2ca1 74b8 6480 bcb9 e4f6 2abc
000002d0: 10d9 e3b9 c3f9 e33b 0344 4a3a 023e 67b6
000002e0: ebfb 10bc 976b 4cbb f9ad 39bc 8558 f93b
000002f0: f90d 7dbb b42b 31bc 9533 17ba d0c4 39bc
00000300: dc79 07bc 1d00 02ba bad2 333a e052 87b9
00000310: 0b52 383c c627 e837 3131 a337 af74 8d3b
00000320: 5970 2f3a f6f7 343c 9cb6 36bc e9d8 2fbc
00000330: db88 1b35 7e3c 533b 352a 2d3a dccd 14b6
00000340: af9a 9cb7 597d 8e38 b334 0ebc 24af 30ba
00000350: af7a 59b7 0ddd 2837 7694 edb9 3e91 24bc
00000360: 7700 85b8 2016 81b9 f27e 8bb7 d771 0b38
00000370: cdbf b4bb 2bf1 7738 5afe 383c 82c6 49b8
00000380: 3958 5dba 5bb7 3d34 7ac7 8ab6 3586 263c
00000390: f6bb 05b7 83a8 0134 1845 feb6 5289 39bc
000003a0: 3870 36b8 9ed2 7bbb 0c0d d637 9f51 323c
000003b0: 7d66 3538 5bdc 2dbc 6f0b 8e3b 6b10 833b
000003c0: d8dd 2bbc 71de 23bc ea1a 3d3a 7e40 13bb
000003d0: 71dd 8a38 b91b 293c 6f03 35ba 45f8 e738
000003e0: 7059 d3b7 e733 4239 9455 343c 4297 c9bb
000003f0: 8896 34bc 0c99 28ba 0bd8 3f37 4a51 4eb9

convs.5.weight f4 [16, 16]
0.0072558885 -4.635563e-05 -1.10655865e-05 0.0006901145 0.007867513 -0.0051130136 -0.005374206 0.011400193
3.7102815e-05 0.0007787756 -0.011079004 -0.0017654008 -0.011323121 -0.000108510285 -0.006305724 -0.010379683
0.011099418 0.009988793 3.081133e-05 -0.00043310307 -0.0005327268 1.10588324e-07 0.00020723192 2.7373651e-05
0.00023654223 -0.0009408083 -0.0048065847 0.00601588 -4.130033e-05 -0.00011290381 5.955275e-05 -0.011277695
-7.927202e-07 -4.6278343e-05 -0.011370945 -0.00052587077 -1.2296614e-06 3.2225515e-08 0.008696387 1.4890209e-06
0.0053781355 3.6740457e-06 -7.915165e-06 -8.206339e-07 0.010880552 0.011025315 0.0008213461 -0.01109273
0.011346357 0.00040824641 0.0077629955 -0.00016548646 -0.011241852 -0.008591058 0.0075630937 -0.0028225898
0.00016974364 -2.1047814e-05 -0.010743662 -0.00045341562 -4.2784177e-05 -0.00045240624 7.3037125e-05 -0.00022942064
-0.00032300784 0.0008773596 -0.0008951559 0.00019263788 0.011292142 2.3641815e-06 7.480919e-05 -0.0006442056
0.00041909466 -0.0002839557 -0.0064737834 -0.00055521243 0.003378131 -0.0066117058 0.00014150365 -0.00022050712
0.0045495476 4.0171668e-05 0.010977647 1.5909733e-05 0.0005692765 0.011291537 0.004365788 0.0071110926
-0.0108583355 -0.010990418 -1.0622183e-07 -0.011189263 -0.0001408189 0.01066192 0.00023831893 0.00029369284
-0.010452312 0.00036770408 -0.008870258 -0.0026491135 -0.007268749 0.010153165 -0.010503985 0.011024892
-0.011371423 5.0960258e-05 0.011333355 -2.568613e-05 -3.1360923e-05 0.011367017 -0.00037486377 7.950043e-06
-0.009290011 -6.211225e-05 -0.0019677945 -0.00010029287 -1.4973648e-05 1.880702e-05 0.004532237 0.010707614
-4.765722e-05 0.011227197 -0.00097452523 -9.863291e-05 0.0045297514 -0.00081509043 -1.3027798e-05 -0.00018309809
0.0005917437 1.3212442e-05 -3.2667024e-06 3.029969e-06 -3.3086408e-06 -0.00049953844 -0.00021570931 -0.00017141196
0.003077095 -1.823188e-05 4.9881505e-06 0.00059108675 4.235543e-05 -0.008229288 0.00014389478 0.007860227
0.0008220906 0.005260427 -3.0313182e-05 -5.9612474e-05 -0.00048321806 -0.00041922313 -0.0114073865 -0.0011300095
-5.8902257e-05 -0.011198688 0.011313328 0.00043595606 -0.003747835 -0.004835608 0.009796753 0.00010064426
0.0011126793 1.3771489e-05 -3.7993075e-05 0.010732929 0.010964346 0.0044999444 0.0008536565 0.00084066024
0.011224347 -0.00047764796 0.0030844216 0.011160692 -0.00092395366 -0.011373796 6.7953943e-06 0.008020548
4.4744407e-05 0.00036628818 -0.009682296 9.484022e-05 0.011368923 0.00084924034 2.1613156e-05 -8.888479e-05
-0.00078880705 -0.00024124127 -0.0101712365 1.8265378e-05 -0.0071672224 -0.011364069 1.2837144e-06 1.5595897e-05
2.5445962e-07 -0.0057356744 0.011378036 0.00066541106 -5.3971326e-06 0.000835982 -0.0003276105 -0.0004403071
-2.652737e-07 -0.00028214097 0.006019704 0.0033881112 -4.1707186e-05 -0.00036563247 0.0006362955 -0.005145227
-1.742001e-07 -0.011081901 -0.0008570672 0.0008373974 -0.0008221791 0.005840935 0.006262901 0.011408686
0.011273596 5.574638e-05 -0.0026701957 -0.011330632 -0.011010468 -7.2991024e-05 -2.1430857e-05 0.0019071064
0.00057772483 0.010886706 0.0007679805 1.3595507e-05 2.7056252e-05 0.00039794663 -0.0008200121 -0.011093473
0.0007343779 -0.0044560805 2.7087717e-07 -0.003262325 -0.0051434226 0.00083830894 -0.00870947 -2.3724107e-05
-0.004494746 2.5572279e-05 -0.0022408555 -0.010576958 8.141693e-05 -0.00043257666 -0.000102413964 1.8679437e-05
5.0620336e-05 -9.519095e-05 -0.0094806515 -0.0025021657 0.0029731898 -7.3719064e-05 6.656071e-05 0.0029878533
00000000: cec2 ed3b fb6d 42b8 55a6 39b7 cde8 343a
00000010: bee6 003c 118b a7bb 1c1a b0bb e0c7 3a3c
00000020: d89e 1b38 bf26 4c3a b684 35bc 0565 e7ba
00000030: 9d84 39bc 0490 e3b8 3fa0 cebb 8c0f 2abc
00000040: 55da 353c 09a8 233c 6a3b 0138 1c12 e3b9
00000050: b1a6 0bba 937c ed33 654c 5939 78a0 e537
00000060: 5208 7839 94a0 76ba 8e80 9dbb dc20 c53b
00000070: e439 2db8 c5c6 ecb8 47c8 7938 15c6 38bc
00000080: 51cb 54b5 fe1a 42b8 334d 3abc 97da 09ba
00000090: d80a a5b5 5468 0a33 4a7b 0e3c 5eda c735
000000a0: 123b b03b a08f 7636 60cb 04b7 8849 5cb5
000000b0: 5844 323c 86a3 343c 9b4f 573a 48be 35bc
000000c0: 12e6 393c e809 d639 ba60 fe3b 6f86 2db9
000000d0: bf2f 38bc 82c1 0cbc d4d3 f73b 33fb 38bb
000000e0: 36fd 3139 d68f b0b7 2f06 30bc 6ab8 edb9
000000f0: 2973 33b8 f030 edb9 822b 9938 a290 70b9
00000100: 6159 a9b9 9bfe 653a e5a8 6aba d6fe 4939
00000110: ad02 393c 54a8 1e36 e1e2 9c38 e8df 28ba
00000120: efb9 db39 e4df 94b9 0822 d4bb ad8b 11ba
00000130: a263 5d3b 02a7 d8bb 9960 1439 ee37 67b9
00000140: 5f14 953b 007e 2838 97db 333c e475 8537
00000150: 803b 153a 2400 393c e20e 8f3b 2b04 e93b
00000160: 29e7 31bc 2711 34bc 121c e4b3 2c53 37bc
00000170: c9a8 13b9 55af 2e3c 40e5 7939 c9fa 9939
00000180: 2d40 2bbc 68c8 c039 8f54 11bc c09c 2dbb
00000190: b02e eebb 7659 263c e818 2cbc c0a1 343c
000001a0: 344f 3abc 29be 5538 89af 393c 8b78 d7b7
000001b0: 8989 03b8 ba3c 3a3c 5d89 c4b9 2d61 0537
000001c0: 2135 18bc 4342 82b8 1df6 00bb 5354 d2b8
000001d0: 5437 7bb7 c5c3 9d37 2983 943b fd6e 2f3c
000001e0: 8de3 47b8 47f2 373c 4877 7fba 24d9 ceb8
000001f0: 4f6e 943b cbab 55ba f791 5ab7 05fe 3fb9
00000200: 3f1f 1b3a 02ab 5d37 8539 5bb6 7956 4b36
00000210: 040a 5eb6 75f3 02ba 0730 62b9 0cbd 33b9
00000220: 16a9 493b aaf0 98b7 e35f a736 29f3 1a3a
00000230: cca6 3138 23d4 06bc 76e2 1639 2ec8 003c
00000240: 9181 573a a95f ac3b 1049 feb7 6808 7ab8
00000250: 6e58 fdb9 2dcb dbb9 0ce6 3abc d41c 94ba
00000260: d10d 77b8 b47a 37bc 895b 393c 0891 e439
00000270: 3d9e 75bb 0574 9ebb 8f82 203c fa10 d338
00000280: 52d7 913a 180c 6737 c15a 1fb8 2bd9 2f3c
00000290: cda3 333c 4574 933b ebc7 5f3a c15f 5c3a
000002a0: 53e6 373c d36c fab9 0224 4a3b 56db 363c
000002b0: 7b35 72ba 2859 3abc fe03 e436 9e68 033c
000002c0: f1ab 3b38 5e0a c039 7ea2 1ebc f5e4 c638
000002d0: b844 3a3c 8e9f 5e3a e64d b537 a967 bab8
000002e0: f2c7 4eba b6f5 7cb9 42a5 26bc 9a38 9937
000002f0: 05db eabb 5c30 3abc 174c ac35 efd3 8237
00000300: aa9c 8834 53f2 bbbb f16a 3a3c fb6e 2e3a
00000310: 0419 b5b6 cd25 5b3a 23c3 abb9 05d9 e6b9
00000320: f16a 8eb4 52ec 93b9 f040 c53b 130b 5e3b
00000330: c0ee 2eb8 5cb2 bfb9 11cd 263a 4b99 a8bb
00000340: c20b 3bb4 dd90 35bc ceac 60ba ca84 5b3a
00000350: 8187 57ba 5065 bf3b 0539 cd3b 7feb 3a3c
00000360: e4b4 383c 38d1 6938 73fe 2ebb 1da4 39bc
00000370: 4065 34bc c212 99b8 6ac6 b3b7 dff7 f93a
00000380: 7572 173a 285e 323c 4d52 493a 4218 6437
00000390: dcf6 e237 7ea3 d039 15f6 56ba 66c1 35bc
000003a0: 4483 403a 5004 92bb 136d 9134 bbcc 55bb
000003b0: 288a a8bb f6c1 5b3a 2ab2 0ebc 2203 c7b7
000003c0: aa48 93bb 0d84 d637 51db 12bb fa4a 2dbc
000003d0: 62be aa38 75cb e2b9 14c7 d6b8 c9b1 9c37
000003e0: 2c51 5438 41a1 c7b8 bc54 1bbc 60fb 23bb
000003f0: d9d9 423b 9f99 9ab8 8296 8b38 dccf 433b

convs.6.weight f4 [16, 16]
7.813139e-05 -5.2768944e-05 -0.00029214844 -8.721927e-05 -0.0002960683 -0.010916052 0.00047282537 -0.010328695
-3.013151e-05 0.00016081521 0.000580628 -0.00024379167 0.009471169 0.0017956779 -0.000157216 -0.00081294426
0.00049264514 0.0005623927 -0.00972719 2.757287e-05 -0.0001892532 0.008359323 0.0076071955 0.0020634604
3.192055e-05 -0.0002875342 -0.011272358 -7.0092254e-05 -3.1677752e-07 -8.173224e-06 6.652739e-05 -3.216072e-06
0.00016582487 -6.263917e-06 -1.3912396e-06 0.00045436478 -1.7668879e-05 0.002021106 1.7546346e-05 2.0478785e-07
-0.0008326342 0.0007938748 -0.00022660512 9.158341e-06 -0.0006755134 2.1549715e-06 0.010989429 3.2888678e-05
-0.0006666755 -0.0024242527 3.3230658e-06 -9.947249e-05 2.7219061e-05 -0.008673322 -0.0006678798 -0.001986284
8.3082836e-05 0.004873366 0.00010751864 0.001961858 -4.8187892e-05 -0.00077348866 0.005453883 -0.009715252
0.011364771 0.0004477723 0.011379488 -2.3660885e-05 -4.5805455e-06 -0.0067358804 -0.00038404684 4.1317755e-05
5.8957565e-05 -0.0017389233 0.00019760277 0.00056417234 0.0023130844 0.006033842 -0.01134769 0.007330376
3.7414544e-08 -6.109383e-07 -0.010497422 -4.277675e-05 0.008696981 -2.3414097e-05 0.0002408855 0.0006828458
-0.010602159 -3.240429e-05 0.00078003 0.011109337 0.0005812975 0.0008181176 -0.0039663333 0.0012330165
-1.1779652e-05 3.7301954e-05 0.0067330045 0.009788704 0.010829356 5.302702e-07 -0.0029648535 2.3228738e-05
-9.338562e-06 0.0002441737 0.0032547817 0.00022878587 -3.2783264e-05 -0.0005615905 -0.011149626 0.009108589
0.00013768909 0.011305705 -0.00011019963 -0.0007273505 0.00014890805 0.000888507 -0.003618324 0.010270745
-0.0022524141 0.008307994 -0.00031933142 -0.0005623616 6.9266585e-05 -0.000106804844 -0.004106324 -0.00026052922
0.0113116605 5.505673e-07 0.005862327 -0.008193134 1.8157835e-06 -2.1881076e-05 -0.00033829035 0.00022989274
0.0021071106 0.0007618249 -0.0004317093 -0.00269471 1.721806e-05 0.011269193 -0.007090834 -4.4197535e-05
-4.456922e-05 4.5830562e-05 -0.007554532 -0.008935086 6.392214e-06 0.0007519071 0.011151171 3.35764e-05
0.011282527 0.00011818482 0.006746501 -0.00022102092 -0.0062505514 -0.010952607 0.0021582202 0.00048937806
8.25746e-06 0.00062632276 3.468846e-06 -3.7265752e-05 0.004454274 0.0008243222 -0.010473276 -0.00066929444
0.000777535 0.00063644454 -0.0100270705 3.398962e-05 7.178867e-06 -0.007708205 -0.0034191173 -0.010274924
-1.5522043e-06 0.00064843084 -0.0062194737 0.005393272 2.840856e-05 -4.4645927e-05 -0.003861522 -0.0008402635
-8.260344e-06 -0.0020938155 0.01133589 0.010894291 -0.00030254605 -0.003805045 -0.0050385296 0.0055544246
1.6888844e-05 3.770285e-05 -0.0008187852 -0.01115407 0.0006865663 -4.2397573e-06 9.961669e-06 1.4468153e-05
4.2010714e-05 -0.00019389953 0.0017047849 -0.004703893 9.3852367e-07 0.0007891456 -0.0005017941 0.0006751609
-0.0074380552 -0.002478272 -4.862139e-05 -0.010343984 5.878299e-05 4.034686e-05 -0.011123798 -0.010585693
-0.0007622571 -0.011370228 0.00022145476 -0.00057855254 -0.011252306 -0.00025373852 -0.004140024 -0.010315236
0.0058559417 0.0017966938 0.01019048 -2.6650391e-06 0.011365982 -0.00014360617 1.3761343e-05 -0.006573863
-0.0007387098 -0.0006751572 0.00076096394 0.0029186283 0.009745196 -5.643046e-05 -0.011028362 -5.2071728e-06
-0.0002464902 0.0053881085 -0.00060797477 0.009031372 -0.009922455 4.664936e-06 0.0112422975 2.4612951e-05
-2.6240139e-05 0.00011808009 0.000157046 -0.00054611656 0.011149229 0.00882941 8.196485e-05 0.011120271
00000000: 78da a338 3954 5db8 802b 99b9 7de9 b6b8
00000010: 9d39 9bb9 3ed9 32bc 8ce5 f739 b039 29bc
00000020: edc2 fcb7 81a0 2839 4935 183a 54a2 7fb9
00000030: f62c 1b3c f45c eb3a 59da 24b9 c41b 55ba
00000040: db24 013a 896d 133a cb5e 1fbc 4a4c e737
00000050: 4572 46b9 8bf5 083c c845 f93b 1f3b 073b
00000060: 6ee2 0538 30c0 96b9 b2af 38bc 7efe 92b8
00000070: 9211 aab4 bb1f 09b7 9f84 8b38 b2d3 57b6
00000080: 46e1 2d39 a32e d2b6 a1ba bab5 cf37 ee39
00000090: a137 94b7 8874 043b 7e30 9337 a8e3 5b34
000000a0: 2345 5aba 091c 503a d99c 6db9 c6a6 1937
000000b0: f014 31ba 219e 1036 020d 343c f3f1 0938
000000c0: d6c3 2eba 36e0 1ebb d601 5f36 e39b d0b8
000000d0: 7d54 e437 8d1a 0ebc a814 2fba 512c 02bb
000000e0: c23c ae38 c2b0 9f3b a17b e138 8492 003b
000000f0: 5b1d 4ab8 f2c3 4aba 7db6 b23b b82c 1fbc
00000100: 4e33 3a3c fbc2 ea39 0871 3a3c 5d7b c6b7
00000110: 96b2 99b6 a9b8 dcbb e559 c9b9 9a4c 2d38
00000120: 3449 7738 95ec e3ba 9733 4f39 f7e4 133a
00000130: 1e97 173b 89b7 c53b a9eb 39bc a733 f03b
00000140: bab1 2033 5cff 23b5 61fd 2bbc 306b 33b8
00000150: c87d 0e3c 6469 c4b7 3696 7c39 0201 333a
00000160: aeb4 2dbc d7e9 07b8 ed7a 4c3a f003 363c
00000170: 3762 183a f176 563a 04f8 81bb 2b9d a13a
00000180: 38a1 45b7 ab74 1c38 89a0 dc3b cd60 203c
00000190: 9c6d 313c e457 0e35 fd4d 42bb 56db c237
000001a0: d2ac 1cb7 7004 8039 2d4e 553b 3de6 6f39
000001b0: c380 09b8 b337 13ba ecac 36bc 313c 153c
000001c0: a260 1039 903b 393c fa1a e7b8 aaab 3eba
000001d0: 3324 1c39 b2ea 683a 6721 6dbb a046 283c
000001e0: 3d9d 13bb 411e 083c f06b a7b9 736b 13ba
000001f0: 3743 9138 6afc dfb8 588e 86bb a497 88b9
00000200: 8b54 393c b2ca 1335 c318 c03b 7f3c 06bc
00000210: d9b5 f335 418d b7b7 905c b1b9 5d0f 7139
00000220: 7317 0a3b 34b5 473a 0b57 e2b9 bb99 30bb
00000230: 816f 9037 6ca2 383c 3a5a e8bb be60 39b8
00000240: d6ef 3ab8 313a 4038 028c f7bb 7864 12bc
00000250: b37c d636 a21b 453a 67b3 363c 63d4 0c38
00000260: 59da 383c fed9 f738 c111 dd3b dac1 67b9
00000270: 6dd1 ccbb 9072 33bc ed70 0d3b 9b49 003a
00000280: 8589 0a37 cf2f 243a 52ca 6836 cc4d 1cb8
00000290: 29f5 913b 5417 583a 1a98 2bbc 9773 2fba
000002a0: 7ed3 4b3a 12d7 263a 9548 24bc 1490 0e38
000002b0: ffe1 f036 1c95 fcbb 4513 60bb 2858 28bc
000002c0: 5555 d0b5 75fb 293a bacc cbbb 0bba b03b
000002d0: eb4e ee37 3342 3bb8 9711 7dbb 2145 5cba
000002e0: e895 0ab7 6538 09bb 2bba 393c f87d 323c
000002f0: 0b9f 9eb9 105e 79bb 401a a5bb e401 b63b
00000300: 84ac 8d37 2023 1e38 bfa3 56ba 8fbf 36bc
00000310: affa 333a 3d43 8eb6 0b21 2737 3ebc 7237
00000320: a934 3038 8251 4bb9 1773 df3a 1d23 9abb
00000330: dbee 7b35 aade 4e3a d58a 03ba 48fd 303a
00000340: eeba f3bb 816a 22bb d2ee 4bb8 d079 29bc
00000350: c18d 7638 1c3a 2938 9740 36bc 9d6f 2dbc
00000360: 35d2 47ba 314a 3abc 4f36 6839 01aa 17ba
00000370: 985b 38bc 3508 85b9 0aa9 87bb 3c01 29bc
00000380: 33e3 bf3b 0a7f eb3a f9f5 263c 06d9 32b6
00000390: 6238 3a3c fd94 16b9 85e0 6637 8f69 d7bb
000003a0: faa5 41ba 08fd 30ba 6d7b 473a 7546 3f3b
000003b0: 51aa 1f3c bfaf 6cb8 4eb0 34bc 46b9 aeb6
000003c0: 5b3b 81b9 bb8e b03b 7f60 1fba 52f8 133c
000003d0: cb91 22bc 7f87 9c36 9d31 383c e977 ce37
000003e0: 451e dcb7 c4a1 f738 b7ac 2439 4329 0fba
000003f0: 41ab 363c 3ba9 103c 8be4 ab38 cc31 363c
